cem_cartpole_learned.pth (torch_old, 10328 bytes, 4 tensors)

fc1.weight f4 [64, 21]
000000 86 e8 b9 bb 10 84 a2 3e ef 8a 4f 3f 0b 5d fa 3e
       -0.005673471 0.3174138 0.8107137 0.4889911
000010 9e 8d 8e 3f 2b 99 bf 3f 01 13 dd bf c0 18 3b 40
       1.1136968 1.4968618 -1.7271425 2.9233856
000020 fe 61 d9 3f f4 ec 16 3f d2 a0 84 3e da 18 fd 3e
       1.698303 0.5895531 0.25903946 0.49433023
000030 1f 2a 3b 3f d2 86 55 bd 60 da 1c c0 8f 1b d6 bf
       0.73111147 -0.052130528 -2.4508286 -1.672716
000040 1f 1c e8 bf 21 b4 c4 bf 1c 53 5c be 4f 08 23 be
       -1.8133582 -1.5367471 -0.21516079 -0.15921138
000050 50 d2 18 be be a4 55 40 2f f9 37 40 bd 37 01 40
       -0.14923978 3.33818 2.874584 2.019027
000060 2d ba 1c bf 0d ed c8 3f a6 e7 2f 40 b3 fc ea 3e
       -0.6122158 1.5697342 2.7485137 0.4589592
000070 8a 90 e9 be c1 c9 e3 3e 0a 07 de bf 60 48 8a bf
       -0.45618087 0.44489864 -1.7345898 -1.0803337
000080 2b 01 57 40 f3 1c 59 40 56 23 1b bf 3a c5 0e bf
       3.3594463 3.392392 -0.60600793 -0.55769694
000090 5a 9d 7f 3f ea 33 7a bf f5 3f 41 3e 12 c5 e6 bf
       0.99849474 -0.97735465 0.18872054 -1.8028891
0000a0 55 f5 43 bf 79 50 6d 40 ad d4 81 3e db 17 52 c0
       -0.7654622 3.7080367 0.2535757 -3.282706
0000b0 4d f0 05 c0 fc f5 d7 bf 31 02 e4 bc c2 65 54 40
       -2.0927918 -1.6871943 -0.027833076 3.3187108
0000c0 9d 4f 4c bf 86 9f 2e bf 3d e1 63 be 16 a5 00 bf
       -0.7980898 -0.68212163 -0.2225389 -0.502519
0000d0 d0 bd 97 3f 0e 31 f2 be cb 15 fc 3e 7c 6f c2 bf
       1.1854801 -0.4730305 0.49235377 -1.5190272
0000e0 48 87 51 40 ad a6 01 3f 18 b2 62 40 2a d0 81 c0
       3.273882 0.5064495 3.54212 -4.0566607
0000f0 60 69 ba 3f 5f 3b 9f be cb 4e 85 bf 5f de 7a 3e
       1.4563408 -0.31099984 -1.0414671 0.2449889
000100 95 e9 41 3e db fe 4e bf 17 56 b7 3f 6f ee 13 bf
       0.1893676 -0.8085763 1.4323148 -0.57785696
000110 cc fb 6f 40 f0 b8 2d 40 0f 24 31 40 b4 8b 43 be
       3.7497435 2.7144127 2.7678258 -0.19096261
000120 7d 3b 61 bf 42 4e 23 40 7d 9a ea be 11 59 97 3e
       -0.87981397 2.5516515 -0.4582099 0.2956014
000130 b0 9b b0 3f 4d 08 9a bd 50 90 1f c0 f8 8b 6d 3f
       1.3797512 -0.075211145 -2.4931831 0.927917
000140 5a c6 a6 3f a4 27 fb bd da 07 b3 bf dc a9 02 bf
       1.3029282 -0.1226342 -1.3986771 -0.51040435
000150 1f 30 7e be 82 98 81 3f b9 0f d4 be d6 ae 66 3f
       -0.24823044 1.0124667 -0.41418245 0.9011053
000160 de 9b 70 3f 37 39 a1 be 35 f6 62 3f 94 bd d8 bf
       0.93987834 -0.31488964 0.8865693 -1.6932855
000170 e9 9a 54 3f d3 ea 7c 3f 72 4f 9f bf a0 b3 4a 3f
       0.83048874 0.98795813 -1.244612 0.79180336
000180 4d 3b ea be f9 1b 48 c0 d2 c8 32 3f b0 3c c9 bf
       -0.45748368 -3.1267073 0.6983768 -1.5721645
000190 05 a6 29 40 60 48 04 c0 d5 db b5 bf 51 93 33 be
       2.650758 -2.0669174 -1.4207712 -0.17536665
0001a0 78 6c f5 3e b7 40 12 c0 8f 1f 14 be 4b 23 8a bf
       0.47934318 -2.2851999 -0.14465164 -1.079202
0001b0 7e 07 94 bf 0e 5e 1c 40 e8 3c 01 3f 28 c8 3f 3f
       -1.1564786 2.4432406 0.5048356 0.7491479
0001c0 a1 e5 81 3d 5b bb 08 c0 25 87 e5 3d 10 b7 10 c0
       0.06342626 -2.1364353 0.112074174 -2.2611732
0001d0 ed f7 64 3f 8d db 3e 3f 8f 44 7a bf c6 8c c2 bf
       0.89440805 0.7455376 -0.9776086 -1.5199211
0001e0 a5 f6 82 3f 42 b1 41 bf 5d 8f 11 c0 ce 5e a2 bf
       1.023152 -0.756611 -2.2743752 -1.2685182
0001f0 04 5b ca 3f ed 2a 7a bf 7f 8b c7 3e d9 8b 15 3e
       1.5809026 -0.9772175 0.38973615 0.14604129
000200 07 48 ae bf 59 8d cb 3f 1d 16 a9 40 18 d1 19 c0
       -1.3615731 1.5902511 5.2839494 -2.403387
000210 bb f8 de 3f 00 46 13 3f a5 b0 c8 bf 3b 0b d7 bf
       1.7419657 0.57528687 -1.5678908 -1.6800302
000220 24 b5 9a bf 4b f5 5c 3f ea db a5 bf 13 6a 1d c0
       -1.208653 0.8631179 -1.2957737 -2.4595993
000230 4b 01 ca bf 36 0a 43 3e e7 58 3a c0 fa 7e e7 3f
       -1.5781645 0.19046864 -2.9116762 1.8085625
000240 3e 4d 92 3e 4b 08 1a 40 87 b2 43 bf a9 e8 1d 40
       0.28574556 2.4067562 -0.76444286 2.4673254
000250 36 20 e5 3f d5 d9 b6 3f d2 ea cd be fe db ea 3f
       1.7900455 1.4285227 -0.40218216 1.8348386
000260 fe 14 ac bf 1e 24 57 bf 0c 77 10 3b 0d 9a 65 bf
       -1.3443906 -0.84039485 0.0022043614 -0.8968819
000270 00 fb e8 bf 99 5b 47 c0 fd c6 0a 40 54 dc 75 c0
       -1.8201599 -3.1149657 2.1683953 -3.8415728
000280 e0 ed bf bf ef 9e a1 3f 0c 96 13 40 fb f7 20 c0
       -1.4994469 1.2626628 2.3060331 -2.5151355
000290 8d 2b b9 bf 50 d7 35 bf d4 7c d7 bf 1f 95 5d c0
       -1.4466416 -0.71031666 -1.683497 -3.4622266
0002a0 9a d5 d5 3f aa af 51 40 2a 60 40 bf e6 81 93 3f
       1.6705811 3.2763467 -0.75146735 1.1524017
0002b0 f1 7f 26 3f 16 e7 60 3f 1b e5 fa bf ca 12 40 3f
       0.65038973 0.8785261 -1.9601167 0.7502867
0002c0 60 8c 82 40 64 b2 a3 3d 8d bf cb bf bf d1 3a 3f
       4.0796356 0.0799301 -1.5917832 0.729763
0002d0 c3 78 8f 3f a4 f6 77 3f d5 a2 a6 3f 56 67 23 c0
       1.1208729 0.9686072 1.3018442 -2.5531821
0002e0 e8 0d ec be 38 15 37 3d aa a9 9d bf 96 76 c9 3e
       -0.4610436 0.04469797 -1.2317402 0.39348286
0002f0 ec b9 4f be 0c 43 67 c0 d6 ef 2b c0 2e 23 d0 bf
       -0.20285767 -3.6134672 -2.6865134 -1.6260736
000300 a0 ae 29 40 68 26 a9 3e af c5 27 40 13 c4 95 3f
       2.6512833 0.33037114 2.6214406 1.1700462
000310 39 3a 89 bf ad da f9 3e 6e 32 d7 3f 99 9c 63 c0
       -1.0720893 0.4879965 1.6812265 -3.556433
000320 bc 03 48 bf 22 28 a5 be b1 e3 cb bf 52 2d 23 c0
       -0.781307 -0.3225718 -1.5928861 -2.5496411
000330 86 ee a4 c0 a8 78 15 bf ea cc 80 3f 26 19 1d be
       -5.1541166 -0.5838723 1.0062535 -0.15341625
000340 d0 92 11 40 94 e3 34 3f 85 9d d0 be 8c 44 1d 3f
       2.2745857 0.70659757 -0.40745178 0.6143272
000350 a5 63 50 3f b1 c7 fa bf 2d 09 22 40 83 5f 0c c0
       0.81402045 -1.9592191 2.53181 -2.1933296
000360 63 a9 09 3f 7e 79 72 bd ce dd c1 3f 66 75 d1 3f
       0.5377409 -0.059197895 1.5145814 1.6363952
000370 fb 95 1a 40 52 20 ae 3f 36 75 1b c0 b4 d5 01 40
       2.415404 1.3603613 -2.429029 2.0286684
000380 9d 89 22 40 be 5e 1f 3e 98 f6 18 3f 9b ee 1a 3e
       2.5396492 0.15563485 0.5975127 0.15130083
000390 c7 52 6f 3f 35 0a 20 c0 cc 98 2a c0 64 fb a0 3f
       0.93485683 -2.500623 -2.665576 1.2576718
0003a0 64 cb f6 bf ac 7d fd bf 66 a7 86 3f 40 16 06 bf
       -1.928082 -1.9803977 1.0519836 -0.523777
0003b0 2c 51 59 3f 80 89 b9 3f c6 28 20 c0 b7 9a f8 bf
       0.84889483 1.4495087 -2.5024886 -1.9422215
0003c0 07 a8 8d 3f 58 27 a3 bc 07 c2 54 3f 95 0e 8d bf
       1.1066903 -0.019916221 0.8310856 -1.1020075
0003d0 90 96 8c 3f 08 19 51 40 6c e4 90 3f aa b9 a3 3f
       1.0983448 3.2671528 1.1319709 1.2791035
0003e0 ce 7f af bf e8 78 f6 3e 95 03 4e c0 c2 32 45 c0
       -1.3710878 0.4813912 -3.2189686 -3.081223
0003f0 7d 2d 92 3f ce 25 30 c0 ec 37 f9 bf a8 87 fc 3f
       1.1420132 -2.7523074 -1.9470191 1.9728899

fc1.bias f4 [64]
000000 27 8b 3a bf b1 82 b4 3f b9 05 ee be ca d7 81 3e
       -0.7286858 1.4102384 -0.4648874 0.25359946
000010 3b b3 60 3e ca b2 58 bf 1b 26 88 3d de 3f 95 40
       0.21943371 -0.8464781 0.06647893 4.6640463
000020 fe 39 55 3f 24 bc 37 c0 44 73 1c 40 e9 1c b6 3f
       0.83291614 -2.8708582 2.4445353 1.4227573
000030 97 ef 82 3f db 0f c5 3e 8f 80 d8 3d 3c 16 d8 3f
       1.0229367 0.3848866 0.105713956 1.6881785
000040 84 98 48 40 da 9a 9b bd 81 3d 70 3e 72 59 54 bf
       3.1343088 -0.07597895 0.23460962 -0.8294898
000050 c8 60 6e 40 5f 03 35 40 5b bf 89 bf 7e 33 a8 bf
       3.724657 2.8283308 -1.0761522 -1.3140714
000060 ff 8d c0 3f ef 3b 35 40 9d 43 b0 3f 81 9a 1c 3f
       1.5043334 2.831783 1.3770634 0.61173254
000070 eb 8d 9b 3e 2b 95 07 bf 7c 51 18 c0 16 85 11 40
       0.30381712 -0.5296199 -2.3799734 2.273748
000080 96 20 c2 bf 74 7e 47 40 fd a3 0b bf 88 88 10 bf
       -1.5166194 3.117093 -0.545471 -0.5645833
000090 b8 1b 34 3f e3 23 45 40 5e 26 6d be 20 a3 8c be
       0.70354795 3.0803154 -0.23159167 -0.27468204
0000a0 25 72 53 3f 82 2b 68 bf 97 5e 46 c0 5c 0f e6 3f
       0.82596046 -0.9069139 -3.0995233 1.7973437
0000b0 08 3a 76 bf c0 c6 14 40 2e 87 8f 3f 9b 92 0a 40
       -0.961823 2.3246307 1.1213129 2.165198
0000c0 0e 95 91 bf 13 16 2d c0 5c f8 e5 bf 3b 5c 7e 3f
       -1.1373613 -2.7044723 -1.7966418 0.9935948
0000d0 6b 4c 75 bf de 70 9b bf c7 48 64 3d b5 5f a6 3a
       -0.9581973 -1.2143819 0.05573347 0.0012693318
0000e0 0d 4a 10 3e d9 1f 26 c0 c7 af 73 40 66 8f bf 3f
       0.14090748 -2.5956938 3.8076036 1.4965637
0000f0 eb c5 0b bf 5e f7 cd 3f 47 e9 2a 3f 32 e9 18 40
       -0.54598874 1.6091115 0.667622 2.389233

fc2.weight f4 [15, 64]
000000 30 f7 21 40 09 23 01 c0 cd 7e 87 3f f7 1e a5 3e
       2.5307121 -2.0177634 1.0585572 0.32250187
000010 1e cb 7e c0 57 60 c0 3e a7 23 19 3f ad 31 82 3e
       -3.9811473 0.375735 0.59820026 0.25428525
000020 bc 58 44 c0 2b 44 35 c0 f8 ed 30 3f 43 19 27 c0
       -3.067916 -2.8322856 0.6911311 -2.6109169
000030 cc bc 17 3e fb 60 1e 3e 21 0d 4b bf 5f 8b f5 3f
       0.14818114 0.15466683 -0.7931691 1.9183158
000040 4f 96 10 bd af 28 ae 3f 29 4a d5 3f 92 d4 69 bf
       -0.035299595 1.3606166 1.6663257 -0.9133998
000050 86 4e 5e c0 93 18 0c c0 b9 e6 db bf 0a 7c 13 3f
       -3.4735427 -2.189 -1.7179786 0.57611144
000060 c0 a0 86 40 c6 a9 a5 bc fc 8d 7b 3f ae 45 8d be
       4.207123 -0.020222556 0.98263526 -0.27592224
000070 b5 fd 59 bf f9 8f d4 bd b3 ce e4 bf 9b 11 20 40
       -0.8515275 -0.10379023 -1.787558 2.5010746
000080 57 03 95 bf 60 2f 32 c0 fc 67 19 be cb 79 30 40
       -1.1641644 -2.7841415 -0.14981073 2.7574337
000090 a5 d6 58 be 9f 20 ab bf 48 71 05 3f 9b b8 31 bf
       -0.2117563 -1.336933 0.5212598 -0.6942231
0000a0 16 9e 74 c0 41 fb c8 3e 80 2a 61 bf 5a 5a a0 bf
       -3.8221488 0.39254192 -0.87955475 -1.2527573
0000b0 d5 c0 8a 40 a5 74 38 40 23 07 1b be 5f 73 b2 3f
       4.336039 2.8821194 -0.15139441 1.3941458
0000c0 a0 6f af 3f 97 0b ec 3f 81 9a 98 3f 32 d2 5f 40
       1.370594 1.8441037 1.1922151 3.4972043
0000d0 a2 97 a8 3f 3a 4b 61 be 8d c9 f9 3e c5 77 2e 3d
       1.3171275 -0.22001353 0.48786584 0.04259469
0000e0 a7 c6 11 bf 99 dd c7 3f 64 b1 ce 3e 7e 84 83 3f
       -0.56943744 1.5614501 0.40369713 1.0274808
0000f0 87 e9 29 c0 35 1d db bd 2b 39 82 3f b3 19 32 c0
       -2.6548784 -0.1069893 1.0173696 -2.7828186
000100 74 dd 57 be 49 a3 15 3f 12 bd 0c c0 d9 27 f2 bf
       -0.21080571 0.5845228 -2.19904 -1.891841
000110 dc aa b3 be 3a 06 1c c0 cc d0 b5 bf 21 ea b1 3f
       -0.35091293 -2.43788 -1.4204345 1.3899575
000120 0b 85 38 3f 9d e8 8a 40 d5 d8 d3 bf 69 e3 b7 bf
       0.7207801 4.340895 -1.6550547 -1.4366275
000130 22 b2 1c 40 ca 5f 16 40 f9 ad 81 c0 e5 c6 ae 3e
       2.4483724 2.3495965 -4.052487 0.3413612
000140 43 1a 4b c0 22 b3 6d 3f c7 81 de 3c ac 71 19 c0
       -3.173478 0.9285146 0.027161492 -2.397563
000150 f7 aa c6 bf ad aa b3 bf e4 fa fa bf a1 b6 9d 3f
       -1.5520924 -1.4036461 -1.9607816 1.2321359
000160 49 c1 13 bf 99 ed 11 40 33 f7 8d 3f 35 de 45 bf
       -0.57716805 2.2801268 1.1091064 -0.77292186
000170 c2 d8 99 bf c7 a8 62 3f 0d 07 05 40 60 9c 55 c0
       -1.2019274 0.88538784 2.0785553 -3.3376694
000180 d6 51 08 c0 08 15 f0 3e 86 45 aa bf f4 c3 c8 bf
       -2.1299949 0.46891046 -1.3302467 -1.56848
000190 21 1a 15 bf a4 4f fb 3f fd 60 33 40 3b dd 9e bf
       -0.58242995 1.9633679 2.8027947 -1.2411264
0001a0 6b 2f 6e bd af 2e 93 bf 9f cd 0d 40 d5 81 c6 be
       -0.05815069 -1.1498622 2.215675 -0.3877093
0001b0 be 01 2d c0 e8 e6 86 bf 72 06 98 bf fe d1 3c bf
       -2.7032313 -1.0539217 -1.1876967 -0.7375792
0001c0 69 04 12 40 51 77 31 be ea 54 98 3d 00 78 51 3f
       2.2815192 -0.17330672 0.07438071 0.8182373
0001d0 34 26 25 c0 5f 1f 2c 3f 39 4e bd be 27 11 65 bf
       -2.5804567 0.6723537 -0.36973742 -0.894793
0001e0 eb 99 02 40 bc 33 0a c0 b5 c3 08 40 c2 f6 1f 3b
       2.0406444 -2.1594076 2.136945 0.0024408554
0001f0 23 dd ca bf f5 9a 27 c0 7d 5c 67 3e d7 9c d8 3e
       -1.5848736 -2.6188328 0.22593875 0.4230716
000200 fb 0b 67 c0 58 40 7a be 96 0f 8f bf 1c 34 c8 bf
       -3.6101062 -0.24438608 -1.1176631 -1.5640903
000210 52 df da bf 1e d1 d9 bf 8c 92 3f c0 92 32 b7 3f
       -1.7099402 -1.7016943 -2.9933195 1.4312308
000220 17 00 2b 40 a4 ff 3c 3f 46 d8 25 c0 08 5c 5a 3f
       2.6718805 0.73827577 -2.5913253 0.8529668
000230 1b f5 57 c0 4d 8d ac c0 f3 ce b5 bf ba d7 3d 40
       -3.374335 -5.3922486 -1.4203781 2.966292
000240 96 5b 98 3f 9c 2e 33 3f 38 92 1e 3e 7f b4 f6 3e
       1.190295 0.69992995 0.15485466 0.48184583
000250 aa d3 a0 3f 87 e2 8b 40 86 2c 15 3f c9 4c 94 3f
       1.2564595 4.3714023 0.5827106 1.1585933
000260 ec e0 b9 be 77 fe 11 bf fb ea 10 3f 35 13 57 c0
       -0.36304414 -0.5702891 0.5660855 -3.3605473
000270 2b 76 40 40 72 65 3d 40 94 1d 87 3f 75 d2 43 be
       3.0072124 2.9593167 1.0555902 -0.19123252
000280 ad ec 99 3f 31 c8 c3 bf 20 8c 94 bf 4f 32 45 c0
       1.2025353 -1.5295469 -1.1605263 -3.0811956
000290 1e 3f 01 3e 45 66 2d c0 89 c6 32 40 e0 e9 49 c0
       0.12621734 -2.709367 2.7933676 -3.1548996
0002a0 60 91 a8 bf 2b 42 7d be 21 2c 55 c0 6a 90 4e 40
       -1.3169365 -0.24732272 -3.3308184 3.2275643
0002b0 f2 94 92 3f f1 a4 39 bf d0 63 c9 3e 2d 07 1c be
       1.1451705 -0.72517306 0.39333963 -0.15237112
0002c0 4b 45 31 bf bd 98 e7 3f 6b 47 17 c0 53 44 51 c0
       -0.6924636 1.8093487 -2.363734 -3.2697952
0002d0 0d d1 5c bf c6 6e bf 3f cf 44 10 40 22 5a 9d bf
       -0.86256486 1.495568 2.2541997 -1.2293131
0002e0 c4 42 70 40 cd 19 dd 3f f6 66 45 40 be f1 09 bf
       3.754075 1.7273499 3.0844092 -0.53884494
0002f0 25 f9 81 3e 54 df 54 3f b8 d2 79 be dc 95 17 3f
       0.25385395 0.8315327 -0.24396789 0.5921304
000300 b0 40 40 3f cb 07 b5 bf d2 0a e5 bf 58 80 17 40
       0.75098705 -1.4143003 -1.7893927 2.3672085
000310 26 3c c5 bf e0 94 86 3d 5f 3b e7 3f 63 81 c3 bf
       -1.5408981 0.065713644 1.8064994 -1.5273861
000320 f1 9d 4c c0 d8 d0 51 c0 68 d3 d9 bf 3c 40 10 3d
       -3.19714 -3.2783718 -1.7017641 0.03521751
000330 f8 07 00 3e d5 01 cb bd e5 29 bb 3f 92 2b 66 ba
       0.1250304 -0.09912459 1.462216 -0.0008780296
000340 30 46 7e bd 8e cd 2b bf a8 83 1d 40 7c 15 f7 3f
       -0.062078655 -0.67110527 2.4611607 1.9303432
000350 f5 f5 26 bf b9 fd 45 3f 50 88 3b 3f 40 d2 9a bf
       -0.6521905 0.77340275 0.7325487 -1.2095413
000360 f0 ef d5 bf df 06 8a 40 47 f8 37 3f 7e d6 e1 3d
       -1.6713848 4.3133388 0.71863216 0.11027239
000370 66 25 71 bf 32 68 c4 3e 56 0d 11 bf de b3 69 bf
       -0.9419769 0.38360745 -0.56660974 -0.9129008
000380 4f 33 f1 bf 0c 52 5d bd 70 9a 04 40 a1 01 b6 3d
       -1.8843783 -0.054033324 2.071926 0.088870294
000390 89 44 e1 3f 83 60 22 40 bb 9a e0 3f 25 82 95 bf
       1.759904 2.5371406 1.754722 -1.1680342
0003a0 49 46 c8 3f 97 a7 48 bf ef 2d 19 c0 7b 72 69 bf
       1.5646449 -0.7838072 -2.3934286 -0.9119031
0003b0 37 02 0b 3f f5 15 7f 3f 1e 68 20 40 de a8 87 3f
       0.54300255 0.9964288 2.5063548 1.0598409
0003c0 7d 7d ad be 61 42 ae bf 5b 05 af 3f 96 28 3c 3f
       -0.33884802 -1.3614007 1.3673509 0.7349943
0003d0 75 70 41 be 92 21 85 c0 69 c3 bb bf 43 38 fb 3f
       -0.18890555 -4.160348 -1.466901 1.9626545
0003e0 a5 12 02 bf 6d 90 c4 be 68 85 a4 bf c9 4a 00 bf
       -0.508097 -0.38391438 -1.2853212 -0.50114113
0003f0 2a 13 07 c0 54 7e bc 3f 35 53 23 c0 24 09 36 c0
       -2.1105447 1.4726052 -2.5519536 -2.844308

fc2.bias f4 [15]
000000 9f e4 44 bf 78 10 a5 3c 5e a7 c7 bd c1 1a 0c c0
       -0.7691135 0.020149454 -0.0974872 -2.189133
000010 38 7d 26 40 8d d1 d0 3f 63 c4 a2 3e 03 3d 38 bf
       2.6013927 1.631395 0.31790456 -0.71968096
000020 d1 55 3c 3f 7b a8 e7 be 16 1c 7a c0 4e 74 49 40
       0.73568445 -0.45245728 -3.9079642 3.1477237
000030 5a 30 0d c0 f4 1a 18 40 9b cc d9 be
       -2.2060761 2.376645 -0.42538914
