cem_cartpole_ep63_100.pth (torch_old, 8024 bytes, 4 tensors)

fc1.weight f4 [64, 12]
000000 24 2c c6 3e 90 d2 03 bf 15 9a 47 bd 6b 84 57 3e
       0.38705552 -0.5149317 -0.04873093 0.21046607
000010 1b c4 ce be 46 e7 ca 3f c9 69 10 3f 29 81 19 c0
       -0.40383992 1.5851829 0.56411415 -2.3985083
000020 ee 63 41 3f d3 1d 1e bf 57 c5 55 bf 0b 79 58 bf
       0.75543106 -0.6176426 -0.8350424 -0.84559697
000030 8f 0b ae bf fb 96 bf be e0 73 a8 3f e1 5d d8 bf
       -1.3597277 -0.37419876 1.3160362 -1.690365
000040 6c f0 18 bf b5 01 37 be 3c 84 69 40 fb 09 d1 bf
       -0.59741855 -0.17871745 3.648696 -1.6331171
000050 c2 3e 84 3e 0f e2 58 bf 99 72 ef bd c6 56 61 3e
       0.2582913 -0.8471994 -0.1169178 0.22005758
000060 cd 53 8f 3e f7 f0 62 bf 36 9c 39 3f e7 bd db 3e
       0.27993622 -0.88648933 0.72503984 0.42918321
000070 99 bf 7c bf ca f7 56 3f c2 c8 93 3e ae 93 18 3f
       -0.98729855 0.83971846 0.28864104 0.5960034
000080 ae 5a 2a bf 77 f5 f0 be 99 d9 bc bf a7 9f a7 bd
       -0.66544616 -0.47062275 -1.4753906 -0.08184748
000090 c3 37 21 be 92 53 37 3f de 7e 71 bf 02 19 74 bf
       -0.15743928 0.71611893 -0.9433421 -0.9535066
0000a0 44 59 88 bf 7b 60 c4 be 6d ea ab be ba 31 7e 3f
       -1.0652242 -0.3835486 -0.3357729 0.99294627
0000b0 3c d7 90 bf 3f 6f 93 bf c5 45 89 bf 83 3b ce 3f
       -1.1315684 -1.1518325 -1.0724417 1.6111912
0000c0 8f a2 3b 3f 35 10 a9 3f 55 0e c2 3f 40 82 de bf
       0.7329492 1.3208071 1.5160624 -1.7383499
0000d0 cc f4 9d 3e a2 5a 24 c0 73 e9 3d 3f 8f 3f 1c c0
       0.30850828 -2.5680318 0.7418434 -2.4413793
0000e0 c6 09 a3 be 4e c9 88 bf 55 57 80 be 4a 7b db 3e
       -0.31843394 -1.0686433 -0.2506663 0.428675
0000f0 35 98 58 40 00 07 01 c0 1f af dc 3e 2f c1 db bd
       3.38429 -2.0160522 0.43102357 -0.10730206
000100 92 8e 84 bf 52 f1 7d bf 04 dc ba 3e 97 bc 85 3f
       -1.0356009 -0.9919635 0.36495984 1.0448178
000110 85 ca df bf bd 76 1d c0 c6 66 de bf 43 ae 72 3f
       -1.7483679 -2.4603722 -1.7375114 0.9479715
000120 f9 3b cd be d7 e6 d2 be 27 f0 ed be 02 40 56 bf
       -0.40084818 -0.41191742 -0.46472284 -0.8369142
000130 6f d9 7b 3f 47 9e 2e 3f 94 a5 37 3e 48 0b 94 3f
       0.9837865 0.6821026 0.17934257 1.1565943
000140 ec 05 e9 bd cd 35 61 bf 16 5f 9f 3e af 2f f6 bd
       -0.11378083 -0.8797272 0.31127232 -0.12020814
000150 c1 6b 96 3f e5 15 c5 3f d4 94 88 bf 72 6f a9 be
       1.1751634 1.5397307 -1.0670419 -0.3309284
000160 2d d7 07 3d 9b ad e3 3e 5b f2 34 bd fa 66 1a 3d
       0.033164192 0.44468388 -0.04417644 0.037695862
000170 a1 f9 02 3e a3 99 7d bf 03 38 31 c0 47 a4 1b bf
       0.12790538 -0.99062556 -2.7690437 -0.6079754
000180 f2 00 ae bf 2b 93 55 bf 2b 1c 0a be bb 47 5a bf
       -1.3594038 -0.83427685 -0.13487308 -0.852657
000190 65 31 83 3f 99 af 6f 3e 73 d5 2f 3e 8c 21 40 3f
       1.0249449 0.23406829 0.17171268 0.7505119
0001a0 3a 55 3b 3f b5 c7 cc 3f f0 09 9f bf 84 5c 4d 3e
       0.7317692 1.5998446 -1.2424908 0.20054823
0001b0 0f 29 d2 be 1d 5e 33 3f fc 25 3a bf 2f 02 12 40
       -0.4104695 0.7006548 -0.7271421 2.2813833
0001c0 d7 e1 db 3e b3 a6 87 3f 0a dd 07 c0 0e 32 d8 be
       0.4294574 1.0597748 -2.1228662 -0.4222569
0001d0 ed 98 41 3f 66 15 ea 3f da 20 00 bf 32 a4 10 3f
       0.7562397 1.828778 -0.5005013 0.5650054
0001e0 75 0c 87 be 42 0b f3 3f 4c 78 f3 be c6 c9 2b 3d
       -0.2637669 1.8987811 -0.47552717 0.041940473
0001f0 de 39 11 be 73 0a d0 3f e9 bb 0f bf d8 68 0e bf
       -0.14182231 1.6253189 -0.56146103 -0.5562873
000200 e3 eb 8f 3e 98 dd c0 3e f3 09 ab 3e e4 b6 b5 bf
       0.28109655 0.37669063 0.33406028 -1.4196439
000210 c6 c1 da be 80 ea b9 3f b9 7f 03 3f 6b 24 e9 be
       -0.42725962 1.4524689 0.51366764 -0.45535597
000220 2a 41 bf bf 8c c0 45 be 81 f7 99 3e 35 eb c1 be
       -1.4941761 -0.19311732 0.30071643 -0.3787476
000230 b0 06 30 bf c5 81 33 bf 63 e9 18 3f 65 bc 0f 3e
       -0.68760204 -0.7011989 0.5973112 0.1403671
000240 35 3f 64 bf 2d 09 ef 3f c5 5f f7 3a bd b6 be 3f
       -0.89158946 1.8674675 0.0018873146 1.4899517
000250 f3 35 04 3f 81 07 99 bf 31 59 81 be 88 cf 1a be
       0.5164482 -1.1955415 -0.2526336 -0.1511823
000260 2d 5b 97 3f 81 21 3b c0 e1 18 9b bf 28 51 ea 3e
       1.18247 -2.92392 -1.2116967 0.45765042
000270 d9 9c 30 3f 9c 74 39 3f ff ef 3c 3f 2c 4d c9 be
       0.6898933 0.72443557 0.73803705 -0.3931669
000280 3a d9 c0 3f 3a f6 9b bf d1 73 09 3a 2b 28 2d 3e
       1.5066292 -1.2184517 0.0005243393 0.16909854
000290 9f 3a 16 c0 5d 69 d5 be ef 8a bc bf 30 36 19 3e
       -2.347328 -0.41681948 -1.4729899 0.14962077
0002a0 66 04 3b 3f 02 90 47 3f 20 b0 93 3f 12 41 18 be
       0.73053586 0.77954113 1.1538124 -0.14868572
0002b0 c7 ee 24 bf 26 e7 33 bf 13 98 b6 bf 1a 1b 07 40
       -0.64426845 -0.7027458 -1.4265159 2.1110291
0002c0 18 b2 41 be b9 1a 85 bd a9 04 87 bf 34 b9 14 3f
       -0.18915594 -0.064992376 -1.0548297 0.580951
0002d0 4e ac 41 3f 39 34 1a 3e c7 4d ce 3f 34 fe 2f bf
       0.7565354 0.15058984 1.6117486 -0.6874726
0002e0 92 23 4d 3f ac 7d 0c c0 44 0b 90 3f 0b f7 8e 3f
       0.801324 -2.1951704 1.1253438 1.1169142
0002f0 6a 38 99 3f 3c d0 a5 be 2d 42 14 bd 7c 0b fc be
       1.1970341 -0.32385433 -0.036195923 -0.49227512
000300 93 70 4b 3f 30 94 3c 3f 0b 73 57 bf 4d e3 a4 be
       0.7946865 0.73663616 -0.84159917 -0.32204667
000310 35 f9 07 bf e8 95 85 3e 00 fb 6d bc 82 20 8e bd
       -0.53114635 0.26090932 -0.014525175 -0.06939794
000320 7e b1 95 3f 74 3f aa 3f a0 1b fa 3d d5 8e 08 be
       1.1694791 1.3300614 0.122123 -0.13335736
000330 d4 65 07 bc 53 3a ba 3f ba 53 4e 3f ba 62 87 bf
       -0.008264024 1.4549049 0.80596507 -1.0577004
000340 f5 f6 04 3f e6 a5 c7 bf 5a 8e 18 be cb 43 8a 3f
       0.51939327 -1.5597503 -0.14898053 1.0801939
000350 bb 51 74 3d 2f 55 8b bf 98 1c 2c 3f 60 97 98 3f
       0.059648257 -1.0885371 0.6723113 1.1921196
000360 3e 8b ae be d2 85 ba be c2 64 05 c0 31 cf 82 be
       -0.34090608 -0.36430222 -2.0842748 -0.255487
000370 da 1e a5 3e 03 7f 0c 3e b6 0f 3e 3f 8a d8 c7 3e
       0.322501 0.13720326 0.74242723 0.39032394
000380 60 16 e2 bf 21 cf 39 be c3 1f e8 bf 53 e8 1d be
       -1.7663078 -0.1814542 -1.8134693 -0.15420656
000390 54 26 78 bf 08 ac 87 3e 63 63 04 3e 0f 8e 61 3f
       -0.96933484 0.26498437 0.12928538 0.8810739
0003a0 eb ba 6c bf fa 8b 4d 3e a0 2d a2 3e 3a d5 13 bf
       -0.92472714 0.20072928 0.31675434 -0.5774723
0003b0 ab 1c 68 be b6 c9 4f 3e 4d 68 1e 3e 84 dc 6d bf
       -0.22667186 0.2029179 0.15469475 -0.92914605
0003c0 70 c9 9f 3e b3 26 49 bf bf 21 f9 3e 80 e3 94 bf
       0.31208372 -0.78574675 0.4865856 -1.1631927
0003d0 d4 9b 2f c0 f4 5e f0 3d 1e f5 36 c0 dd 99 0f bf
       -2.743886 0.11736861 -2.8587108 -0.5609415
0003e0 f0 12 5d 3f 2a b5 91 3f db 09 78 be 4c c8 2e 3f
       0.8635702 1.1383412 -0.2422251 0.6827438
0003f0 f4 5e 09 bf 5d 3b ec 3f 58 36 a0 bf 5b c4 e8 bd
       -0.5366051 1.8455616 -1.2516584 -0.11365577

fc1.bias f4 [64]
000000 19 88 48 bf 45 a4 f3 3e a3 77 0c 3f 75 8f 8a bf
       -0.7833267 0.47586265 0.5487005 -1.082503
000010 2d bd 84 be 9c 72 2a 3f db d7 5e bf 38 e3 a9 bf
       -0.2592558 0.6658113 -0.8704812 -1.3272467
000020 8d d8 65 bf 1c ec 15 be a6 92 df 3b cc 55 5c 40
       -0.89783555 -0.1464085 0.006822902 3.4427366
000030 d1 3e 7e 3f fe 0e 85 3a a4 00 4d bf 08 73 11 40
       0.993146 0.0010151563 -0.800791 2.272646
000040 97 74 b9 bf 94 8d 44 bf b0 55 39 bf 72 2d 45 3f
       -1.4488705 -0.7677853 -0.72396374 0.7702247
000050 5c bd 74 bf 21 68 0a bf 34 63 28 3f 7e 14 e7 bf
       -0.9560144 -0.5406514 0.6577637 -1.8053129
000060 c0 be e1 be e7 97 ad 3c f8 08 7d bf 76 d7 90 bf
       -0.44090843 0.021190597 -0.9884181 -1.1315753
000070 fb 7f 5d 3f fe 5e 0d c0 91 78 80 bf 52 48 d9 3f
       0.8652341 -2.2089229 -1.0036794 1.6975195
000080 9e 0b 2c 3e 8e 1a 17 be 2b e5 c3 be 31 e1 75 3f
       0.16801307 -0.14756224 -0.3826078 0.9604674
000090 f5 7c 90 be 5d 79 e0 3f dc 27 7f bf fd 9c 5c 3f
       -0.28220335 1.7537037 -0.99670196 0.86177045
0000a0 ef 95 18 be b9 8a 01 bd 12 5c 1f 40 7d f3 b0 3f
       -0.14900945 -0.031626437 2.4899945 1.3824307
0000b0 fe a0 d4 3d 23 09 e0 3f d7 2c 99 3f 91 0e 40 bf
       0.10382269 1.7502788 1.1966809 -0.75022227
0000c0 e2 31 a9 3f c7 8b 6d bf 41 7e 82 3f c8 7e c0 bf
       1.3218348 -0.9279141 1.019478 -1.503869
0000d0 fb 5b ba be 85 20 22 3f 2a e5 8d be 19 29 27 3f
       -0.363983 0.6333087 -0.277139 0.65297085
0000e0 3d 3f 34 3f 23 88 25 3f 2b 4b 0f 3f 69 f9 a8 be
       0.70408994 0.64660853 0.5597407 -0.33002785
0000f0 eb 67 a9 bf ae 39 e7 3e f2 99 34 bf 46 4d 9c 3f
       -1.3234838 0.45161194 -0.705474 1.2211082

fc2.weight f4 [15, 64]
000000 14 90 30 3f 52 59 3f bf 8e d3 b0 bf 51 a1 ea bf
       0.68969846 -0.74745667 -1.3814561 -1.833048
000010 a6 9c 2b 3e 32 3c c4 be 59 70 76 bf aa 6d 49 bf
       0.16758975 -0.38327175 -0.9626518 -0.7868296
000020 96 fe bd 3e 07 8d 9d 3f 2e e2 44 40 1f 4f 01 c0
       0.37108296 1.2308663 3.076305 -2.0204542
000030 93 fb d3 bf 0d ca 4b bf fb 91 16 bf 20 2d 38 c0
       -1.6561149 -0.7960518 -0.588165 -2.8777542
000040 e8 37 7a be 5d 04 a4 be fc 52 3a bf 7c a1 e0 bf
       -0.24435389 -0.3203458 -0.72782874 -1.7549281
000050 8b 5d 5d bf 35 1e 98 3e e0 ed 1c 3f 5b fb 8c 3f
       -0.8647086 0.29710546 0.6130047 1.1014208
000060 3e c3 41 bf 99 45 15 3f aa 75 a8 bf 0d 5b 8b 3f
       -0.7568854 0.5830932 -1.3160908 1.0887161
000070 e0 8a 89 3f ce 32 7d bf 7f c9 6b 3f 22 14 5e be
       1.0745506 -0.98905647 0.92104334 -0.21687368
000080 26 47 59 3c 3f 51 85 3f 38 5f 07 c0 75 b1 1f bf
       0.013261592 1.0415419 -2.1151867 -0.6238015
000090 ec 98 23 bf 18 3c 0f bc 77 3b a4 bf 2f 4f 08 be
       -0.63905215 -0.008742355 -1.2830647 -0.13311456
0000a0 83 ae b2 be f7 6b 86 3f d2 f7 13 bf 97 a9 33 bf
       -0.34898767 1.0501698 -0.5780002 -0.7018065
0000b0 bc 93 dd bf da 80 7f 3f 9d 65 bc 3f 68 64 3d 3e
       -1.731071 0.99805987 1.471851 0.18495333
0000c0 4c 27 b0 bf 12 c4 b9 3f e1 1e bd bf 46 55 0d 40
       -1.3761992 1.4512961 -1.4775048 2.2083297
0000d0 96 78 e1 bf db d5 c7 3e f4 47 7c 3e 10 2d a2 bf
       -1.7614925 0.39030346 0.24636823 -1.2670002
0000e0 df 5e 4e be d1 6d b6 3f e1 3a 17 be a4 b0 b6 be
       -0.20153378 1.4252263 -0.14768554 -0.3568164
0000f0 cb f0 2a 3e 2f de 85 3e 07 82 c2 bf 98 03 eb bd
       0.16693418 0.26146075 -1.5195931 -0.11475295
000100 f2 7c a4 bf 9b 9e 9b bf 08 b2 cf 3f 82 de aa 3e
       -1.285063 -1.2157778 1.6226206 0.33372885
000110 8a fd 01 3e 7d 47 8e bf 25 e1 39 bf ba ec 4d be
       0.12694374 -1.1115566 -0.7260917 -0.20109835
000120 ff 3b 82 3f 51 4c 0f 3f f4 ff a7 3f 9f d0 a4 bf
       1.0174559 0.55975825 1.3124986 -1.2876166
000130 59 6d be bf 6d 3f 35 c0 04 62 2a 3e 6b 98 9d bf
       -1.487712 -2.8319962 0.16638952 -1.2312139
000140 b3 50 e2 be 4b de 13 bf f3 59 99 be ba 1f 33 3f
       -0.44202194 -0.5776107 -0.29951438 0.69970286
000150 13 16 68 bf c5 2b 0b 3f e0 b1 5f bf ad e9 3a bf
       -0.9065868 0.5436366 -0.8738079 -0.7301281
000160 41 ce 85 be ad 64 1a 3f 1d a0 91 bf 6c 0c 51 bf
       -0.26133922 0.6030987 -1.1376988 -0.8165958
000170 44 0f 6d 3e 87 25 d4 3f 56 c9 03 3f c6 c1 37 bf
       0.23150355 1.6573952 0.5147909 -0.7178005
000180 95 cf 05 be 44 b4 bf 3d 72 6d 66 bf f1 8e a8 be
       -0.13067468 0.09360555 -0.9001075 -0.32921556
000190 0b 18 ab bf 90 31 2f 3f e9 f0 04 c0 f7 07 89 3f
       -1.3366712 0.68435 -2.077204 1.0705556
0001a0 08 ec 8a bf b0 c5 d0 be 7a 5e 7d bd 31 e4 90 3f
       -1.0853281 -0.40775824 -0.061857678 1.1319638
0001b0 c0 b5 bf bf 59 1d 48 3f 24 87 7a bf 44 3b 38 3f
       -1.4977341 0.7816978 -0.9786246 0.7196543
0001c0 46 74 29 bf 63 f7 82 bf 9c 3c 06 3f 7c e8 8f be
       -0.66193044 -1.0231746 0.5243623 -0.2810706
0001d0 ba d2 c8 be 83 4e 92 3f 88 2e 92 3f 88 11 42 3d
       -0.39223272 1.143021 1.142045 0.04738
0001e0 17 e5 a3 bf d9 c6 26 bf 80 1c 4e 3d ce a6 d1 bc
       -1.2804288 -0.6514717 0.05032015 -0.025592234
0001f0 b6 15 90 3f 9d 75 de bf 20 8a ca 3e 9e 27 83 3f
       1.1256626 -1.7379643 0.39558506 1.0246465
000200 b7 a2 bc 3e 7e b1 7e bf 71 8e c8 3f 09 27 f0 be
       0.36842892 -0.9948958 1.566847 -0.4690478
000210 cd 8d f4 3f e7 eb 6b be 55 6a a9 be 3a db 81 bf
       1.9105774 -0.23039208 -0.33088937 -1.0145028
000220 ab 5d ad bf 98 70 83 bd cc c0 2c c0 85 9e 21 bf
       -1.354421 -0.0641796 -2.6992674 -0.63132507
000230 cc 63 0c 3f 9e ce c1 bf a8 f6 80 3f 11 14 9e 3e
       0.5483978 -1.514118 1.0075274 0.30874684
000240 78 31 9d bf 1e 39 fe bf 5e b1 b1 3e 78 03 9c 3c
       -1.2280722 -1.9861181 0.34705633 0.019044623
000250 86 a8 15 3e 75 0b 65 3f 2f 5c 12 3e 5b df c8 3f
       0.14615068 0.8947061 0.14292978 1.5693163
000260 dd 66 c0 bf 19 bb a5 3f 7b a5 8a bf d5 54 bd bb
       -1.5031391 1.2947723 -1.0831751 -0.005777935
000270 65 b3 94 bf ca 8e de 3e 08 42 9c 3d f4 c6 cd 3f
       -1.1617247 0.43468314 0.07629782 1.6076341
000280 51 04 93 bf c6 cd 27 c0 61 b4 56 bf 63 16 88 3f
       -1.1485692 -2.6219344 -0.83868986 1.0631832
000290 e1 a6 36 bf 41 c5 65 3f cb a5 3d bf 10 8e 33 bf
       -0.71348387 0.8975411 -0.74081105 -0.70138645
0002a0 34 f6 46 bf 05 3f 0b bf 2e 4a 84 be 45 1a ea 3e
       -0.77719426 -0.54393035 -0.25837845 0.45723167
0002b0 82 5d 3f bd e4 68 cc bf 1e 9f 01 c0 74 78 8e be
       -0.046720035 -1.596951 -2.0253367 -0.27826273
0002c0 c9 29 8d bf 9e db 36 3f d0 38 ac 3e 60 0f e5 bf
       -1.1028377 0.7142886 0.33637094 -1.7895317
0002d0 1e 21 72 3f c3 2a f3 be 6c 7b ae 3d 9e e1 cb bf
       0.9458178 -0.47493562 0.085196346 -1.5928228
0002e0 59 76 3f c0 00 e3 bb bf a1 ff dd bd 6e 8c 89 be
       -2.9915984 -1.467865 -0.10839773 -0.26864952
0002f0 a8 36 e9 bd b6 4a 17 c0 59 ac dc 3b c0 e2 f8 3e
       -0.11387378 -2.363935 0.0067344126 0.48610497
000300 ea 90 b0 be 83 ad 55 bf 2d 01 c1 3f fc 50 c1 3e
       -0.3448556 -0.8346788 1.5078484 0.377571
000310 e5 bd f2 be 77 fc 1d 40 ca b1 d5 bf 80 96 ab be
       -0.47410503 2.4685342 -1.6694882 -0.3351326
000320 25 45 6b bf 94 bf 98 be 44 51 27 bf 47 44 87 bf
       -0.9190238 -0.29833663 -0.65358377 -1.0567712
000330 ea a7 1c bf c2 44 21 bf f4 a4 1d 3e 96 07 47 3c
       -0.61193717 -0.6299554 0.15394956 0.012147805
000340 e4 5b 7a be 35 d8 54 3d 92 fa 5d bf 11 17 fa be
       -0.24449116 0.051964004 -0.86710465 -0.48845723
000350 01 ef a9 be 8c 99 4e bf cb 88 64 3f 14 f1 d8 3f
       -0.33190158 -0.80703044 0.8927123 1.6948571
000360 75 73 0b 3f d1 ac f4 3e 0f 14 11 c0 32 9b 2d 3f
       0.5447305 0.47788098 -2.2668493 0.67814934
000370 c7 c7 02 bf c0 cd c4 3f c2 a3 1e 3f 2c a1 8a 3f
       -0.51086086 1.537529 0.61968625 1.0830436
000380 d4 4c 80 3f c4 57 23 bf 23 ae 1c 3f f1 c9 1d c0
       1.0023446 -0.63805795 0.6120321 -2.4654505
000390 18 22 c0 3e 87 c7 75 3e d6 f2 53 3f d5 b1 87 bf
       0.3752601 0.24001895 0.82792413 -1.0601145
0003a0 05 24 7a bf 26 a7 da be fe 19 c0 bf ab 3a c0 bf
       -0.9771121 -0.4270565 -1.5007932 -1.5017904
0003b0 6f c7 52 be 05 69 b8 be 08 2f 3d c0 fc 84 5c 3f
       -0.2058389 -0.36017624 -2.9559956 0.8614042
0003c0 59 ee 51 3f 30 4c 41 3e 9d 6e a8 be f2 fc 0a bf
       0.82004315 0.1887672 -0.3289689 -0.54292214
0003d0 dc 75 26 bf 53 d1 ef 3e ba 15 cf bf 75 da 6a 3e
       -0.6502359 0.4683939 -1.6178505 0.22934897
0003e0 cd 9b d1 bf 65 cc c9 bf b6 76 b2 3e 0d fd 4b bf
       -1.6375672 -1.5765501 0.34856194 -0.79683
0003f0 86 7a 12 be 5f 25 1c 3f e0 3c 34 bf 0e 17 67 bf
       -0.14304551 0.60994524 -0.7040539 -0.90269554

fc2.bias f4 [15]
000000 f8 de 87 3f 9f 0e 00 40 3e 3d e6 bf 82 01 fc bf
       1.061492 2.0008924 -1.798744 -1.968796
000010 eb f1 dd 3f 39 98 6d bf e2 f9 67 bf 04 d6 f9 3e
       1.7339453 -0.928104 -0.90615666 0.48796093
000020 dc ba bb bf cb 14 05 c0 ef 5f 5d 3c e2 8f e0 bf
       -1.46664 -2.079394 0.013511642 -1.754391
000030 94 de 0f 3f 3f fc 29 40 e5 77 a2 bf
       0.56199 2.6560209 -1.2692839
