cem_cartpole.pth (torch_old, 8024 bytes, 4 tensors)

fc1.weight f4 [64, 12]
00000000: 22e5 163f 6da9 d5bf 3161 203e 66b7 e13e
00000010: 98c9 d63f f86a d4bf b348 9a3f 8fd6 d03e
00000020: bf20 2a3f f56b 2c3f 970b 69bf 9631 7dbd
00000030: 99fe 2b3e 7f95 2f3d 510f 133e cc7f a63e
00000040: 2d10 71bf 9517 fabf 8b42 5d3e 5761 b5bf
00000050: 3399 803f 7624 f9bf 32dd 823f 77fc de3e
00000060: f3f6 ff3d e722 df3f 003c e7bd 5211 683f
00000070: ed42 26bf 7a66 163f eb84 883f dc00 ed3f
00000080: 262d dcbe e688 663e d2f6 43bf 99e0 093e
00000090: c15d 00bf e44e 0740 daa5 3ebf 49f9 92be
000000a0: 7762 9b3e 7fd7 d23f 0004 a83c 9901 d93f
000000b0: 76f0 8ebf 257d 9a3d c36e 0fc0 e137 a1bf
000000c0: f6aa bd3f d6e1 0f3f 51cb f4bf 5fac c33f
000000d0: 8120 1a3e bb39 f4bd c3fc 32bf db11 9b3f
000000e0: 5841 1540 6030 f43f ed81 aebe d47a 03bf
000000f0: db17 50bf 0145 3840 ea17 38bf b7c1 bd3f
00000100: 94dd 81be de3f 8ebe ead2 7fbf b88a 2c3f
00000110: 0eed 143f 8f71 1e3f b971 7dbf abcd 9dbf
00000120: 90aa ff3f 979f 363f 7694 36be c985 b03f
00000130: d032 78bf 42f3 1740 27e2 a2bf b94a b0be
00000140: f0dc 1dbf 1fd0 9e3f d958 90be 43a2 133f
00000150: 605a 563f 11d7 e9bf e55e 583f 320b 463f
00000160: e8ef 9e3f b4ca 963e 5e94 07bf 67f7 113f
00000170: 0ead 08bf 1d2e db3e 2082 043f 0169 aa3e
00000180: 3ca8 b4bd 7624 9ebf 582b 39c0 58c9 bf3f
00000190: c52b 15bf 7886 0d3f 1cae 7c3f a385 fe3f
000001a0: 66cd 123f 0967 8b3f 3d98 aa3e 8154 3cc0
000001b0: bfb3 d4be f348 2cbf 7a85 883f 5319 6d3f
000001c0: e383 aa3c 1673 9ebf bb10 09bf 8863 883f
000001d0: b5d1 3140 8b9d e4bf 5b56 443f 9f4f f8be
000001e0: f81e 593e b90c 57bf 63d6 0bc0 0c4e b93f
000001f0: def2 8cbe 0eca df3f 5162 b43f 5a5e b3bf
00000200: 91b0 e5bf 4819 8ebf eeb9 9e3f 58a5 8dbe
00000210: ba3a 84be e296 533f aa54 5b3e 261a 6cbf
00000220: a824 df3f ebba adbf 0694 423f a685 71bf
00000230: c582 81bf 1619 75bf 891f 06c0 7673 0f3f
00000240: 30f1 df3f 4f3a 5cbf 3528 dcbe 1f62 fb3f
00000250: c59d af3f 325f 95be b7ea 043e 07c1 963f
00000260: cb7d 50be 65dc c5bf fae1 a13d c7e6 de3f
00000270: f521 e03f 14ca fa3f 7114 85bb 5793 d43d
00000280: abd0 4d40 cfd2 87bf b905 46bf c78a 063e
00000290: 01e0 d23f ce71 0e40 5cec 0ebe 78df 983f
000002a0: 5e25 50be 10bf cebe 9467 523e 731d c5bf
000002b0: 4558 733e ba0e 85bf b37a 97bf 6e00 7b3f
000002c0: 3b8d b73e f765 0340 dea8 37bf 1602 893e
000002d0: b76d c4bf d734 b23f e9b4 b23e 824d 8e3f
000002e0: 72a9 763f 8db0 d33c f773 883e 6e24 df3e
000002f0: 769c fdbe 288c 0d3f 4b90 21bf 0675 b7be
00000300: 262a 2b3f 4e85 143d 07b9 cc3f e6eb 12c0
00000310: 7bfd 643e 731d fdbe 9fed 683f 39e5 aebd
00000320: b749 003f 5d50 e63f 0015 853e 156c 3e3f
00000330: 0c26 1bc0 abc4 723e 33c1 163f ebc5 10bf
00000340: 7ebd 0140 6921 bb3e 15c6 853e c939 9c3f
00000350: 2a1a 2b3f 3d1d dfbf 828f dabe d72a 94be
00000360: 9d1b 2d3f be75 93bd 7ece 3cbf 24f8 1c3f
00000370: 56d3 a03f 1b88 a63f c2f8 d53f 1527 e5bf
00000380: 29e7 77bf 3a19 5cbf d081 c23e a78f a43d
00000390: bc5f f33e 04c6 febe 7117 bc3e 79b0 143e
000003a0: a103 71bf d44d 53bf 17f7 9abe e65d 093f
000003b0: e316 283f b2f7 ec3e a082 043f 6988 2e40
000003c0: df22 6dbf bc5f ddbf b742 d53f ba0d 1ebf
000003d0: f987 f3be cb36 6d3d 14a1 fd3e b877 273f
000003e0: 97df 48bf d4ef 0940 439e ba3f 825f eebf
000003f0: 7e1b 2bbf 48f1 36bf 94ab a23d 8e76 3b3f
0.5894338 -1.669233 0.15662076 0.44085234 1.6780272 -1.6595144 1.2053436 0.40788695
0.66456217 0.6735223 -0.9103331 -0.061814867 0.1679634 0.04286718 0.14361311 0.32519376
-0.9416531 -1.9538447 0.21607415 -1.4170331 1.0046753 -1.9464252 1.0223753 0.4355199
0.12498274 1.7432526 -0.11290741 0.9065143 -0.6494587 0.58750117 1.0665563 1.8515887
-0.43003196 0.2251316 -0.7654849 0.13464583 -0.5014306 2.11419 -0.7447182 -0.28705814
0.3034856 1.6472014 0.02050972 1.6953613 -1.1167133 0.07543401 -2.2411354 -1.2595178
1.4817798 0.56203973 -1.9124547 1.5286978 0.15051462 -0.11925074 -0.69916934 1.2114824
2.3321133 1.9077263 -0.340835 -0.51359296 -0.812864 2.8792117 -0.7191149 1.4824742
-0.25364363 -0.27783102 -0.99931204 0.6739917 0.58174217 0.61892027 -0.9900165 -1.232839
1.9973927 0.71337265 -0.17830071 1.3790828 -0.96952534 2.3742223 -1.2725266 -0.3443201
-0.6166525 1.2407264 -0.28192785 0.57669467 0.8373165 -1.8268758 0.845198 0.7736083
1.2416964 0.29451525 -0.52960765 0.5701813 -0.5338906 0.4280862 0.51761055 0.33283237
-0.08821151 -1.2354877 -2.8932705 1.498332 -0.5826991 0.5528331 0.9870317 1.9884533
0.57344663 1.0890819 0.33319274 -2.9426577 -0.41543385 -0.6729881 1.0665734 0.92616767
0.020814842 -1.2378871 -0.53541154 1.0655375 2.7784245 -1.7860578 0.7669427 -0.48498246
0.2120322 -0.8400379 -2.1849601 1.4476943 -0.27529043 1.7483537 1.4092504 -1.4013169
-1.7944509 -1.1101465 1.2400491 -0.2766521 -0.25826055 0.82652104 0.21419016 -0.922274
1.7433062 -1.3572668 0.76007116 -0.94344556 -1.0118033 -0.95741403 -2.0956748 0.56035554
1.749548 -0.8602647 -0.42999426 1.9639319 1.3720022 -0.2917419 0.12980162 1.1777657
-0.20360486 -1.5457884 0.0790443 1.7414178 1.7510363 1.9592919 -0.0040612747 0.10379665
3.215861 -1.0611209 -0.7735248 0.13138877 1.647461 2.225696 -0.13957351 1.1943197
-0.20326754 -0.40380144 0.20547324 -1.5399612 0.23764141 -1.0395119 -1.183432 0.9804753
0.35849938 2.0530984 -0.71742046 0.26759404 -1.5345982 1.3922375 0.34903648 1.1117404
0.96352303 0.025841022 0.26650974 0.4358248 -0.49533433 0.55291986 -0.631108 -0.3583147
0.6686119 0.03625994 1.5993966 -2.295648 0.2236232 -0.4943653 0.9098758 -0.085398145
0.5011248 1.7993275 0.25992584 0.7438367 -2.4241972 0.23707835 0.5888855 -0.56552
2.0271907 0.36548927 0.26127687 1.2205135 0.668368 -1.7430798 -0.42687613 -0.28938934
0.6762026 -0.07200192 -0.7375258 0.6131613 1.2564495 1.3010286 1.671654 -1.7902552
-0.968371 -0.8597599 0.37989664 0.08035212 0.47533977 -0.4976045 0.36736634 0.14520444
-0.9414616 -0.8254063 -0.3026664 0.536589 0.6565992 0.46282727 0.5176182 2.7270758
-0.92631334 -1.7294841 1.6660985 -0.61739695 -0.47564676 0.057913583 0.49536955 0.6541705
-0.7846617 2.155263 1.4579548 -1.8622897 -0.66838825 -0.71461916 0.07942882 0.73227775

fc1.bias f4 [64]
00000000: 2642 f1bf 9aee f23f 790b 9ebf 99fc 97bf
00000010: 4bf6 b13f c996 06c0 339d 823f 8d59 01bf
00000020: 2a2d efbf 5394 ecbf 405e be3f 5875 1cbf
00000030: 61d4 8bbe 4886 02bf e254 cbbe ecc3 453e
00000040: 7794 1dbd d924 53be 0d39 14bf 40c7 8fbf
00000050: 2f02 26be 5f91 d93d cb83 f0be 01e2 283f
00000060: 3521 6fbf 38be 22bf 5981 c13f 0c5d 33bf
00000070: 7a4a a53f 3be7 743d c268 9dbf 45ef ddbd
00000080: 9f50 e83e 79da f7bf 5e2c 2640 87cc ee3d
00000090: 095a 1140 ff31 433e c705 173f 8515 4b3f
000000a0: e369 27c0 429c 7dbf dbf1 9a3c 71f5 c33e
000000b0: 49e7 c3bf 027d 4fbf bd0e a5bf 85f8 bc3f
000000c0: 4974 c13f 03ec 26c0 c86a a7bd 52b1 93bf
000000d0: 77d6 de3f a15f 60bf 26b7 1ebf 88a1 6e3f
000000e0: 44ab 82bf 15e2 2fbf 2ef4 18bf aec6 dcbf
000000f0: 1006 53bd fc04 0dc0 a633 b43f 3f28 95bd
-1.8848312 1.8979065 -1.2347251 -1.1873962 1.3903288 -2.1029532 1.0204223 -0.5052727
-1.8685658 -1.8482765 1.4872513 -0.6111655 -0.2731047 -0.50986147 -0.39713198 0.1931302
-0.038471665 -0.20619525 -0.5789955 -1.1232681 -0.1621177 0.106234305 -0.4697555 0.65969855
-0.93410045 -0.635715 1.5117599 -0.70063853 1.2913353 0.05979083 -1.2297595 -0.10836653
0.4537401 -1.9363548 2.596458 0.11660104 2.2711203 0.19062041 0.5899319 0.7932971
-2.6158378 -0.99066556 0.018914154 0.38273194 -1.5304958 -0.8105012 -1.2895123 1.4763342
1.5113612 -2.608155 -0.08174664 -1.1538489 1.74092 -0.8764592 -0.6199821 0.9321523
-1.0208516 -0.6870435 -0.5974759 -1.7248132 -0.051519454 -2.2034292 1.4078262 -0.07283067

fc2.weight f4 [15, 64]
00000000: 16d3 4abe e140 a43f 9a1b 77bf c940 df3e
00000010: a310 3b3f 71cd 5bbe d230 b13f c528 fdbe
00000020: 6bf4 cdbe 48e6 2bbf eb65 77bf 98ab 32bf
00000030: b0c3 efbf 87d3 8a3f 9a4c 79bd f51a 46bf
00000040: 149a 003f a46d 15c0 edbd 01c0 e18f 39bc
00000050: 4590 8abf 7aec 95be 9111 4540 6486 eebf
00000060: 39fd 3840 5040 63bf f2a3 903d aa14 1bbf
00000070: a47d 063f 4107 20c0 ed49 093f b239 cb3c
00000080: e1a5 203e d1ef efbf e2c0 c03e 50f9 013e
00000090: 58e1 d83e 00a9 b5bd 16f5 5ebf fcb2 c4bf
000000a0: f3a7 83be b562 003f db04 43be 5424 a2bf
000000b0: cba3 903e 39de bf3f c121 88bf 77aa 933e
000000c0: 9b08 55bf 5980 043f 9d62 11c0 190e 083e
000000d0: 15c9 1340 4cea 3bbf ae7a 1a40 d5d8 d13f
000000e0: 866e 663f f862 bdbe 422c bd3f daee df3f
000000f0: 5e22 833f 8c20 4e3f 8701 583f 2e0a 15c0
00000100: 8b47 a2bf 6084 04bf 0e9a fd3e 374f e03e
00000110: ac46 44bf 13d7 ddbf acd6 b13e 5dbe 263f
00000120: 1ff7 983e 3a27 c73f 8cf0 f2bf c780 cabf
00000130: f53c c83f c276 193e a62f 0c40 4211 433f
00000140: 70cd c83c 8a35 c33f 6947 10c0 c10a e33f
00000150: f901 2f40 7ec6 d83e 62e6 3040 fdf5 033e
00000160: e284 e53f 2446 9abe 70ae f3bf 70d5 efbd
00000170: 9239 6fbc 03c6 ec3f b0cb 50be 55c0 dc3d
00000180: a56f e0bf 696f 3bbf 8f40 31bf e437 b4bf
00000190: 3718 24bf 9f4e 86bf c0b3 30bf a5ac 253f
000001a0: 1fd6 943f dffd 543f c1c1 01bf 02e2 e1bc
000001b0: 276e 1cc0 fa71 7abf 609a 58bd 63f2 a6bf
000001c0: ccf6 033f d0d7 673f c1a3 2a40 f235 0b3f
000001d0: ee5e efbf 3093 99bf cb6b 0140 8d29 223f
000001e0: a450 0c3f 0f6a 66bf 430c 9b3f ae1b 853f
000001f0: 7236 49bf 7c89 0fbf 8df8 0340 c309 bbbe
00000200: ee08 52bf 9aef 4d3e 4b80 cdbf 8fe5 d7bf
00000210: d792 513f 9953 29bf af25 b3bf 20a3 d9bf
00000220: b7d1 90bf 4d70 bbbf ad5f 5fbe 7f8b fabe
00000230: e3d6 7bbf 9736 32c0 5567 803f c284 363f
00000240: 8137 233f 74f0 813d e76c ecbf 75f3 4c3f
00000250: a0d1 563f c180 44bf 3fcc b13e d619 cabf
00000260: 3fab 25bf ba41 d73f da2f 433e f432 f83f
00000270: 4075 7bbf 1c3f ba3f ca52 cf3e 3d26 e3be
00000280: d6e0 9dbf 5cf3 d9bd 1063 afbd 343f 023e
00000290: d305 0abf 44dd 953e 00e5 28bd 0c02 7c3f
000002a0: d65d e5bf da75 7fbf abf1 a63e 0b4e 823e
000002b0: 1400 f4bf f51d 9d3f 188c 113d 5e69 5a3e
000002c0: 628a a13f edcc 763e f02f b9bf 219d 6c3f
000002d0: dbd2 23c0 363f 08c0 6c34 03bd 0a31 02bd
000002e0: 8269 42be bfc3 953e 396c 8cbf 0edc ce3f
000002f0: 17b4 65bf fdf2 4540 f9c3 edbd eb4b cfbe
00000300: 1c3a 2a3f 2fee 703f 29af 7abf f3a2 dfbf
00000310: 23c1 c23f 59d8 533e f2c9 1f3f bc9e 32be
00000320: 79a3 6c3e a793 40be 4679 85be 1012 a33e
00000330: c872 17bf 0fa0 133f 42de 28bf 496b d0bd
00000340: 6d17 d73e b032 bb3d fd21 e3bf 5f7a 183f
00000350: c8f2 c03f 9923 99bf 661b 833e fdba 0540
00000360: daa2 98be c680 753f 4785 0bbf 0964 ccbf
00000370: d5ef c3be 1d7f ed3e e784 0f40 9ae3 28bf
00000380: ca9b a23e 187a 8c3d 67eb 0640 a96f cb3d
00000390: 54ec 15c0 1501 c73f aba0 febf d8ea b3bf
000003a0: 0108 febe 61b0 9dbf dd11 b73f 92e3 37bf
000003b0: 5c02 e3bd 353b fa3f 57a9 553f 60ad 06c0
000003c0: a731 1540 8b8e a33f 26d1 50bf 57ee 0640
000003d0: 9278 05bf 1817 05c0 7875 d4be 2acc 69bf
000003e0: 12a4 55bf f0c6 89bf e507 1340 dda3 4ebf
000003f0: c423 07bf 02d5 21bf 0c56 8b3f 20fb de3f
-0.19807085 1.28323 -0.9652649 0.43604115 0.7307226 -0.21465088 1.3843024 -0.49445167
-0.4022554 -0.67148256 -0.9663989 -0.6979308 -1.8731594 1.0845803 -0.06086407 -0.77384883
0.50235105 -2.334817 -2.0272171 -0.011325807 -1.0825278 -0.2928198 3.0791972 -1.8634763
2.8904555 -0.8877001 0.0706252 -0.60578406 0.5253546 -2.5004427 0.53628427 0.024807785
0.15688278 -1.8745061 0.37647158 0.12692761 0.42359424 -0.08870125 -0.8709272 -1.5367122
-0.25714073 0.50150615 -0.19044821 -1.2667336 0.28249964 1.4989692 -1.0635301 0.28840992
-0.83216256 0.51758343 -2.2716439 0.13286628 2.309148 -0.73404384 2.4137378 1.6394297
0.90012395 -0.3698957 1.4779131 1.7494767 1.0244863 0.8051841 0.8437733 -2.3287463
-1.2678083 -0.5176449 0.49531597 0.43810436 -0.76670337 -1.733126 0.34734094 0.6513422
0.29876038 1.5558846 -1.8979659 -1.582055 1.5643603 0.14986709 2.1904082 0.7619821
0.024512023 1.5250714 -2.2543585 1.7737657 2.7344954 0.42338938 2.7640615 0.12886806
1.7931178 -0.30131638 -1.9037609 -0.11710632 -0.014601128 1.8497928 -0.203902 0.10778872
-1.7534071 -0.73216873 -0.69239134 -1.4079556 -0.6409945 -1.0492743 -0.69024277 0.6471656
1.1627845 0.83199877 -0.5068627 -0.02757359 -2.4442232 -0.97830164 -0.0528816 -1.304272
0.5154846 0.9056368 2.6662447 0.5437919 -1.8700845 -1.1998043 2.0222042 0.6334465
0.5481055 -0.9000558 1.2113117 1.0399072 -0.785987 -0.5606916 2.0620453 -0.36530885
-0.82044876 0.20110932 -1.6054777 -1.6866931 0.81864685 -0.66143185 -1.3995875 -1.7002907
-1.1314 -1.4643646 -0.21813841 -0.48934552 -0.98374766 -2.784582 1.0031534 0.7129632
0.6375657 0.06344691 -1.8470734 0.80058986 0.8391361 -0.7675896 0.3472614 -1.5789135
-0.64714426 1.6816933 0.19061223 1.939055 -0.98225784 1.455051 0.4049285 -0.4436511
-1.233424 -0.1064212 -0.085638165 0.12719423 -0.5391514 0.29270375 -0.041234016 0.98440623
-1.7919261 -0.997892 0.32606253 0.25450167 -1.9062524 1.2274767 0.035533994 0.21329257
1.2620356 0.2410161 -1.4467754 0.9242726 -2.5597446 -2.128858 -0.032032415 -0.03178505
-0.1898556 0.29250905 -1.0970527 1.6160905 -0.8972792 3.0929558 -0.116096444 -0.40487608
0.6649492 0.9411344 -0.97923523 -1.7471603 1.5215191 0.20687999 0.6241752 -0.17443365
0.23109235 -0.18806325 -0.26069087 0.31849718 -0.5915952 0.57666105 -0.6596414 -0.10176713
0.4201006 0.09140527 -1.7744747 0.59561723 1.5074091 -1.1963989 0.2560684 2.0895379
-0.29811746 0.9589962 -0.5450024 -1.5968028 -0.38268915 0.46386042 2.2424867 -0.6597229
0.31759483 0.06859225 2.1081178 0.09933407 -2.3425493 1.5547205 -1.9892782 -1.4056044
-0.49615481 -1.2319452 1.4302326 -0.7183162 -0.110844344 1.9549319 0.8346152 -2.104332
2.3311555 1.2777876 -0.81569135 2.108297 -0.521371 -2.0795345 -0.41495872 -0.91327155
-0.83453476 -1.0763836 2.2973568 -0.80718786 -0.5278895 -0.6321565 1.0885634 1.7420387

fc2.bias f4 [15]
00000000: c298 a8bf 1123 b63f c104 2b3f ff4f cbbd
00000010: 5c95 423f a614 9bbf a6cc d7be 029e b2bf
00000020: 2e99 8d3a 3477 97bf fd3b c13d 3a92 083f
00000030: bcc7 45bf 51e6 7ebf f134 11be
-1.3171618 1.4229451 0.6680413 -0.099273674 0.76009154 -1.2115676 -0.42148322 -1.395447
0.0010803097 -1.1833253 0.0943527 0.53348124 -0.77257895 -0.99570185 -0.14180352
