cem_cartpole.pth (torch_old, 8024 bytes, 4 tensors)

fc1.weight f4 [64, 12]
0	0xc056ee8e	-3.3583102
1	0x3f9fd0ab	1.2485555
2	0x3f4b8bd8	0.7951026
3	0x4030e366	2.7638793
4	0xc0587a0a	-3.3824487
5	0x3efd446e	0.4946627
6	0x4090e116	4.5274763
7	0xc03c1207	-2.9386003
8	0x4067526d	3.6144059
9	0x40a5a453	5.176309
10	0x404539c8	3.0816517
11	0xc035b706	-2.8392959
12	0x4095085c	4.6572704
13	0xc0440f4d	-3.063434
14	0x402d4fbf	2.7079923
15	0x4015953d	2.3372338
16	0x3f456a0d	0.77114946
17	0xc0f201b3	-7.5627074
18	0xbdec4f92	-0.11538614
19	0x4076a9de	3.8541179
20	0x3e64ce65	0.22344358
21	0xc001a2bd	-2.0255578
22	0xbe911431	-0.28335717
23	0x409c3171	4.8810353
24	0x40078ee6	2.1180968
25	0x40bcb517	5.8971057
26	0x404d701a	3.2099671
27	0x3fa3fab7	1.2810887
28	0x402b0a11	2.6724894
29	0x3f90c04e	1.1308687
30	0x3f9613bf	1.1724776
31	0x4013eded	2.3113968
32	0xc08ca4ce	-4.3951178
33	0x3ed559a8	0.41669965
34	0xbff6a967	-1.9270447
35	0xbfe8040c	-1.8126235
36	0x3ff91ef7	1.9462575
37	0x40991862	4.7842264
38	0xbe240dc1	-0.16020872
39	0x3f3eaf93	0.74486655
40	0xc02c4d8e	-2.6922336
41	0x3fff0f10	1.9926472
42	0x405c5eed	3.4432938
43	0x40bd1801	5.90918
44	0x4011bee7	2.2772768
45	0xc074776e	-3.8197894
46	0x3f103eff	0.56346124
47	0x3f4e1853	0.80505866
48	0x409687f8	4.7040977
49	0x4096f7b1	4.717736
50	0x3f64ce3b	0.8937718
51	0x40881826	4.252948
52	0xbcaa7f18	-0.020812556
53	0xbfb781f9	-1.433654
54	0xbf0f0638	-0.55868864
55	0x40d86fe8	6.7636604
56	0xbf76d97a	-0.9642559
57	0xbfb958eb	-1.4480261
58	0xc07c455b	-3.9417331
59	0x409f41e9	4.9767957
60	0xc0a41c63	-5.128465
61	0x3d8c2a28	0.06843978
62	0xc058b5c9	-3.3860953
63	0xc0109f0d	-2.2597077
64	0xbf948559	-1.1603194
65	0x407360bd	3.8027794
66	0x40081bd5	2.1266987
67	0xbfa8b113	-1.3179039
68	0x402f640d	2.7404816
69	0x3fe68ce2	1.8011744
70	0x3f072a93	0.5279934
71	0x3f053e1c	0.52047896
72	0x3f86f65e	1.0543935
73	0xc05fd2a9	-3.4972327
74	0x40078fc2	2.1181493
75	0xbfc9045a	-1.5704453
76	0x3fa5f233	1.2964538
77	0xbf94ca26	-1.1624191
78	0xc0bbece8	-5.872669
79	0x3fc8fe70	1.5702648
80	0x3f5d065b	0.8633782
81	0x3fed0576	1.8517292
82	0xc0b9c0a8	-5.8047676
83	0x3f660056	0.8984426
84	0x407e75f2	3.9759488
85	0xbfe49d09	-1.7860423
86	0xc0a7f152	-5.248208
87	0x3f7db71e	0.9910754
88	0x3fa1ed49	1.2650539
89	0xc0863fce	-4.1952887
90	0xc00eb8ce	-2.2300296
91	0xbf75988f	-0.9593591
92	0x3fe7787e	1.8083646
93	0x3e6d2963	0.23160319
94	0x3f281f65	0.65672904
95	0x3e0047a0	0.12527323
96	0xbe63a93b	-0.22232525
97	0x3fabbc56	1.341685
98	0x40019311	2.0246012
99	0x3e34b996	0.1764892
100	0x40307613	2.7572067
101	0xbfcd4ef8	-1.6039724
102	0xbf9edd87	-1.2411355
103	0x3ff52e8f	1.9154834
104	0x40e866c7	7.262546
105	0xc0159a25	-2.3375332
106	0xbfce901c	-1.6137729
107	0xc0213fa9	-2.5195105
108	0xc086a67b	-4.2078223
109	0x406b0661	3.6722643
110	0xbd450426	-0.04809966
111	0xbe6b3c29	-0.22972168
112	0x4052cfa3	3.2939231
113	0x40b31a63	5.596971
114	0x40a747ac	5.227499
115	0xc0bc08a2	-5.876054
116	0x3edeef84	0.4354211
117	0x40e555ac	7.166708
118	0xc08d0f4d	-4.408118
119	0xc04158da	-3.021048
120	0xbfaefbbd	-1.3670574
121	0xc08afc35	-4.343287
122	0x40609088	3.5088215
123	0xbfe3aabe	-1.7786481
124	0x3f5daa3b	0.86587876
125	0x3f494b3a	0.7863041
126	0x409994dc	4.7994213
127	0x40508a47	3.2584398
128	0xc0616b5b	-3.5221775
129	0x404fc298	3.246252
130	0x40314271	2.7696803
131	0xbdf87a79	-0.12132735
132	0xc0573e2d	-3.36317
133	0x3fe4d259	1.7876693
134	0xbfe35174	-1.7759233
135	0x4064d055	3.5752156
136	0xbfd492a4	-1.6607251
137	0xbeef310e	-0.46717113
138	0xc05ad89d	-3.419471
139	0x3fc27d7e	1.5194547
140	0xc005bde3	-2.0897148
141	0x3f3020b0	0.6879988
142	0xbf8547ba	-1.0412514
143	0x3fc3d81c	1.5300326
144	0xbfb19764	-1.3874326
145	0x3f8a64af	1.0811976
146	0x3e7e736e	0.2484872
147	0x40c31f19	6.097546
148	0xc0a487d9	-5.141583
149	0x3ed26732	0.41094357
150	0xc09ef4e5	-4.9673944
151	0xc0bee8a3	-5.965898
152	0xbd3771ce	-0.044786267
153	0x40a5873e	5.172759
154	0xbf1a2af2	-0.6022178
155	0xc05a5fc1	-3.4120944
156	0xbeccf074	-0.400272
157	0x3f3c3a18	0.73526144
158	0x40599afe	3.400085
159	0xbff355c5	-1.901055
160	0xc00f1c04	-2.236085
161	0x3fabb5af	1.341482
162	0xc0054cd4	-2.0828142
163	0x3f61ffec	0.8828113
164	0xc025590d	-2.5835602
165	0xc01767d7	-2.365713
166	0xbf952c51	-1.1654149
167	0xc0548869	-3.3208258
168	0xbf61b0e4	-0.8816054
169	0x4079894f	3.8990057
170	0xbe910dc6	-0.2833082
171	0x408500af	4.1563334
172	0xc0889b67	-4.26897
173	0xbf50920c	-0.8147285
174	0xc07fb2e9	-3.9952948
175	0x400dd7ac	2.2162886
176	0x40b823eb	5.7543845
177	0x3fa68f27	1.3012437
178	0xc03c4107	-2.941469
179	0xc02bd9f1	-2.685177
180	0x401914b3	2.3918884
181	0xbfe82e68	-1.8139162
182	0x4007d079	2.1220992
183	0x3fea0782	1.8283541
184	0xc03eeef8	-2.9833355
185	0x3fa49ed4	1.286097
186	0x4047da4a	3.1226983
187	0x402d3d6c	2.706874
188	0x3faa2b70	1.3294506
189	0xc083b4df	-4.115829
190	0xbf4c852e	-0.79890716
191	0xc0636ccb	-3.5535152
192	0x3f83f6ae	1.0309656
193	0xbff5c72f	-1.9201411
194	0x408c8805	4.391604
195	0xc0137b50	-2.3044014
196	0xbdaa62ec	-0.08319649
197	0x40dc202e	6.878928
198	0x4066b711	3.6049235
199	0x40135943	2.302323
200	0xc04abd2d	-3.1677964
201	0xc014d731	-2.3256342
202	0x4098ca76	4.7747145
203	0x3f25613e	0.64601505
204	0x40bd4ff7	5.9160113
205	0xc00892b4	-2.133954
206	0x408af6fc	4.3426495
207	0xc01bce0b	-2.4344509
208	0x4014905c	2.321311
209	0xbee1f684	-0.4413339
210	0xbda70606	-0.08155446
211	0xbfcbf21d	-1.5933262
212	0xc0529623	-3.2904136
213	0xbead2d89	-0.33823803
214	0x40a0a139	5.0196805
215	0x3d9cec47	0.07662254
216	0xc04e0690	-3.2191505
217	0x3f3985eb	0.7246997
218	0x3f9b7671	1.214552
219	0x40123c9b	2.284949
220	0xbf6b6e5c	-0.9196527
221	0x40a2bfda	5.0859194
222	0xc08b455a	-4.352216
223	0x3f9616ee	1.1725748
224	0xbf25f0e3	-0.6482069
225	0xc02f0294	-2.7345324
226	0x40a63693	5.194162
227	0x40164ddf	2.3485029
228	0xc0b9dd68	-5.808277
229	0x3ed8218a	0.42213088
230	0xc038ae45	-2.8856366
231	0xc012664d	-2.287494
232	0x40dfe440	6.9966125
233	0xbe13bec5	-0.14428242
234	0x3fd8d919	1.6941253
235	0x3f92b6b8	1.1462011
236	0xc0213217	-2.5186822
237	0x3fef9256	1.8716533
238	0xbdb8c347	-0.09021621
239	0xc0432402	-3.0490727
240	0x403b86c4	2.9301004
241	0x40936d1d	4.6070695
242	0xbf743695	-0.95395786
243	0xc087d694	-4.2449436
244	0xbe6a8c3c	-0.22905058
245	0xbfdc6212	-1.7217429
246	0x3ff15b36	1.885596
247	0x40366e32	2.8504758
248	0xc00109db	-2.0162265
249	0xc00a6bc3	-2.1628273
250	0x3fa645ae	1.2990015
251	0x40f4ce44	7.650179
252	0x400ffa5f	2.2496564
253	0x40f538f9	7.6632047
254	0x3ffee5f9	1.9913932
255	0xbcaad329	-0.020852642

fc1.bias f4 [64]
0	0x403cad0a	2.9480615
1	0xc036446c	-2.8479261
2	0xc07e0cd2	-3.9695325
3	0x40af3629	5.4753613
4	0xbf9b933f	-1.2154311
5	0x3f8b8caa	1.0902302
6	0xc0441b6d	-3.064174
7	0xc080afc0	-4.021454
8	0x3f34080e	0.7032479
9	0xbf87a2a7	-1.0596513
10	0x3ee15157	0.4400737
11	0x3ff859d2	1.9402411
12	0xbf03a964	-0.51430345
13	0xbfbc71a5	-1.4722182
14	0x3fb19032	1.387213
15	0x403846af	2.8793142
16	0xbff2b93e	-1.8962781
17	0x4066e1b6	3.6075263
18	0x4025f73b	2.5932148
19	0xbfaec5d2	-1.365412
20	0x3fe68306	1.8008735
21	0xbef35ef1	-0.47533372
22	0x3e1ee74f	0.15517925
23	0xc09f90fe	-4.9864492
24	0x408784b8	4.234951
25	0xbfca5fa2	-1.5810435
26	0x3f5d5cf3	0.86469954
27	0x4084fd06	4.1558867
28	0x408ced0e	4.4039373
29	0xbe84c13c	-0.25928676
30	0xbf95de78	-1.1708517
31	0xbe70fe13	-0.23534422
32	0xbf92a72a	-1.1457264
33	0x3f2cd091	0.6750575
34	0xbfb756e6	-1.4323394
35	0x4049a028	3.1504002
36	0x406c7212	3.6944623
37	0xbf5a7b3b	-0.85344285
38	0xc000bcba	-2.011519
39	0x3f88d79c	1.0690799
40	0x3e4477e1	0.19186355
41	0x40b91403	5.783693
42	0x3f5a4f05	0.85276824
43	0x3f95afa0	1.1694221
44	0x40998687	4.797672
45	0xc04cf697	-3.2025506
46	0x40734ab1	3.8014338
47	0x3f06f263	0.527136
48	0xc05ba35a	-3.4318452
49	0xbd309b97	-0.043117132
50	0xc05fd7e8	-3.4975529
51	0xbf39a6cd	-0.7252014
52	0xbf6d9961	-0.9281216
53	0x407ac86b	3.9184825
54	0x40d3a760	6.6141815
55	0xc0415020	-3.0205154
56	0xbfca800f	-1.582033
57	0x3f3f8371	0.7480994
58	0x4017534d	2.3644593
59	0xc0a16b6a	-5.044362
60	0xbfcdea12	-1.6087058
61	0x3fb24940	1.3928604
62	0xc004cb3d	-2.0749047
63	0xc01273bf	-2.2883146

fc2.weight f4 [15, 64]
0	0xc01b50a1	-2.4267962
1	0x3f454c7f	0.7706985
2	0xc000d32a	-2.0128884
3	0x3f25bdef	0.6474294
4	0x40253787	2.5815141
5	0x402af9a7	2.6714876
6	0xc039d1c9	-2.9034293
7	0x40e72030	7.222679
8	0xbff735e7	-1.9313325
9	0x40b8a83d	5.770537
10	0x403405fe	2.8128657
11	0xbfacd359	-1.3501998
12	0xc04a040b	-3.1564968
13	0x40573485	3.3625805
14	0xc0a156fc	-5.041868
15	0xc0764e43	-3.8485267
16	0x3ee89187	0.4542353
17	0xbfea1828	-1.8288622
18	0x40553d64	3.331872
19	0x40185dae	2.3807178
20	0xc0a2a691	-5.082833
21	0x40b30d7d	5.5953965
22	0x40183389	2.3781455
23	0x41015a13	8.084491
24	0x3f71c6d4	0.9444401
25	0x40c61092	6.1895227
26	0xc10663a2	-8.399324
27	0xc01908ad	-2.3911545
28	0xc064e5da	-3.576529
29	0x40b2cb71	5.587334
30	0xc04fc51f	-3.2464063
31	0xbf0622b9	-0.5239673
32	0x41392c94	11.573383
33	0xbe7a4296	-0.24439463
34	0x4088ce9b	4.2752204
35	0xc018d783	-2.3881538
36	0x4033f0b5	2.8115666
37	0x40644b04	3.5670786
38	0x3f6a26ca	0.9146544
39	0x40242d3d	2.5652611
40	0x4059e994	3.4048815
41	0x40d2b1a3	6.584184
42	0xbf6b7861	-0.9198056
43	0xc0ab94a8	-5.3618965
44	0xc00ae333	-2.1701171
45	0x400bd854	2.1850786
46	0x40875fee	4.23046
47	0xc05602dd	-3.3439248
48	0xc06c09e0	-3.6881027
49	0xc014e7d3	-2.3266494
50	0xbfe74469	-1.8067752
51	0x3d5cdc34	0.05392094
52	0xc02279ea	-2.538691
53	0xbf8e66bf	-1.1125106
54	0x409d9eae	4.92562
55	0x3f7bcc11	0.98358256
56	0x3f6bce06	0.9211124
57	0x3f9e39b5	1.2361361
58	0xc11030c3	-9.011905
59	0x3fdeaef3	1.739714
60	0x3e3cc1d2	0.18433312
61	0x3fdf8c34	1.7464662
62	0x405e6763	3.4750602
63	0x3feaa843	1.8332599
64	0xbf905598	-1.1276121
65	0x3f2c064e	0.6719712
66	0x3db3521e	0.08755897
67	0xc0bdce4d	-5.931433
68	0xc017cc8d	-2.3718598
69	0xc07683c6	-3.8517928
70	0xbf6b383e	-0.91882694
71	0x402cc797	2.699682
72	0x406ef472	3.7336698
73	0x3f4331f1	0.7624808
74	0x3ff9f249	1.9527065
75	0x400a752e	2.163402
76	0xbf1c49a4	-0.61049867
77	0xbfe4282a	-1.7824757
78	0xc034bd51	-2.824055
79	0x3f50dfd1	0.81591517
80	0xc04d8285	-3.2110913
81	0x408c71e5	4.388903
82	0xbd3e32b1	-0.04643506
83	0xc074ffdb	-3.8281162
84	0xbf38e260	-0.7222042
85	0xbe62f863	-0.22165065
86	0xbfa89194	-1.3169427
87	0x40954499	4.6646237
88	0x408ade7b	4.3396583
89	0x403cf6eb	2.9525707
90	0x40bb13eb	5.8461814
91	0xc09b9601	-4.862061
92	0xbf37d764	-0.71813035
93	0xc0c57afb	-6.1712623
94	0xc083cf74	-4.119074
95	0x3c4eabe2	0.012614222
96	0xbfd98906	-1.6994941
97	0xc0ae00f4	-5.4376163
98	0x3fc04bfb	1.5023187
99	0x3e436505	0.19081505
100	0xbf99792b	-1.1990103
101	0x3f98c04f	1.1933688
102	0xbfeed045	-1.8657309
103	0xc030ed5f	-2.764488
104	0x40be2e3a	5.943143
105	0xc0927746	-4.5770597
106	0xc0359bb7	-2.837629
107	0xc03cbf39	-2.9491713
108	0x40815077	4.0410724
109	0xc057bce4	-3.370904
110	0xbff2d5ea	-1.8971531
111	0x4094cee8	4.650257
112	0x3f6c3930	0.9227476
113	0x3fe3bd99	1.7792236
114	0x401fdb24	2.4977503
115	0xc029a422	-2.6506429
116	0x404473e2	3.069573
117	0x403de034	2.9668093
118	0xc095d4ed	-4.682242
119	0xbf2cdf40	-0.6752815
120	0xc00c5c2e	-2.1931262
121	0xc02ce8ea	-2.701716
122	0xbfae52c6	-1.361901
123	0x3fceb4d6	1.6148937
124	0xbf2ef618	-0.6834426
125	0xc0cfeda1	-6.4977574
126	0x40daca6b	6.837209
127	0x40b72e66	5.724414
128	0xbec218a5	-0.37909427
129	0x401ebf5d	2.48043
130	0xc0b993e2	-5.799302
131	0x3ff07246	1.8784873
132	0xc02a55bd	-2.661483
133	0xbfc3434c	-1.5254912
134	0xc01e2afb	-2.4713733
135	0x3f78c059	0.971685
136	0x3fca2760	1.5793266
137	0x3f57b741	0.84264
138	0xc09e9c6b	-4.956594
139	0x3f58c391	0.8467341
140	0x4099e19a	4.8087893
141	0x4086d2af	4.213218
142	0x3eea73c4	0.45791447
143	0xc05ea72c	-3.4789534
144	0xbfab84cf	-1.3399905
145	0xc0345fb6	-2.8183417
146	0x4026b0ab	2.604533
147	0x3fbfbe83	1.4980015
148	0xbfbe1df8	-1.4852896
149	0x3fb687c2	1.426018
150	0x3fe9c564	1.8263364
151	0x405a1d7e	3.40805
152	0xbe8f9a68	-0.2804749
153	0x3f335f08	0.7006688
154	0xbf8410d6	-1.0317638
155	0xc0a9d3f7	-5.3071246
156	0x401090cd	2.258838
157	0x3d2490b1	0.04017705
158	0xc055dcf1	-3.3416102
159	0x405e5e60	3.4745102
160	0xc04cb24c	-3.1983824
161	0x4080003d	4.000029
162	0x4114b418	9.293968
163	0xbfa2b1e5	-1.2710539
164	0xc00a30df	-2.1592329
165	0x3e92de47	0.2868521
166	0x3fc9c154	1.5762124
167	0x3f39d6ab	0.7259318
168	0xbdf2c499	-0.11853904
169	0xc048d401	-3.1379397
170	0xc0764e53	-3.8485305
171	0xc04d7e28	-3.210825
172	0xbf9fb33c	-1.2476573
173	0x3e388654	0.18019992
174	0x40460261	3.0938952
175	0x3fac66bb	1.3468851
176	0xbf5459c5	-0.8294948
177	0x409b5c25	4.854998
178	0xc00cf3df	-2.2023847
179	0x3f60644b	0.87653035
180	0x3e178412	0.14796475
181	0x40814756	4.039958
182	0xc0c74775	-6.227473
183	0x3fa7bd9a	1.3104737
184	0x3f8aa5b4	1.0831819
185	0x3f98e9b5	1.1946322
186	0x40cd6c2a	6.4194536
187	0xc018708e	-2.3818698
188	0xbf445ce4	-0.7670424
189	0x3e9e0533	0.30863342
190	0x3f17bcd2	0.5927249
191	0xbff6f2fc	-1.9292903
192	0xc028ee03	-2.639527
193	0x3f0232d9	0.5085884
194	0x3f8e67d7	1.112544
195	0x3f943a36	1.1580265
196	0xc019188f	-2.392124
197	0xc010c715	-2.262151
198	0x403e4afa	2.9733262
199	0xbe511f5c	-0.20422119
200	0xbf5b174c	-0.85582423
201	0x40d3332f	6.599998
202	0xbdba497c	-0.09096047
203	0xc007c46b	-2.1213634
204	0xbfc4344e	-1.5328462
205	0x4065a88d	3.5884125
206	0x4024f3c8	2.5773792
207	0x404e1544	3.220048
208	0x40f18cd7	7.5484424
209	0x404b0fff	3.1728513
210	0xbf18a443	-0.59625643
211	0xc075b772	-3.8393216
212	0xc02d71c3	-2.7100685
213	0xbedd0308	-0.43166375
214	0xc0c84aa4	-6.2591114
215	0xc042aa65	-3.04165
216	0xbfec6d84	-1.8470922
217	0x3fb2070c	1.39084
218	0xbf937c52	-1.1522315
219	0xc034d4a3	-2.8254783
220	0xc0911e53	-4.5349517
221	0xbfdfce2e	-1.7484796
222	0xc09877a7	-4.764606
223	0xc084b591	-4.147164
224	0xc01495f0	-2.3216515
225	0x3f090330	0.5352049
226	0xc098ea33	-4.778589
227	0xbf7f4023	-0.9970724
228	0xc02f5743	-2.739701
229	0xbe7493cc	-0.23884505
230	0xc08270d2	-4.076272
231	0x4050e0b5	3.263715
232	0x3f8ca0c0	1.0986557
233	0xbefc844c	-0.49319685
234	0x4004d04a	2.075213
235	0xbe446024	-0.191773
236	0x3fc6adac	1.552175
237	0x3f8704d7	1.0548352
238	0xbfec5068	-1.8462038
239	0x404d8bfc	3.211669
240	0x3ff6c7e9	1.9279758
241	0x4095dc90	4.683174
242	0xc0584403	-3.379151
243	0xbff81c03	-1.9383548
244	0xbfad29de	-1.3528402
245	0xbfac1cc5	-1.344628
246	0xc0073560	-2.1126328
247	0x3ffd6c96	1.9798763
248	0xc0713155	-3.768636
249	0x3f807cb7	1.003806
250	0x3d787f1b	0.060668092
251	0x4071238f	3.7677953
252	0x4075e904	3.8423471
253	0xbfd0e675	-1.632033
254	0x3fc732d5	1.5562388
255	0xc077346b	-3.8625743

fc2.bias f4 [15]
0	0xc0850c59	-4.1577573
1	0xc0069a55	-2.1031697
2	0xbf2be86b	-0.67151517
3	0xc0c33d48	-6.1012306
4	0x4071d4e4	3.7786188
5	0x3ffc7671	1.9723645
6	0x3fb85d75	1.4403521
7	0xbefdf7ed	-0.49603215
8	0xc0967ff1	-4.703118
9	0x40217f33	2.5233886
10	0x400730d8	2.1123562
11	0x3f52b2e5	0.8230422
12	0x3e4c3e1d	0.1994557
13	0x3f717113	0.9431316
14	0xc0a2c864	-5.0869617
