cem_cartpole_1_1.pth (torch_old, 6488 bytes, 4 tensors)

fc1.weight f4 [64, 6]
000000 2e ff d2 bf d4 4e 90 bd 06 2e b3 bf a7 b1 8f 3f
       -1.6484125 -0.07046285 -1.399842 1.122609
000010 b1 82 e9 bf e7 cd 86 bf 20 c8 02 3f d9 c8 76 3f
       -1.8243009 -1.0531586 0.51086617 0.9640022
000020 52 c6 86 bf f3 67 84 bf df e3 45 c0 a8 64 a2 be
       -1.0529273 -1.0344223 -3.0920331 -0.3171742
000030 75 bb 34 3f 77 69 fe 3f 97 28 de bf 8a ca 12 c0
       0.70598537 1.9875935 -1.7356137 -2.293612
000040 91 5b fa be 4f 55 25 be 4a b7 a5 40 30 ee 2a 40
       -0.48897985 -0.16145824 5.178624 2.6707878
000050 dd af a2 3f 70 99 5f bf 15 33 05 c0 5c b6 02 c0
       1.2709919 -0.873435 -2.0812428 -2.0423803
000060 05 a7 18 bf 23 54 28 c0 0f 3e fe 3f 86 8f 21 bf
       -0.5962985 -2.6301353 1.9862689 -0.63109624
000070 53 c9 7d bf 0a ec 1d 40 31 84 b4 3e 53 b5 c5 3d
       -0.9913532 2.4675317 0.35257104 0.096537255
000080 ba 63 dd 3f 0f aa 9e bf 36 04 fa bf 47 02 4c 40
       1.7296059 -1.2395648 -1.9532535 3.187639
000090 3c 6e 2e bf 0a 18 fa 3f 96 ef e1 3f 24 97 04 3f
       -0.68136954 1.9538586 1.7651241 0.5179312
0000a0 9c a6 76 3e fd d1 86 3e c1 0a 97 bf 3a 4d ef bd
       0.24086994 0.26332083 -1.1800157 -0.11684652
0000b0 f6 1c 5e 3d 3d 4f 18 40 21 f1 42 3f f1 cd 25 bf
       0.054226838 2.3798363 0.76149184 -0.64767367
0000c0 67 5f 91 3f 48 23 46 3f 21 bb a5 bf c2 9c 0e 40
       1.135724 0.77397585 -1.2947732 2.2283177
0000d0 90 5e 01 3f 60 f7 d4 3f 3a 15 62 40 75 04 51 3f
       0.50534916 1.6637993 3.5325456 0.81647426
0000e0 9f 22 0e 40 90 87 34 3f 7d 17 8c 3f bd e5 27 40
       2.220863 0.7051935 1.0944668 2.623397
0000f0 12 59 8c bf 82 20 8c 3f 5f 65 c0 be 75 c0 b6 3f
       -1.0964682 1.0947421 -0.3757734 1.4277483
000100 ef 77 d9 bf a3 7e 89 3f 65 f7 2a c0 ea d8 68 c0
       -1.6989726 1.0741771 -2.6713498 -3.6382394
000110 d9 ec d9 bf 06 db 49 3f 47 f8 db be 6d 86 0e bf
       -1.7025405 0.7884983 -0.42962858 -0.5567387
000120 a7 78 82 c0 2f 51 22 be cb 64 db 3e 54 33 8a bf
       -4.077228 -0.15851282 0.42850336 -1.0796914
000130 8d 2e 47 3f 2a 08 56 3e ca 6c b1 bf 21 fb 94 3f
       0.77805406 0.20901552 -1.3861325 1.1639138
000140 5e 73 5c 3f 31 db 51 40 31 87 0d c0 f2 0c cf bf
       0.86113536 3.2790034 -2.2113764 -1.6175826
000150 56 c1 59 3f a8 a4 9c 3f 2f 40 0d 3f 7d cd f7 bd
       0.8506063 1.2237749 0.5517606 -0.12099741
000160 b0 a4 48 40 f2 2e 09 40 9f 22 20 bf 8d 9d 8e 3f
       3.1350517 2.1434903 -0.6255283 1.1141831
000170 80 a9 cd bf 03 ba 98 bf b6 a1 23 c0 c8 94 2e 3e
       -1.6067352 -1.1931766 -2.556745 0.17048943
000180 1a 46 b3 3f d9 69 4b c0 e5 c4 98 be f5 26 8b 3f
       1.4005768 -3.1783354 -0.2983772 1.0871264
000190 45 05 82 3e 07 54 04 bf b0 b5 da bf b6 7d 35 3c
       0.25394645 -0.51690716 -1.7086697 0.011077335
0001a0 6c b8 81 3f c7 47 8d 3f 04 07 49 bd ea 64 19 3f
       1.0134406 1.103753 -0.049078956 0.5991961
0001b0 b8 7a 84 40 63 40 29 40 61 74 dc bf 07 38 87 c0
       4.1399803 2.6445549 -1.7223016 -4.2255893
0001c0 ff e9 02 40 ad f0 cc be 22 24 9a 3f c1 29 31 c0
       2.045532 -0.4002737 1.2042277 -2.7681735
0001d0 ab 2d bd 3e 5b e2 54 40 7e 31 f6 bf 08 eb ae bf
       0.36948904 3.3263156 -1.9233854 -1.3665476
0001e0 a0 2b ca bf bd 29 f9 3e 30 e4 e9 3d 55 55 30 bf
       -1.5794563 0.48664656 0.114204764 -0.68880206
0001f0 e5 0c cb 3f dd 6d 08 c0 73 e1 cb 3e bb 28 c9 be
       1.586331 -2.1317055 0.39820442 -0.39288887
000200 10 83 75 3e e8 00 10 3f b6 d0 22 40 b4 ed f9 bf
       0.23975778 0.5625138 2.5439887 -1.9525666
000210 00 8b 91 bf 6a df 02 bf 40 11 ad be 4f 1c 61 bf
       -1.1370544 -0.5112215 -0.33802223 -0.8793382
000220 9b 5d 8a be 1c af a1 bf 20 d0 3f 40 6d fa 21 c0
       -0.2702454 -1.2631564 2.997078 -2.5309098
000230 9f 5a 2a c0 fb 53 fd bf 8f b9 d7 bf 16 58 bc be
       -2.661781 -1.9791254 -1.6853503 -0.36785954
000240 1a cb bc bf e2 42 f9 3f b8 61 7e 3d 96 33 29 3f
       -1.4749482 1.9473536 0.06210491 0.6609434
000250 16 03 cc 3e 9d ff 7a be 42 6b d9 3e 13 98 dd 3e
       0.39846104 -0.24511571 0.42464644 0.43280086
000260 71 53 3a 3f 1e a4 03 c0 ef ac 09 40 3e 49 18 bf
       0.7278357 -2.056892 2.15118 -0.5948676
000270 d1 6e 40 bf 1a 77 d0 3f 74 44 35 bf 28 05 bc 3f
       -0.7516909 1.6286347 -0.70807576 1.4689074
000280 d3 98 bb 3f 4a d2 00 c0 8a 80 3b 40 f5 26 3d 40
       1.4656013 -2.012835 2.9297204 2.9555027
000290 7e 6c b1 bf b5 ba 48 c0 87 6f e4 3f 67 56 58 be
       -1.3861234 -3.1363957 1.7846535 -0.2112671
0002a0 cb 6b 35 bd 3d 3a 0d 3f 83 36 76 3f c3 a1 d9 bf
       -0.044292253 0.5516699 0.9617693 -1.7002491
0002b0 50 9b 2d c0 18 09 01 40 a3 81 08 40 48 35 a8 3f
       -2.7126045 2.01618 2.1329124 1.314126
0002c0 23 3d 52 bf b8 af 89 bf 26 6e ef be 65 9a d5 3f
       -0.8212454 -1.075675 -0.46763724 1.6687742
0002d0 50 b6 9b bf 23 4a d2 3f f3 08 20 40 1e a8 1c 40
       -1.2165012 1.6428875 2.5005462 2.447761
0002e0 0e 1d e2 be 7f d4 85 3e f7 b7 00 be b0 e1 68 c0
       -0.44162792 0.26138684 -0.12570177 -3.6387749
0002f0 fc 57 e1 bf 2c 39 d6 bf b1 aa f8 bf 8e 56 6b be
       -1.7604976 -1.6736197 -1.9427091 -0.22982237
000300 68 aa 86 3f 5c 4d c9 3f 46 c6 20 bf 89 e9 81 3f
       1.0520754 1.5726733 -0.6280254 1.0149394
000310 fb b9 e9 3f 4e f0 ce bf f4 fe 24 40 00 5f b6 3f
       1.8259882 -1.6167085 2.578061 1.4247742
000320 fe 11 12 40 4f ea 40 c0 b7 c2 66 3f 60 c0 44 3f
       2.2823482 -3.014301 0.9014086 0.7685604
000330 b7 2b f1 be 06 08 d1 3f 5f f4 87 c0 e9 d1 59 40
       -0.47103664 1.6330574 -4.2485805 3.403437
000340 42 ff df bf 87 39 f9 bf cb 6e 60 c0 53 7e 80 bf
       -1.7499774 -1.9470681 -3.5067623 -1.0038551
000350 d9 c5 0e c0 82 0a 23 40 a0 00 8a bf 14 5a 2b 40
       -2.2308257 2.5475163 -1.0781441 2.677373
000360 b4 81 2e bf 3a 16 e5 3f b3 05 c4 3f 65 a6 a8 3e
       -0.6816666 1.7897408 1.5314239 0.3293945
000370 1c 69 90 c0 84 58 98 3f a4 76 1f c0 27 84 01 3f
       -4.5128307 1.1902013 -2.4916162 0.50592273
000380 00 2d 49 3f c5 52 48 40 b3 f0 80 bf 78 d3 91 3f
       0.7858429 3.1300519 -1.0073456 1.139266
000390 cd 12 f3 3f 7a 5a fe 3e a0 ae 95 bf 90 ad 6a 40
       1.8990113 0.49678403 -1.1693916 3.6668434
0003a0 d4 64 27 40 3f 53 bb 3f 27 f3 07 3f 4d aa dc be
       2.615529 1.463478 0.53105396 -0.4309868
0003b0 b9 ff 89 40 67 d6 e2 bf 32 a3 ec 3f c9 44 a1 3e
       4.312466 -1.772168 1.8487303 0.3149779
0003c0 14 bd 54 3f 3e f9 87 3f b3 5c 03 40 ee bc 5c bf
       0.8310101 1.0622938 2.052533 -0.86225784
0003d0 9c da ea be 4c a5 16 40 d4 47 d6 3e bc 54 15 bf
       -0.4586991 2.353839 0.41851676 -0.5833242
0003e0 47 77 6a bf 4f 46 1e c0 8d db 27 40 91 ea 44 40
       -0.9158825 -2.4730413 2.6227753 3.0768168
0003f0 9f 76 94 bd f0 d9 0e 40 3f 15 1d 40 3b 2b 02 c0
       -0.07249188 2.2320518 2.4544218 -2.0338886

fc1.bias f4 [64]
000000 08 f0 9c 3f 86 ac dc bf 10 95 8a bf a5 86 52 40
       1.2260752 -1.724015 -1.082674 3.289468
000010 91 ae e9 be ac c4 6b bf b6 2f e1 3f ae bb f6 bf
       -0.45640996 -0.9209697 1.7592685 -1.9276025
000020 0c 60 f6 3f 5f 38 aa bf d1 9d d5 be d8 51 1f c0
       1.9248061 -1.3298453 -0.41721967 -2.4893703
000030 2e 51 b8 bf d5 cf 6b 3f 73 b3 14 bd 9e 58 29 3f
       -1.4399774 0.92114 -0.03630395 0.66150844
000040 be b2 d5 3e 3f 26 7c bf 2b 14 40 40 e0 3e eb bf
       0.41737932 -0.9849586 3.001231 -1.8378563
000050 11 15 27 be 74 4d 60 bf 90 b1 a8 3f a2 25 3c bf
       -0.1631663 -0.87618184 1.3179188 -0.73494923
000060 91 0e 8a bf 32 8e 11 3f e5 dd 9c 3e a8 45 c0 3f
       -1.0785695 0.568576 0.30638042 1.5021257
000070 48 17 d9 3f b7 eb 8d bf 44 db bf bf c4 6b c0 bf
       1.696023 -1.108756 -1.498879 -1.5032887
000080 e8 8e bd 3f fc 15 66 bf 24 6e b2 be f3 fb 19 bf
       1.4809237 -0.89877295 -0.34849656 -0.6015007
000090 d5 3d e2 3f 67 c2 e5 3f ce 02 e8 3f 90 a6 43 c0
       1.767512 1.7949952 1.8125856 -3.0570412
0000a0 62 8f dc 3e 46 b2 60 3f 86 5f 39 bf 16 5d da 3e
       0.43078142 0.87772024 -0.7241138 0.42649144
0000b0 f8 15 7f be 45 d2 38 40 be 76 68 3e fa cf a3 bf
       -0.24910724 2.8878338 0.22701547 -1.2797844
0000c0 0f d9 4e 40 08 4d 78 bf 7f 5f c2 3f 22 e6 5f bf
       3.2319982 -0.9699254 1.5185393 -0.8746053
0000d0 6f 13 8c bf 06 69 3c c0 7c d3 1f bf f3 91 b1 3f
       -1.0943431 -2.9439101 -0.62432075 1.3872665
0000e0 5d d2 01 40 f8 e1 83 3f d9 d9 91 3f cf ee 1b 3e
       2.0284646 1.0303335 1.1394607 0.15227817
0000f0 1a 7b f1 3c 26 ec ac 3d 4a 10 63 40 97 7c 95 bf
       0.029477645 0.08443479 3.5478692 -1.1678647

fc2.weight f4 [15, 64]
000000 7d d7 78 3f ae d8 e0 bf da 37 d9 bf a9 b7 60 3e
       0.9720381 -1.7566125 -1.697017 0.21945061
000010 42 86 61 bf d6 15 ab bf 86 09 7e bf bd a2 4d 3f
       -0.88095486 -1.3366039 -0.9923328 0.80326444
000020 b0 c3 2a be b1 35 a5 3f 32 31 f0 bf db 09 06 3f
       -0.16676211 1.290701 -1.8765013 0.5235879
000030 9b be f5 bd c6 60 37 40 29 41 96 3e 1e f5 19 c0
       -0.11999246 2.8652816 0.29346588 -2.4055858
000040 14 99 18 3f 65 7a b5 bf 95 59 9f c0 20 17 22 40
       0.5960858 -1.4177977 -4.9796853 2.5326614
000050 d6 19 f8 3f bc fc a7 3f bb 06 2e 40 90 cd de 3e
       1.9382885 1.3124003 2.7191608 0.43516207
000060 66 37 d1 3f 26 58 a3 be 2b 3b 9e 3f 49 1a ac bf
       1.6345031 -0.3190319 1.2361807 -1.3445522
000070 a4 88 8f c0 c4 3f 6c 3e 6d 25 14 3f a5 47 2b 40
       -4.48543 0.230712 0.5786961 2.6762478
000080 1c 45 37 c0 c1 b3 0b 3f 9b 54 c0 3f 8b 25 75 3e
       -2.863593 0.5457116 1.502582 0.23940103
000090 d5 19 0b c0 37 8d a3 3f 09 51 16 40 1d b4 cc 3e
       -2.1734517 1.277747 2.348696 0.39981166
0000a0 a8 a4 4b 40 6f 6b 19 bf 22 e3 f7 be 10 0a 2f 3f
       3.1819248 -0.59929556 -0.48415476 0.6837473
0000b0 1c ad 12 bf 50 c3 ad bf 0d e6 8d 3f 68 54 1c c0
       -0.57295394 -1.357523 1.1085831 -2.4426517
0000c0 56 dd 0f c0 3e b6 57 3f a7 07 48 40 34 82 05 be
       -2.2478843 0.84262455 3.125467 -0.1303795
0000d0 44 5c 61 bf 46 ee 45 3f 24 66 c6 bf d7 5b 8b 40
       -0.8803141 0.773167 -1.5499921 4.354961
0000e0 c0 a4 47 3e 32 8b f1 bd bb 94 13 40 27 81 3e 3f
       0.19496441 -0.117941275 2.3059528 0.7441582
0000f0 fc a8 c8 3e 5c 38 ab be 60 7a 72 3f 05 2d 30 3e
       0.39191425 -0.33441436 0.9471798 0.17204674
000100 2f 64 a6 be 0a a6 7a c0 81 0e 87 be ad 24 d3 be
       -0.3249831 -3.9163842 -0.26378253 -0.4123892
000110 4e 46 42 c0 39 2d db be be 6f 9c be 8a 3e 95 3f
       -3.035541 -0.4280794 -0.30554003 1.165971
000120 34 c3 1d 3e db 8d 19 c0 89 16 2e 40 d7 d8 ee bf
       0.15406495 -2.3992832 2.7201254 -1.8659924
000130 58 ac 15 40 01 f9 2b bf 95 a8 1c c0 bd 8e 08 3e
       2.338644 -0.67176825 -2.4477894 0.133357
000140 f6 22 26 40 02 ca 2d c0 ae 02 e1 3f 30 29 de 3f
       2.5958838 -2.7154546 1.7578943 1.735632
000150 e6 1f e7 bf 9d ec 44 40 dd 7a c1 3f f9 9c 8e 3f
       -1.805661 3.0769417 1.511562 1.1141654
000160 df 9f 91 c0 a2 03 d2 be 01 c7 12 c0 41 ec b3 bf
       -4.5507655 -0.41018397 -2.2933962 -1.4056474
000170 f5 33 9e 3e 79 01 17 c0 0a 4d 13 bf 17 97 bc be
       0.30899015 -2.359465 -0.5753943 -0.36834022
000180 f7 3c f5 bf be a3 31 bf 3f 78 51 3e 85 08 ae 3f
       -1.915923 -0.69390476 0.20456026 1.359635
000190 47 1e 3b bf 74 d5 17 c0 de 60 11 c0 5f cb 61 3f
       -0.73093075 -2.3724031 -2.2715373 0.88200945
0001a0 8d 54 05 40 8d 9d 47 c0 a0 12 8c c0 96 df 51 bf
       2.0832856 -3.1189911 -4.3772736 -0.8198179
0001b0 e4 29 06 40 d0 df d1 bf 09 ad 0d c0 4c e0 24 bd
       2.0963068 -1.6396427 -2.2136862 -0.04025297
0001c0 85 25 fa bf 82 98 ff 3f 3b ad 2c 40 e2 45 09 3f
       -1.95427 1.9968417 2.6980731 0.5362226
0001d0 50 7a 84 3f 50 c1 13 40 fb cc 8a 3f fc 3f 01 40
       1.0349827 2.3086739 1.0843805 2.0195303
0001e0 7c 10 6d 3e 6e 3a 02 3f 74 f5 91 bf 4e 90 b1 3e
       0.2315082 0.50870407 -1.1403031 0.34680408
0001f0 7d d8 f0 3e e3 1a 40 3d 55 65 69 c0 93 be c7 bf
       0.47040167 0.04690064 -3.6468098 -1.5605034
000200 44 94 98 bf d1 5d 11 3d 84 bb 80 bf 40 5c 0b be
       -1.1920247 0.03548986 -1.0057225 -0.1360941
000210 09 81 48 3f 08 31 85 be 39 01 af bf f9 28 b8 c0
       0.7832189 -0.2601397 -1.3672248 -5.7550015
000220 64 15 b0 bf 06 5c dd 3f 04 fc 6e bf a0 83 3a bd
       -1.3756528 1.7293708 -0.93353295 -0.045535684
000230 2f 37 9f bd b4 f8 f8 3f 47 36 23 40 9b a9 7b 40
       -0.07774197 1.9450898 2.5501878 3.932227
000240 e6 42 2f c0 7a 0b 54 40 e4 0f 22 c0 c4 b6 4e 3f
       -2.7384582 3.3132005 -2.53222 0.8074763
000250 38 35 64 3f de c1 e7 3f f7 01 a2 bb 57 19 7f 3f
       0.89143705 1.8106039 -0.004944082 0.9964804
000260 a9 df 08 40 ee 96 28 40 73 be 9b 3f 51 8d 24 c0
       2.1386511 2.634212 1.2167495 -2.5711253
000270 0a 2a a2 c0 66 7b 84 bf 1c 1a 85 bf 45 f6 85 3f
       -5.0676317 -1.0350158 -1.0398593 1.046578
000280 b2 b9 e3 bf 6a 5d 88 bf af ca d7 bf 26 0e a6 bf
       -1.7791045 -1.0653508 -1.6858729 -1.2973068
000290 e8 c8 c1 be ed 8c 8c 3e 2d 12 b8 3e 4e 04 f4 3f
       -0.37848592 0.27451268 0.35951367 1.9063814
0002a0 ab 95 39 3d fc a0 38 40 f9 bc 07 c0 3a 9d 46 c0
       0.04530875 2.8848257 -2.120909 -3.1033463
0002b0 1b eb 1e c0 a5 d0 0d 3f 91 03 23 c0 0b 54 d1 be
       -2.4830997 0.5539649 -2.5470927 -0.40884432
0002c0 d6 74 c0 bf af 60 a4 be b8 00 8d bf 20 15 1d c0
       -1.5035655 -0.32105014 -1.1015844 -2.4544144
0002d0 df 1d 31 3f 5a 1f 2b 40 73 d9 01 c0 4a d8 d1 bf
       0.69186205 2.6737885 -2.028897 -1.6394131
0002e0 1a 08 4d bf 4d 11 02 c0 e8 be c9 bf 91 19 fa 3f
       -0.80090487 -2.032306 -1.5761385 1.9539052
0002f0 a7 c5 f4 bf 91 22 24 c0 5c 2b 57 3f 4a 32 23 3f
       -1.9122819 -2.5646098 0.84050536 0.6374861
000300 eb 1b 50 bf c7 24 66 3f c0 da bd 3e 63 b8 05 c0
       -0.812926 0.8989987 0.37080956 -2.089379
000310 aa f8 70 bf 95 91 2a c0 28 71 08 3e 96 2d 3e 3f
       -0.9412943 -2.6651356 0.13324416 0.7428831
000320 ff 76 ab be ee 2f 38 bf 68 de de be f3 56 fc 3f
       -0.33489224 -0.71948135 -0.43529058 1.9714035
000330 43 38 95 3e ea 80 c8 3f c9 ff af bd d9 dd b7 3e
       0.29144487 1.5664341 -0.08593709 0.35911444
000340 7a 49 5e 40 0a c6 ea bf 66 5c be bf d5 e5 ab be
       3.4732347 -1.8341687 -1.4871948 -0.33573785
000350 d4 e0 87 3f 2a 3d 18 40 e1 f4 2e c0 7e c5 73 40
       1.0615487 2.3787332 -2.7336962 3.808929
000360 c7 c9 7d bf 39 25 2c c0 86 68 4b 40 60 df d4 3f
       -0.9913601 -2.689772 3.1782546 1.6630669
000370 77 c1 be bf 99 99 ad bf 34 63 22 c0 78 e6 00 c0
       -1.4902791 -1.3562499 -2.5373049 -2.0140667
000380 a3 88 03 c0 45 d1 e0 3f 1e e5 23 3e 71 a7 c9 3e
       -2.0552146 1.7563864 0.1600537 0.3938556
000390 49 89 e5 3f df 50 56 3f 0e 2b 19 bf cc c9 44 c0
       1.7932521 0.8371715 -0.5983132 -3.0748167
0003a0 d1 49 88 3f 4a c9 1b 3e b9 d2 10 be 97 c1 ae 3f
       1.0647527 0.15213504 -0.14142884 1.3652829
0003b0 2a e5 3d c0 8b 08 2d c0 b5 65 9b bf 8a 16 1f c0
       -2.967112 -2.7036464 -1.2140414 -2.4857507
0003c0 ee 32 52 40 9b b4 15 3d 4f d0 54 c0 f5 e1 78 be
       3.2843585 0.036549192 -3.3252141 -0.24304946
0003d0 40 55 98 3f 52 5d 2c 40 8c 50 4f c0 ff a1 d4 bf
       1.1901016 2.6931958 -3.2392912 -1.6611937
0003e0 a6 d2 d6 bf 53 a5 89 bf 5b f9 30 40 49 af e5 bf
       -1.6783035 -1.0753578 2.7652194 -1.7944118
0003f0 1c 98 06 c0 9e f1 fb be fa 0f 7a 3f 5f fb f8 3f
       -2.103034 -0.49207777 0.9768063 1.9451712

fc2.bias f4 [15]
000000 d9 8a e3 3f a3 49 a9 3f 20 a7 9b bf f4 33 67 40
       1.7776748 1.3225597 -1.2160378 3.612546
000010 7a e9 2e 3e 2e 5b 7f 3f 03 8f 27 3e d0 d0 72 bf
       0.17081252 0.99748504 0.16363148 -0.9484987
000020 35 40 89 3e c2 46 1b c0 8e 6b e8 bf 40 cb 34 bf
       0.268068 -2.4261937 -1.8157823 -0.70622635
000030 c7 12 b5 c0 63 6d 37 c0 8c 28 26 3e
       -5.658542 -2.8660514 0.16226405
