cem_cartpole_BEST500.pth (torch_old, 10328 bytes, 4 tensors)

fc1.weight f4 [64, 21]
000000 e9 39 95 3e 2b 02 3a c0 34 9f e9 bf 89 a4 02 40
       0.29145744 -2.9063823 -1.825171 2.0412924
000010 8a 85 cb 3f d0 ed 06 c0 39 7c 41 c0 2a ed 18 bf
       1.5900128 -2.108265 -3.023207 -0.59736884
000020 59 34 f4 3f 43 11 09 40 83 f2 06 c0 64 36 62 3f
       1.9078475 2.1416786 -2.1085517 0.88364244
000030 18 9c a7 3f 29 98 6a 3f fe 75 4e 3f 10 de e1 bf
       1.3094511 0.9163843 0.8064879 -1.7645893
000040 9d fd a9 3e 80 7a 2d c0 0e 2f c8 bf ed af a4 40
       0.33201304 -2.7106018 -1.563936 5.1464753
000050 15 eb 77 c0 76 1b 13 bf f8 75 0c 40 04 f4 21 3f
       -3.8737233 -0.5746378 2.1947002 0.63262963
000060 8e 78 40 bf f6 3e 3d 3f e6 41 d8 3f af 69 b2 3e
       -0.7518395 0.73924196 1.6895111 0.34846255
000070 d5 c2 17 3f 58 04 30 c0 04 bb 4f 40 ca 95 99 3f
       0.59281665 -2.7502651 3.2457895 1.1998837
000080 80 7d 26 c0 b0 93 2b 3f 68 25 4d 40 c2 ef a1 3f
       -2.60141 0.6702223 3.205408 1.2651293
000090 d2 e0 da 3f d2 4e a4 bf 70 69 f0 bf a7 46 35 3f
       1.709986 -1.2836554 -1.8782177 0.7081093
0000a0 72 a4 b9 3e 70 70 58 40 a8 63 06 c0 b9 1c 1e c0
       0.36258274 3.3818626 -2.0998325 -2.470503
0000b0 20 f6 11 bf 0f 86 44 40 e4 77 ce bf 5e 0d e8 3f
       -0.5701618 3.0706823 -1.6130338 1.8129079
0000c0 98 13 bd bf 06 df cd 3f d6 b6 87 3e 41 7c 02 c0
       -1.4771605 1.6083686 0.2650668 -2.0388339
0000d0 f2 11 e0 bf 80 5d 6d 3d 5d 67 e2 bd 49 e6 10 be
       -1.7505476 0.057950497 -0.11054871 -0.14150347
0000e0 36 35 ea bf 13 52 12 c0 e8 db f2 bf 6a 9a bd 40
       -1.8297489 -2.2862594 -1.897336 5.9250994
0000f0 f1 af 4f be d0 9d 12 40 80 d2 85 bf b2 cc 68 3f
       -0.2028196 2.290882 -1.0454865 0.9093734
000100 56 25 d1 3e 4b 33 80 bf aa c0 f4 3e e5 72 4e c0
       0.40848798 -1.0015653 0.4780324 -3.2257626
000110 b2 57 34 bf 7c f8 c6 3f 8e 60 1e 3f 57 51 39 40
       -0.7044631 1.5544581 0.6186608 2.8955896
000120 f6 e3 24 c0 61 ce dc 3d cf c7 8f bf 51 e2 2f 3f
       -2.5764136 0.10781551 -1.1232852 0.68704706
000130 be 5e 95 bf 6d ad 95 3f ee 10 ac 3f 0e 99 e5 3f
       -1.1669538 1.169355 1.3442667 1.7937334
000140 97 10 cd bf 4f d4 2b 40 d9 7f c9 bf 41 11 0b 3f
       -1.6020688 2.6848333 -1.5742141 0.543232
000150 b4 8c 25 c0 31 f3 10 40 0b 1a 96 3f 6c bd b5 3f
       -2.5867128 2.2648432 1.1726698 1.4198432
000160 02 0a ea be c8 b5 ee 3f 90 a8 ca bf 77 46 5a c0
       -0.4571076 1.8649225 -1.5832691 -3.4105508
000170 98 b0 25 bf 61 06 ca 3f e4 80 77 3f cd c3 8b be
       -0.64722586 1.5783197 0.96681046 -0.27297822
000180 08 f6 59 c0 04 9c b7 bf e4 0b 0e 40 74 9f 07 40
       -3.4056416 -1.4344487 2.2194757 2.1191072
000190 c8 c5 08 c0 c0 a3 71 c0 fc c1 4c 3f 47 21 65 3f
       -2.1370716 -3.7756195 0.79983497 0.895039
0001a0 da 45 de bd 8c 83 ee bf 72 cc fd 3f e4 85 2a c0
       -0.10853167 -1.8633895 1.9828017 -2.664422
0001b0 0c a7 92 3e 4b 2f 4a bf e8 a9 ac bf fc 89 aa bf
       0.28643072 -0.78978413 -1.3489351 -1.332336
0001c0 00 e6 e9 bf 15 db 5f 40 68 f5 82 3f 22 8b 98 3f
       -1.8273315 3.4977467 1.0231142 1.191746
0001d0 2b d2 c9 be 46 18 86 3e ee 5b 4d 40 83 51 31 be
       -0.39418158 0.26190394 3.208736 -0.1731625
0001e0 19 8c c0 be 9b 0f e3 bc 19 b2 d3 bf d1 b5 cb 3f
       -0.37606886 -0.027717402 -1.6538726 1.5914861
0001f0 80 7c 2e c0 34 62 2e c0 57 08 83 3f 61 19 b0 3f
       -2.7263489 -2.7247438 1.023692 1.3757745
000200 a9 89 57 c0 77 5b 87 bf 57 6f 8a bf a0 c8 f2 3d
       -3.367777 -1.0574788 -1.0815228 0.118546724
000210 37 7b c8 3f 45 1b 87 40 1e 5b 3f 3d e2 24 81 bf
       1.5662602 4.222079 0.046717755 -1.0089381
000220 c4 be e9 bf e0 df d7 3f 6f 0d eb bd 8d 7f 96 3f
       -1.8261342 1.6865196 -0.11477172 1.1757675
000230 b7 d4 b3 3c 8f 96 f3 3e 4b 23 9b 40 bd 6e 17 bf
       0.021952016 0.47575805 4.848058 -0.5915335
000240 04 9f da bf c2 14 12 c0 1f a2 ce bf 42 26 eb be
       -1.7079778 -2.282517 -1.6143225 -0.45927626
000250 8b a3 a9 bf 10 cb bc 3e 59 7c b1 bf f1 a1 23 40
       -1.3253034 0.36873674 -1.3866073 2.556759
000260 8e 8d bd bf 7e 65 b8 3f ac f3 c6 3e 21 14 bc 3f
       -1.4808824 1.4405973 0.38857782 1.4693643
000270 45 3e 04 c0 37 59 3f c0 e5 71 2a c0 0f 72 0a 40
       -2.0663006 -2.9898202 -2.6632016 2.1632116
000280 ee 61 e0 bf 07 c7 58 3e 39 9b 78 3f f9 1a 6c bf
       -1.7529886 0.21169673 0.9711185 -0.92228657
000290 5c 3c 09 40 0e ee da 3e a5 bf d1 3f 61 95 25 40
       2.144309 0.42759746 1.638661 2.5872424
0002a0 ce 93 86 40 d9 1c 5d 40 aa b5 c9 3f 82 18 64 40
       4.2055426 3.4548857 1.5758564 3.5639958
0002b0 26 f4 10 c0 ba a2 24 bf 56 0d 22 bf b2 ee 80 3f
       -2.2649016 -0.643108 -0.633016 1.0072844
0002c0 25 a5 51 be 36 71 74 3e ad 91 c1 3f 23 cc 4d 3f
       -0.20473154 0.23871312 1.5122582 0.8038961
0002d0 62 8d cf be f9 8c cd 3e ec 63 ed be 9f 8a ae 3f
       -0.40537554 0.40146616 -0.46365297 1.3636054
0002e0 7f b2 a0 40 9f de 0f bf a9 b3 53 bf 1e 84 4e be
       5.021789 -0.5619907 -0.82696015 -0.20167586
0002f0 8b 5b 22 bf 49 f1 83 bf 60 d3 6c bf ae c1 20 be
       -0.63420933 -1.0308009 -0.9251003 -0.15698883
000300 01 65 40 bf 0e 74 ea 3f 2f cf a2 be 31 76 73 c0
       -0.7515412 1.8316667 -0.31798694 -3.8040888
000310 7d 57 ce 3e 00 e2 ba 3f a0 42 be 3f 92 80 8a bf
       0.40301123 1.460022 1.4864082 -1.0820487
000320 de 51 e8 3d df 0d 03 40 12 0c af 3f 96 8c df 3f
       0.1134374 2.0477216 1.3675559 1.7464778
000330 79 65 f3 bd 05 c0 4d bf 63 9f d7 3f 2b a3 86 c0
       -0.11884589 -0.80371124 1.6845516 -4.207418
000340 ef 8f b2 bf fa 1f 21 40 05 75 ca 3d f0 d4 91 bf
       -1.3950175 2.5175767 0.09885601 -1.1393108
000350 30 ee 29 40 a2 eb 1b 40 4a e4 bb 3f 19 2f 95 3e
       2.6551628 2.436257 1.4679043 0.29137495
000360 f1 6b ea 3f 69 45 1c bf ed 1e 4f 3e 23 49 ca bf
       1.8314191 -0.6104341 0.20226641 -1.580357
000370 b2 a0 3e c0 78 c2 bf be 2d bd 7f 40 1b 4c e6 3e
       -2.978558 -0.37453055 3.9959214 0.4497994
000380 fc ab 61 bf 65 7c 53 40 aa e1 c4 bc 3c 03 0f c0
       -0.8815305 3.3044674 -0.024033386 -2.2345724
000390 96 66 2c bf c9 f8 08 40 47 73 ff be b0 71 26 bf
       -0.67344034 2.1401846 -0.49892637 -0.65017223
0003a0 11 aa a3 3f 3f ce 4c c0 6f db c2 be 9b 6f b7 3f
       1.2786275 -3.2000883 -0.3805804 1.4330934
0003b0 84 56 50 bf 72 16 cd bf d6 55 ff bc d4 e3 84 3f
       -0.8138201 -1.6022475 -0.03116886 1.0382028
0003c0 b5 01 b2 bf ba 37 83 c0 51 91 4e 40 d8 bb 1c bf
       -1.3906771 -4.1005526 3.2276194 -0.61224127
0003d0 93 5f 97 3f 18 41 94 3f ac bb d4 3f 89 ed 0a c0
       1.1826042 1.1582365 1.6619773 -2.170748
0003e0 c9 4f f2 be 6a d0 41 bf da b1 98 be 4c 77 c8 be
       -0.47326496 -0.7570864 -0.2982319 -0.39153516
0003f0 f3 71 bf bd ee 0d 9a 3e 2a b3 2b 40 03 90 e8 3f
       -0.09347906 0.30088753 2.6828103 1.8168949

fc1.bias f4 [64]
000000 4a a0 35 3f 20 50 37 c0 4f be f4 bf bb b9 17 40
       0.70947707 -2.8642654 -1.9120578 2.370711
000010 a3 e4 80 bf 9c 38 9f 3f 5b 86 24 c0 66 76 57 c0
       -1.0069774 1.2439151 -2.5707004 -3.3666015
000020 f4 7d 49 40 7e 7c 4d bf e9 3f 22 bf af 97 46 bf
       3.1483126 -0.80268085 -0.6337877 -0.775752
000030 3a 67 f3 3f 5b 06 b0 bf f3 a4 3e 3f a5 bb a4 3f
       1.9015877 -1.375194 0.7447044 1.2869765
000040 c5 0e 38 c0 a4 90 fd bc 7e 04 0f 40 1c ad bf bf
       -2.8759015 -0.03095276 2.2346492 -1.4974704
000050 e7 af 15 3f 1a a0 88 bf 01 55 a3 be 1b a9 09 40
       0.5847153 -1.0673859 -0.3190079 2.1509464
000060 11 12 2d 40 a4 05 36 c0 92 31 8d 3f 9f 68 41 bf
       2.7042277 -2.8440943 1.1030753 -0.75550264
000070 cb 4e f6 bf f9 78 f1 bf dd 3a 27 be e5 d1 fd 3f
       -1.9242796 -1.8865043 -0.16331048 1.982968
000080 a7 06 e4 bf 47 3c 95 bf e1 d6 07 c0 59 ac 2d 40
       -1.781453 -1.165902 -2.1224902 2.7136443
000090 50 36 09 c0 4a cc 58 3f f2 75 25 40 30 e9 84 3e
       -2.14394 0.8468672 2.5853238 0.25959158
0000a0 ca 8c ea bf e9 d9 13 c0 dd 2e 29 bf 08 92 cc 3f
       -1.8324215 -2.3101752 -0.6608713 1.5982065
0000b0 fa d3 82 c0 eb e7 ca bd 79 11 77 bf bc 1e e5 3f
       -4.088376 -0.09907516 -0.96511036 1.7900004
0000c0 5a 4c b4 be a7 86 20 c0 96 03 53 bd 84 51 53 c0
       -0.35214502 -2.5082185 -0.05151709 -3.3018503
0000d0 09 1d a6 c0 ef c0 39 3e 99 80 f9 bf 8f 43 3d 40
       -5.1910443 0.18140005 -1.949237 2.9572484
0000e0 4e 4d 44 40 28 10 3a 3f da dd 4f c0 5f 4d 9a bf
       3.0672183 0.726809 -3.2479157 -1.2054862
0000f0 b0 7f 32 3f 30 c3 6f 40 c5 93 e9 3d 07 e3 5b 40
       0.69726086 3.7462883 0.11405138 3.4357316

fc2.weight f4 [15, 64]
000000 c8 9e 88 3f 3a 06 bb 3f af 08 09 40 57 06 a7 3e
       1.0673456 1.4611275 2.141155 0.32622024
000010 6c a5 51 40 cf a0 af bf 96 10 2d 3f 0f 7b 9b bf
       3.2757215 -1.372095 0.67603433 -1.214693
000020 dd 98 25 3f ae cb 09 40 4c 7a 6a bf 54 dc 30 c0
       0.64686376 2.1530566 -0.9159286 -2.7634478
000030 bc 80 51 c0 bc d2 8d bf b4 14 9b 3f 55 d8 b5 bf
       -3.2734823 -1.1079936 1.2115693 -1.4206644
000040 57 17 24 bf fd 7b 7f c0 63 e0 86 3f 34 84 07 c0
       -0.64098114 -3.9919426 1.0537227 -2.117444
000050 02 e3 51 be 42 67 19 40 83 2b 95 bf 02 fc 95 bf
       -0.20496753 2.3969274 -1.1653904 -1.1717532
000060 63 ac 6f 40 c5 56 67 bf 30 f3 14 c0 de a5 4b 3f
       3.7448967 -0.90366775 -2.327343 0.7954997
000070 d3 98 75 c0 1e 88 0d 40 dd 8f 81 bd 73 a5 e7 3f
       -3.8374527 2.211433 -0.06326268 1.8097366
000080 cd 50 d1 bf f2 58 ca bf dc 93 0e 40 3b b7 91 c0
       -1.6352783 -1.5808394 2.2277746 -4.553617
000090 bd 49 4c bf ba 27 60 c0 25 cb 5f c0 da 27 30 bf
       -0.79800016 -3.5024247 -3.496774 -0.6881081
0000a0 d9 1f 32 c0 78 4d 4d c0 c9 5f 50 40 4b 3a 43 40
       -2.7831938 -3.2078533 3.2558463 3.050433
0000b0 cf b7 7c bf fe 5c 02 c0 63 1c 0b c0 ed db ad 3f
       -0.9871797 -2.0369258 -2.1736076 1.3582741
0000c0 9e c2 4c 40 b1 87 8a bf 38 72 5d 3e a4 4f db be
       3.1993785 -1.082266 0.21625602 -0.42834198
0000d0 2b 1c 8f be 30 78 5b 3f 06 d8 2f 40 fe d2 77 bd
       -0.27951178 0.85730267 2.74756 -0.060503952
0000e0 61 a5 38 c0 60 e9 7e 40 1b bf dd bf 5e 67 5a 3f
       -2.885094 3.982994 -1.7323946 0.85313976
0000f0 79 7d 20 c0 dc d5 74 40 86 6e ad 3e 92 b4 0a bf
       -2.5076582 3.825553 0.33873385 -0.5418178
000100 00 8f d4 3e b0 62 8b 3e 3c 1a fd 3f 91 9a 52 bf
       0.4151535 0.2722373 1.9773631 -0.822671
000110 b2 ae ce bf 24 99 0b c0 d9 08 ba 3f ff b3 55 bf
       -1.6147063 -2.181222 1.453395 -0.8347778
000120 31 60 8e bf 26 a1 d6 bf 15 0c 45 3f 26 cd b8 3f
       -1.1123105 -1.6767929 0.7697156 1.4437606
000130 ac 34 86 bf cd a8 e6 3f d5 a4 bc bf 10 27 3a bf
       -1.0484824 1.8020264 -1.4737803 -0.72715855
000140 07 77 0a bf 0c be 14 c0 d1 ed c7 be 7c 87 26 bf
       -0.5408787 -2.3240995 -0.39048627 -0.6505048
000150 cd 9a 94 bf c7 71 5b c0 73 11 59 be 35 a4 13 40
       -1.1609741 -3.4288194 -0.21198063 2.3068974
000160 4e 9a a4 bf 9b 3c 4b 3f 81 e4 05 40 d4 4a 1e bf
       -1.285959 0.7938935 2.0920718 -0.6183293
000170 0e 10 68 3f 0f aa e5 3d b3 30 2c 3e 64 8e 22 c0
       0.906495 0.11214077 0.16815452 -2.5399408
000180 a4 66 80 c0 0f 31 f4 bf 9c 0f 62 c0 bd d5 04 c0
       -4.0125294 -1.9077471 -3.5322027 -2.0755455
000190 1b 06 9a 40 76 e2 13 40 95 e1 d4 bf 43 a9 ec bf
       4.8132453 2.310697 -1.6631342 -1.8489155
0001a0 ff 23 64 3f 63 62 26 40 5a 76 2b be e6 64 03 bf
       0.89117426 2.599755 -0.16744366 -0.51325834
0001b0 a0 e4 08 40 cd 50 d1 bf 02 cb 76 3f 47 86 1c c0
       2.1389542 -1.6352783 0.96403515 -2.4456956
0001c0 d4 ea 8a c0 ae 5c 80 40 af 24 1c 3e de 01 98 3f
       -4.3411655 4.0113134 0.15248369 1.187557
0001d0 f8 5e 39 c0 7f a3 82 c0 a8 92 ae 3e f7 00 b0 3f
       -2.8964214 -4.082458 0.34096265 1.3750294
0001e0 da 0e 58 c0 1b a9 a6 3f 69 87 25 c0 87 7b 3c 3f
       -3.3759065 1.3020357 -2.5863898 0.7362599
0001f0 00 c3 8f bf 8c 00 04 be 1c c8 82 3f 78 a6 72 3d
       -1.1231384 -0.12890834 1.0217319 0.05924079
000200 c2 36 0e bf 4d 84 53 40 2a cd 18 bf 0b 90 7e 3f
       -0.55552304 3.30495 -0.59688056 0.9943854
000210 45 6b 04 bf 23 4a 38 3f 8e 1e a4 bd b4 48 af 3f
       -0.5172618 0.71988124 -0.0801364 1.3694062
000220 03 60 c6 3f 4e c1 6e bf c3 32 df bf 9a 7c 26 40
       1.549805 -0.9326371 -1.7437366 2.601355
000230 6e 77 a2 40 e9 0d fc 3e b1 d5 b5 bf c0 97 f3 3e
       5.077079 0.49229363 -1.4205838 0.47576714
000240 3b a8 3e c0 7d ca 60 3e 9a f4 2a 40 ab a9 27 40
       -2.979018 0.21952243 2.6711793 2.6197307
000250 9a 10 63 bf ae 27 b7 3e 13 4b 29 c0 5a e9 be bf
       -0.88697207 0.3577246 -2.6452072 -1.4914963
000260 4d a1 51 40 7e 05 71 3f 8a 3c 77 c0 21 62 ce be
       3.27547 0.94149005 -3.86307 -0.4030924
000270 08 ec 8f 40 ff 2a 87 bd 22 5e 72 40 32 29 db bf
       4.4975624 -0.06599998 3.7869954 -1.7121947
000280 bc 47 92 3f e1 a2 08 40 16 b7 c4 3f 73 4d aa 3d
       1.1428142 2.1349413 1.5368373 0.083155535
000290 52 52 30 40 c9 5b 1d c0 de b8 0b c0 ee b2 7b c0
       2.7550244 -2.4587271 -2.1831584 -3.932796
0002a0 2f b4 2b bf 3e fe bb 3f 0e 49 75 3c 49 2c 31 bf
       -0.67071813 1.4686964 0.014971031 -0.692082
0002b0 f5 39 98 3f a8 23 97 40 44 10 8e 3e db ac a5 3f
       1.1892687 4.7231026 0.27746785 1.2943376
0002c0 b9 7c 21 c0 a1 14 04 40 19 9e 3b 3f a3 fd 0f 40
       -2.5232375 2.063759 0.7328811 2.2498558
0002d0 90 44 12 c0 13 11 af be 8b 8d 70 bf c9 f2 a3 3f
       -2.2854347 -0.34192714 -0.9396598 1.2808467
0002e0 ce 0c 62 c0 82 07 1d bf 1c 8a 24 3f ac af 01 bf
       -3.5320315 -0.6133958 0.6427324 -0.5065868
0002f0 8e c1 30 c0 1b 59 24 40 dc b6 0c be 09 a1 21 bf
       -2.7618136 2.5679386 -0.1374163 -0.63136345
000300 97 98 db bf bd 47 48 3f 4b 4b 5f 40 39 a7 9d be
       -1.7155942 0.78234464 3.4889705 -0.30791643
000310 a1 ee d4 3f b7 55 0c 40 37 ce 34 c0 28 97 85 3f
       1.6635324 2.1927316 -2.8250864 1.0436754
000320 84 81 b9 bf 8d 6d 80 3f 3d a1 f1 3f 5c e2 a8 c0
       -1.449265 1.0033432 1.8877331 -5.2776318
000330 28 c5 a5 3f 78 14 92 bf cc b5 06 40 05 f7 18 bf
       1.2950792 -1.1412497 2.104846 -0.5975192
000340 ce 2d 8e 3f 64 a7 15 40 5d 60 67 c0 6f bc 90 bf
       1.1107728 2.3383417 -3.6152565 -1.1307505
000350 8b 1b 97 bf 46 69 e9 3d 57 76 34 bf b2 bf 9b bf
       -1.180528 0.113970324 -0.7049307 -1.2167876
000360 fb 63 76 40 5f 73 23 bf e0 10 dd be 54 cb 2c c0
       3.8498523 -0.6384792 -0.43176937 -2.6999102
000370 8e 09 f7 be 07 f3 7f 3f 7e 3e d4 3f 09 d2 8a 3f
       -0.48249477 0.99980205 1.6581571 1.0845348
000380 9c 90 83 3e 7a dc 31 40 c1 b5 b4 bf d0 f2 a0 bf
       0.25696266 2.7790818 -1.4117967 -1.25741
000390 60 47 c7 3f 32 42 c3 bf 4e 07 37 40 43 70 59 3e
       1.5568657 -1.5254576 2.8598208 0.2123423
0003a0 9c 80 00 40 97 d5 d6 bf 42 f2 20 40 fd 5d 98 c0
       2.0078497 -1.6783932 2.5147862 -4.761473
0003b0 be 8f a5 3f f2 5d 56 bf e7 8c 65 be d2 69 1c 40
       1.2934492 -0.837371 -0.22417031 2.4439588
0003c0 88 f0 08 3d 1b 55 56 3d 7d f7 54 3f 9b 8f a9 3f
       0.033432513 0.052327257 0.8319014 1.324695
0003d0 cd 31 a6 40 75 e9 6f 3f b0 d4 ac 3f df 43 4e c0
       5.193579 0.937156 1.3502407 -3.2228925
0003e0 d4 10 52 bf 7b 09 b7 3f ec bd bb 3e b0 1d 15 3f
       -0.8205693 1.4299768 0.36668336 0.58248425
0003f0 8b 26 3a bf 30 fb 47 40 8f a6 28 40 d8 e0 a6 be
       -0.7271506 3.1247063 2.635166 -0.32593417

fc2.bias f4 [15]
000000 ba 5d 07 40 e4 c5 61 3f bb 08 63 3f 2a 70 13 40
       2.1150956 0.8819258 0.88685197 2.303721
000010 47 2a 89 bf 5b 84 ec 3f 3d 42 b4 bf 58 20 a1 3f
       -1.0716027 1.8477892 -1.4082714 1.2587996
000020 f9 85 87 bf 2b ef 00 c0 9b af 51 c0 44 34 14 3f
       -1.058776 -2.0145977 -3.276343 0.5789225
000030 85 c9 83 3f 68 a5 c8 bf 78 cc 50 bf
       1.0295874 -1.5675478 -0.81561995
