cem_cartpole_ep69.pth (torch_old, 8024 bytes, 4 tensors)

fc1.weight f4 [64, 12]
00000000: 3123 b03f da8f 44bf ccd1 55bf 06c9 b33f
00000010: cd99 c83f db9c 88bf ad0b 9a3f 8785 f5be
00000020: 0f24 793e d3bf 233f 2976 aabe f378 4cbf
00000030: e8e9 e03e 01be 683e 991c d43e a1df 3b3f
00000040: f9cd d7bf 1846 c0bf 6f56 303f fca7 83bf
00000050: 208a 753f 10e4 02bf c0b0 7d3f 5420 273e
00000060: 4efe b23e 27a0 0a40 0422 6fbf 56c5 c93e
00000070: d69a 99bf 2dce c03f b036 a13e 0ebc 8e3f
00000080: 9f36 72bf 403b 05bf a79d acbe a436 b9be
00000090: a09c 083e fa8e d53f f16a ebbd a847 6abf
000000a0: 894d 83bd 70c9 0c40 a8ec 5f3f 22a0 843f
000000b0: c9d4 b0bf 77f3 213f 420b 363e 3628 22bf
000000c0: f635 ab3f a0c0 a03f 372c d9bf 3a6b 273f
000000d0: a801 86bf 74e0 b1be 6265 1bbe 98ef 52bf
000000e0: 01d1 b03f 0d6f 613e 4cba 603d 01d8 9c3e
000000f0: ce19 873c e06e 8d3f 9afc 91be 477d 953f
00000100: f171 a1bf d834 98bf cc89 73bf a486 083e
00000110: aa6d 7d3d 77d8 a33e 8b83 8abf a34b 87bf
00000120: 0b63 2040 941d e23d 04c9 52be d259 0740
00000130: da5d d0bf 9b66 633f caaf 6bbf 7e4d ae3e
00000140: d56c 903e 7a51 db3e 9f76 e63e 5455 db3e
00000150: f7d5 923f f992 c2bf 8995 173f efec 1b3f
00000160: 54cd a73f f7d3 3bbe 0416 6dbf 8ef8 d3bd
00000170: 76aa 3ebf 1f3e b33b 41e2 2bbe 3e0a 523e
00000180: bbe1 9ebe 3281 91bf b7ac 98bf 266a 153e
00000190: 5560 033f caa9 14bf 94e4 303f f4b4 ca3f
000001a0: fc82 eebe 7468 a03e 00b1 b23e dec6 b1bf
000001b0: ccb2 86bf f1c4 363e ec76 b33f ba9b 153f
000001c0: bd8d 65be 7674 eabe 30d5 bc3e 173d 9bbd
000001d0: 1dfb 6e3d 0d1d 15bf fa40 c6bd d087 5dbf
000001e0: 4afb 703e 87a6 77bf 377b a8be e58b 7d3f
000001f0: ae65 093f 220d 033f 6cb4 c73f e3a8 69bd
00000200: 574a e1be 4173 05bf 92e6 733f a268 a1bd
00000210: 9c76 21bf 2d56 7e3f 5a22 753f e8da 1c3e
00000220: 0536 683f 55e1 d5bf 7298 953c 13fd 58be
00000230: 7ed7 a03d 709d 8b3e 3fa2 82bf 32c9 dbbe
00000240: 2777 5d3f 4230 e2be 4707 86be cd5e b43f
00000250: 549d 5e3f a681 2a3e 27e4 4c3d 61f3 123e
00000260: 2040 9fbf 23f5 8dbf 2230 12be 824b b73f
00000270: 98ec ca3f 6d96 0540 4fc3 8cbe 1e63 863d
00000280: 60f3 0e40 38ef 9abd d3c7 3ebf 1904 033e
00000290: 5e78 f03f 3c01 d03f 0a0b d63f e189 66be
000002a0: a460 813e bd1a 283f 2f41 cf3e 8242 a0bf
000002b0: 03e4 fdbe b7f1 343f 05da 6bbf f654 4b3f
000002c0: 518c 553f 3d1a a13f ec4e 94bf 511e 313f
000002d0: 1432 b9bc 8f24 7d3f e15d 0a3f 053a 753f
000002e0: 0bd5 813f 6648 c6bd 67a1 79bf bd45 7b3f
000002f0: da01 4c3f 9b43 64be 171a 383f 40fc 8abf
00000300: 62bf 863f 3303 36be b489 ac3f 7d44 17bf
00000310: 5e33 9abd 6a08 00c0 de6c be3b 1abf 9abe
00000320: 3e50 97bc fed4 ca3f fa30 febe d243 d83f
00000330: 877d acbf 0932 e33e 388d cf3c aea7 84be
00000340: 2bb6 6b3f 6c5f b53e 0c8d 3abe 6b6a 90be
00000350: 6644 003f 4e1d bbbf a197 94be 0e30 553f
00000360: 2ed8 84be d0b3 1bbd 17cb 80bd 7c9a 823e
00000370: db63 de3d e99f 223e e41f 8ebd 09d7 abbf
00000380: fa63 fbbf ad91 4abf 2deb 7b3e 1d12 9ebe
00000390: 8c56 613f 8764 b4bf 514a 69be 1e4d 1f3e
000003a0: 1a3d 0dc0 8519 19bf af56 10bf ea51 af3e
000003b0: 4556 953f 8e26 00bf f784 07bf 171d da3f
000003c0: 4b77 2fbf a514 8abe 0538 093f 8899 e03e
000003d0: bcb0 babe ad6a 86be 4ead 203f 58f7 9ebf
000003e0: 79ad 4bbf 3d0e 973f ad96 ee3f 68dd 7abf
000003f0: 548a 993d bd78 813e 7f6c a5be 98c4 b83f
1.376074 -0.76782 -0.8352325 1.4045722 1.5671936 -1.0672868 1.2034813 -0.47953436
0.24330162 0.63964576 -0.33293274 -0.79872054 0.43928456 0.2272873 0.41428068 0.73388106
-1.6859733 -1.5021391 0.6888189 -1.028564 0.9591389 -0.51129246 0.99097824 0.16320926
0.34959644 2.166025 -0.9341128 0.39408368 -1.2000377 1.506292 0.31487036 1.115114
-0.94614595 -0.52043533 -0.3371403 -0.361745 0.13340998 1.6684258 -0.11495007 -0.9151559
-0.06411273 2.1997948 0.87470484 1.0361369 -1.3814937 0.6326212 0.17777732 -0.6334261
1.3375843 1.2558784 -1.6966618 0.6539799 -1.0469255 -0.34741557 -0.15175393 -0.8239684
1.3813783 0.22015019 0.054865167 0.30633548 0.016491797 1.1049461 -0.28513032 1.1678857
-1.2612897 -1.1891127 -0.95132136 0.13332611 0.061872162 0.32001087 -1.0821394 -1.0569957
2.506045 0.11040798 -0.20584494 2.1148572 -1.6278641 0.8882844 -0.9206511 0.34043497
0.28208032 0.428356 0.45012376 0.42838538 1.1471547 -1.5201102 0.5921255 0.60908407
1.3109536 -0.18342577 -0.9261172 -0.103501424 -0.7447885 0.005470052 -0.16785528 0.2051172
-0.31031594 -1.1367552 -1.1927708 0.14591274 0.51318866 -0.5807158 0.6909878 1.5836473
-0.46584308 0.3132969 0.34900665 -1.3888814 -1.0523314 0.17848565 1.4020667 0.58440745
-0.2241735 -0.45791978 0.368814 -0.07580011 0.05834495 -0.5824745 -0.09680362 -0.8653536
0.23533359 -0.96738476 -0.32906505 0.9904159 0.53670776 0.51191914 1.5601935 -0.05704583
-0.4400203 -0.5212899 0.952737 -0.07881285 -0.6307161 0.99350244 0.9575554 0.15317881
0.9070743 -1.6709391 0.018261168 -0.2119029 0.07853602 0.27268553 -1.0205764 -0.42926937
0.8650994 -0.44177443 -0.26177427 1.4091431 0.86958814 0.1665102 0.05002227 0.14350654
-1.2441444 -1.1090435 -0.14276174 1.4319918 1.5853453 2.0873063 -0.2749276 0.06561874
2.2336044 -0.075651586 -0.7452366 0.12794532 1.8786733 1.6250377 1.6722119 -0.22513534
0.25269043 0.656658 0.4047942 -1.2520297 -0.49588022 0.7068133 -0.92129546 0.79426515
0.8341723 1.2586132 -1.1586585 0.69186884 -0.022606887 0.9888391 0.540495 0.95791656
1.014314 -0.09681778 -0.97511905 0.9815329 0.79690325 -0.22291414 0.7191481 -1.085823
1.0527155 -0.17774658 1.3479524 -0.5908888 -0.07529329 -2.0005136 0.005811318 -0.30223924
-0.01847088 1.584625 -0.4964674 1.6895697 -1.3475808 0.4437411 0.025335893 -0.2590918
0.9207484 0.35424364 -0.18217868 -0.2820619 0.5010437 -1.4618318 -0.29021934 0.8327645
-0.25946182 -0.03801328 -0.06288736 0.25508487 0.1085889 0.15881313 -0.069396764 -1.3424999
-1.9639885 -0.79128534 0.24601431 -0.30873194 0.88022685 -1.4093179 -0.22782256 0.15556762
-2.2068543 -0.59804565 -0.5638227 0.34242183 1.1666952 -0.5005883 -0.52937263 1.7040128
-0.685414 -0.26968876 0.53601104 0.43867135 -0.36462963 -0.26253262 0.6276444 -1.2419233
-0.79561573 1.180122 1.8639733 -0.9799409 0.07497087 0.25287428 -0.32309338 1.4434996

fc1.bias f4 [64]
00000000: af80 4cbe ccd4 c93f 2762 f33e 4c75 b1bf
00000010: dd6b 9a3f 4967 07bf 7713 893e 8e87 963e
00000020: 3f81 42bf 214a a0bf 04b3 943f 3fa4 833f
00000030: ea45 bbbd 8712 4a3e f0d2 293f 23be e23e
00000040: f7ed c53e 3419 b33e 66c9 603d f3ba f63e
00000050: 3fa4 bdbe fd9a 88bf 01d1 70bf 2068 b23e
00000060: 2aec 6ebf 0c78 fcbe 78cd 5a3d 6ebb 05bf
00000070: 3ccc 833e 438c fbbe 0dcd ffbe 2f8d 023f
00000080: 1e2e 383f 553f 9bbe 485d c93f 9963 753e
00000090: 397e 8e3f fab1 963e a02d c7bd 4092 943f
000000a0: eb78 f2bf 101f a4bf 662f 9d3d d476 433f
000000b0: 0435 53bf e666 833c 3054 2abf 0c9b 223f
000000c0: 3a14 7e3f 759d a4bf b357 ac3e 7ce4 5cbf
000000d0: c9a8 2340 523c e03c 2922 45bf 82f2 053f
000000e0: f7ab 3ebf deb0 0e3e 5ada 23bf 642f 1cbf
000000f0: 28f6 e03e 17ad 9abf 189a 4c3f 98f6 61bf
-0.19970964 1.5768065 0.47535822 -1.3863921 1.2064167 -0.52891976 0.26772663 0.29400295
-0.75978464 -1.2522622 1.1617131 1.0284499 -0.091441944 0.1973363 0.6633749 0.44285688
0.38658115 0.34980166 0.05487957 0.48189506 -0.37039372 -1.0672299 -0.94068915 0.34845066
-0.9332911 -0.49310338 0.053418607 -0.5223912 0.25741756 -0.4913045 -0.4996113 0.5099668
0.7194537 -0.30321756 1.5731592 0.23963775 1.113227 0.2943266 -0.09725499 1.1607132
-1.8943151 -1.282198 0.07675056 0.7635319 -0.8250277 0.016040277 -0.6653471 0.6351783
0.99249613 -1.2860552 0.3366066 -0.8628614 2.5571768 0.027372513 -0.7700525 0.5232316
-0.7448115 0.13934657 -0.64005053 -0.6100981 0.43937802 -1.2084073 0.7992263 -0.882669

fc2.weight f4 [15, 64]
00000000: 55b2 9bbf 9ff7 893e 2f49 79bf fc3f be3e
00000010: 9e74 5e3f 9848 dbbd c154 0e3f 6aec 33be
00000020: 6f42 40bf 6f69 ecbf 5426 95bf f78f 5fbe
00000030: daf1 65bf 5188 973f 71d4 8abd e4cc abbe
00000040: 74ab 9d3f 38bc 91bf 9b32 c6bf 72c0 733e
00000050: 303b 50bf 21bf b3be fdb6 c93f 20f1 a3bf
00000060: 3d51 fb3f f0f7 8bbf 3414 e03e c791 1ebf
00000070: 2c41 23bf 4d71 28c0 0171 973f 608c c23c
00000080: 5a54 013f e189 a6bf 9224 8f3f f0a0 e73e
00000090: c0a8 2c3e e72a 033e 1bd5 863d 26af d1be
000000a0: 4890 c7be 3bf2 92bd b3a2 b13e 2c68 5b3e
000000b0: f964 86bd b8b1 443f 87f0 fcbe 3f76 62bf
000000c0: 18f4 c3bd a0ff a13e bc38 07c0 0a38 1e3f
000000d0: 4aa5 ac3f 73ce bb3d 9028 783f e309 5c3e
000000e0: e654 ca3f f53c 0bbf cd21 df3f 1073 a43f
000000f0: f620 193f 1f42 b13f 5384 1c3f 7928 d93e
00000100: 7d0f 49bf 42e8 91be 3b2a 233e 78e0 3a3e
00000110: 241d da3e 9807 82bf f5c8 f1be 2a02 2b3f
00000120: d0e8 4dbe 7f99 873f 7e23 a9bf f57c 13c0
00000130: 1f46 a53f 16f3 22bf d421 c83f a7ff 29bf
00000140: a30d 893f 7104 d63f bf04 96bf 3905 593f
00000150: c1ad 543f d9d2 cd3e b916 9a3f 513b 26bf
00000160: 0a2d 1f3f 91d4 4e3f 5521 1cc0 7ec1 44be
00000170: 04aa e53c e58d 433f 78d2 01bf ade0 f9be
00000180: a508 bbbf daf1 33be bdb0 d43e 2f6a 05c0
00000190: eb47 b23e 6576 9bbe 2eb1 8cbf f5fc 67bd
000001a0: a087 733f d21b 763e a773 223e 7b68 b1be
000001b0: 3b39 31bf 3d96 32bf 2fc2 963e e3cb 41bf
000001c0: e78f 2c3e 5d7d 933f 685d 973f 14d2 10bf
000001d0: 3f94 88bf 84ea 303e abe8 823f 784d 9c3f
000001e0: fd6d 223f 0e83 c4bf eed3 243f 1fb4 f93e
000001f0: f68c 17bf 1e0c 8bbe 8a43 bd3e 7e9e dbbe
00000200: 41de 84be 019b 4b3f 2a95 d63d 3b7b b2bf
00000210: be76 b03e 786f 4c3e 09fa c5be 68c0 463f
00000220: 7fe8 1dbe 35fd 523f 00f8 97be 5e13 83bd
00000230: b2d7 1b3e 2e7e d8bf e625 033f eef7 4abc
00000240: ddcc 8abc b35e 8bbe 9a82 d3bf 0a1d 2c3f
00000250: 5b91 773f 1230 a3bf b531 773f 84a7 eebf
00000260: c241 e2be 4644 383f 4cb3 d0bf b283 883f
00000270: b48c 1cbf 32a2 a03d 36d9 d93e 2adb 653e
00000280: d5a8 133f 7985 0d3d 8f9a 8c3e b007 d8be
00000290: 2bee 32bf 006d 683f a8cc 6c3f f0f0 2d3f
000002a0: 18dd 40be 98c4 2ebf 5258 a63f 9f16 2b3e
000002b0: c89c 1dbf fbcf 113e d1fa 373f 89a7 70bf
000002c0: b7d7 ed3f 7101 513e 7802 03bc cb5f 493f
000002d0: 54e0 13c0 71e3 e3bf 8293 3ebf 5e81 f4be
000002e0: 07e4 e43e 7aec 9d3f 589f ecbf 97a9 a13f
000002f0: 2ba2 39bf 9e21 1340 c0c4 03bf c70d 40be
00000300: 7d0e ffbd 6ae0 7d3e f0d1 25bf e246 ccbf
00000310: 2563 943f edc4 0e3f 13c6 6abe 8887 d03e
00000320: f84a aabf f660 e3be 21b4 0ebf 0ced 9d3e
00000330: ee03 01be 1449 a3bf 37b9 103e 7a70 1cbe
00000340: 4655 dfbe 7615 90be e3aa cdbf 5272 863d
00000350: 3209 343f 2e0e 2a3f cab0 263e cf8d a13f
00000360: c02d 5ebe 4ce1 8e3f 6db7 a53c de20 0dbf
00000370: 2c0c 06bf 14ea 0d3f bca7 813f 6faf 3e3f
00000380: 1a89 cdbe 690e c73d 2554 743f 9d3f 0d3f
00000390: 34eb c4bf dc31 753f 857d 9bbf 0039 06bf
000003a0: e4bd 263f a64a 61bf 1170 96be b933 b93d
000003b0: 4dc8 b13e fdcf 503f 684f 6a3f a5b6 9fbf
000003c0: 7b17 993f 30b2 8f3f 9431 663e 36ef c43f
000003d0: 4def 75bf efe2 0abf 247c 8d3e d620 3abf
000003e0: afc8 bcbf 3ce0 0b3f ef17 6a3f 0de5 53bf
000003f0: 9114 a7be 9c57 30bf 05f4 c23e 2391 70bf
-1.2163798 0.26946732 -0.97377294 0.3715819 0.86896694 -0.107072055 0.55598074 -0.17570654
-0.7510137 -1.8469676 -1.1652322 -0.21832262 -0.8982216 1.1838475 -0.06778801 -0.33554757
1.2317948 -1.1385565 -1.5484194 0.23803881 -0.8134031 -0.35106757 1.5758969 -1.280796
1.9634167 -1.093504 0.43765414 -0.6194119 -0.6377132 -2.6319153 1.1831361 0.023748577
0.50519335 -1.3010827 1.1183035 0.45239973 0.16861248 0.12809335 0.065836154 -0.4095394
-0.38977265 -0.07175108 0.34694442 0.21426457 -0.06562228 0.7683368 -0.49402258 -0.8846168
-0.095680416 0.3164034 -2.1128378 0.6180426 1.3487942 0.091702364 0.96936893 0.21488146
1.5807159 -0.5438989 1.743219 1.2847614 0.5981592 1.3848304 0.6113941 0.4241369
-0.7853926 -0.2849751 0.15934078 0.1824969 0.42600358 -1.0158567 -0.4722363 0.6680018
-0.20108342 1.0593718 -1.3213956 -2.3045018 1.2912024 -0.6365217 1.5635324 -0.6640572
1.0707287 1.6720105 -1.1720198 0.84773594 0.8307763 0.40199926 1.2038184 -0.6493426
0.621781 0.807931 -2.4395344 -0.19214436 0.028035171 0.7638839 -0.50711775 -0.48804227
-1.4612013 -0.17572728 0.4154109 -2.084606 0.34820494 -0.30363765 -1.0991571 -0.056637723
0.9512882 0.2403405 0.1586443 -0.34650025 -0.6922795 -0.69760495 0.29445025 -0.7570173
0.1685177 1.1522633 1.182538 -0.56570554 -1.0670241 0.1727696 1.0227255 1.2211142
0.6344908 -1.5352495 0.6438588 0.48770234 -0.59199464 -0.27157682 0.3696559 -0.42894357
-0.25950816 0.7953339 0.104776695 -1.3943857 0.34465593 0.19964397 -0.38667324 0.7763734
-0.15420721 0.82417613 -0.29681396 -0.064001784 0.15219 -1.6913507 0.51229703 -0.012388213
-0.01694339 -0.27220687 -1.6524231 0.6723181 0.9670617 -1.2749045 0.9656022 -1.8644872
-0.44190794 0.71979177 -1.6304717 1.066519 -0.61152196 0.07843436 0.4254853 0.22446886
0.5767949 0.034551118 0.2746167 -0.42193365 -0.69894665 0.9079132 0.9249978 0.67945766
-0.1883434 -0.6826873 1.2995703 0.16707848 -0.61567354 0.14239495 0.7186709 -0.9400564
1.8581456 0.20410706 -0.007996194 0.78661793 -2.310567 -1.7803785 -0.7444383 -0.4775495
0.4470522 1.2337792 -1.8486128 1.262988 -0.72513074 2.2989268 -0.5147209 -0.18755256
-0.12453935 0.24792638 -0.64773464 -1.5959132 1.1592757 0.55769235 -0.22927122 0.40728402
-1.3304129 -0.44409913 -0.55743605 0.30844915 -0.12599155 -1.2756677 0.14133154 -0.15277281
-0.43619746 -0.28141373 -1.6067775 0.065647736 0.7032653 0.66427886 0.16278377 1.2621402
-0.2169714 1.1162505 0.020229066 -0.55128276 -0.5236232 0.554353 1.0129313 0.7448644
-0.40143663 0.097195454 0.95440894 0.5517519 -1.5384278 0.95779204 -1.214768 -0.52430725
0.651335 -0.8800453 -0.29382375 0.090430684 0.3472313 0.81567365 0.91527414 -1.2477614
1.1960291 1.1226254 0.2247985 1.5385501 -0.9606827 -0.54252523 0.27633774 -0.72706354
-1.4748744 0.5463903 0.9144277 -0.8277138 -0.32632878 -0.6888368 0.38076797 -0.9397146

fc2.bias f4 [15]
00000000: 31b2 13bf 88ce 853f 1e25 523e 162a 14bf
00000010: aaa0 043d 9d16 cdbf 9fde fd3c 5564 18bf
00000020: 2d6e b03f dd40 3a3e 5bc7 3b3f 3a48 033f
00000030: f184 d13e a611 433f bb18 363f
-0.57693774 1.0453653 0.20521972 -0.5787672 0.032379784 -1.6022526 0.030989943 -0.59528095
1.3783623 0.18188806 0.7335107 0.51282084 0.4092174 0.76198804 0.71131486
