cem_cartpole_ep86.pth (torch_old, 8024 bytes, 4 tensors)

fc1.weight f4 [64, 12]
000000 cf 57 08 3f 81 45 ae bf 77 09 b9 be a2 a2 50 3f
       0.53258985 -1.3614961 -0.36140034 0.8149816
000010 95 d2 d7 3f 29 81 bf bf d6 45 1e 3f 00 ac 37 bf
       1.686114 -1.4961292 0.6182531 -0.71746826
000020 2e 90 b8 3e 0c 64 91 3e 61 b1 68 bf 49 f3 8d bf
       0.360475 0.28396642 -0.9089566 -1.108987
000030 45 95 37 3f b8 9f 88 3d a8 40 ba bd 50 38 f9 3e
       0.7171214 0.06671089 -0.090943635 0.48675776
000040 f1 d9 d0 bf 34 be b4 bf e7 85 16 3f 5e 96 8a bf
       -1.631651 -1.4120545 0.5879807 -1.0827138
000050 82 8c 36 3f f0 73 04 bf 98 ef aa 3f 97 47 4e be
       0.7130815 -0.51739407 1.3354368 -0.20144497
000060 c4 a1 35 3f 0a 17 0b 40 d9 70 60 bf 4f a8 47 3e
       0.7094996 2.1732812 -0.8767219 0.19497798
000070 db 43 97 bf 9b d9 9b 3f d8 5a 57 3f 75 d6 a7 3f
       -1.1817583 1.2175783 0.8412299 1.3112322
000080 6a 21 5f bf 3e 47 75 bf 6b 03 31 bf 32 30 7b bf
       -0.8716036 -0.9581183 -0.6914584 -0.98120415
000090 d6 0b d1 bc 6e fd aa 3f fd 3c 2f 3e 69 9d 77 bf
       -0.02551834 1.3358591 0.17113109 -0.96724564
0000a0 c0 6a 98 3c c7 8c d7 3f 60 c4 62 3f b4 b5 df 3f
       0.01860559 1.6839837 0.88580894 1.7477326
0000b0 83 41 9f bf 97 ab 14 3f c3 13 7e be b0 16 83 bf
       -1.2441868 0.58074325 -0.24812226 -1.0241299
0000c0 39 6b 04 40 b9 bc 2f 3f 22 d7 e3 bf 6b b1 40 3f
       2.0690444 0.6864734 -1.7800028 0.7527072
0000d0 37 80 4c bf 0e 0c d7 3d c2 49 89 be 93 a7 b4 be
       -0.7988314 0.10500346 -0.26814085 -0.352841
0000e0 7b c7 c8 3f 35 5f 73 3e 0d b1 0a 3d 74 e6 bc 3e
       1.5685877 0.23766787 0.033860255 0.36894572
0000f0 f1 54 8b 3d dc 46 e9 3f a8 ba 6e be ba 3c d6 3f
       0.06803311 1.822475 -0.23313391 1.6737282
000100 dc e5 c0 be 42 1d 8d bf cb 1d 91 bf 3e 55 3a 3e
       -0.3767537 -1.1024554 -1.1337217 0.1819658
000110 1b ed 57 3f 5b 79 19 3f 47 9d 75 bf 7f 06 c1 bf
       0.8434617 0.599508 -0.9594311 -1.5080107
000120 bc f7 0a 40 e8 8b d6 3d 07 3b ca be d7 3f 04 40
       2.1713705 0.10475904 -0.3949816 2.0663965
000130 d1 3d 02 c0 79 0e 9d 3f d3 a7 55 bf 7e 51 08 3e
       -2.035023 1.2270042 -0.83459204 0.13312337
000140 a8 0d 30 3e 30 1b 65 3f 63 d8 3e 3f 7c 20 94 3d
       0.1719271 0.8949461 0.7454893 0.072327584
000150 f8 34 51 3f cd 2b f4 bf 89 c5 2c 3f 2f c8 f3 3e
       0.8172145 -1.9075867 0.67488915 0.47613665
000160 81 5f a5 3f 14 8e b5 3e f8 09 19 bf 30 90 b1 3e
       1.291977 0.3545996 -0.59780836 0.3468032
000170 ca 66 10 bf 70 5e 04 3f 25 f3 7e be 92 48 13 3f
       -0.56406844 0.517066 -0.2489744 0.5753261
000180 39 af 34 bf 89 e0 be bf 97 76 f2 bf e0 1e 3f 3e
       -0.7057987 -1.4912273 -1.8942441 0.18664122
000190 68 08 68 3d e5 df 3d be a8 0b 35 3f ab f9 04 40
       0.05664864 -0.1854244 0.7072091 2.0777385
0001a0 41 f2 64 be 2b ce 32 3f be e1 ac bd 98 9a c1 bf
       -0.22358038 0.6984584 -0.084414944 -1.5125303
0001b0 a3 f8 3e bf f8 f5 62 be 3d af c9 3f a3 41 5e 3f
       -0.7459814 -0.22164142 1.5756603 0.86818904
0001c0 b9 8c bc be 1a d1 b3 bf 8e ec f5 3e 41 8b d3 3d
       -0.36826113 -1.4048188 0.4803204 0.10329295
0001d0 99 1e 14 3f da 26 4a bf 5d 28 7f 3d d1 38 33 bf
       0.5785919 -0.7896553 0.062294353 -0.7000857
0001e0 23 da 89 3f 40 ad 48 bf 94 9c 0c bf e1 08 ba 3f
       1.0769695 -0.7838936 -0.5492642 1.453396
0001f0 c2 25 2f 3f a6 7d 32 3f c6 4f eb 3f 69 c6 67 3e
       0.6841699 0.69722974 1.838372 0.22634281
000200 e2 ad 67 bf 78 40 12 bf 12 3c 42 3f 90 66 8b bd
       -0.904997 -0.5712962 0.7587291 -0.068066716
000210 d1 90 79 be c0 97 3e 3f 1a 48 ed 3e de ee f8 3b
       -0.2437165 0.744503 0.46344072 0.0075968346
000220 d1 bf 9e 3f 35 30 c6 bf c2 8c 11 3e cf 88 7f bf
       1.2402288 -1.5483462 0.14213851 -0.9981813
000230 35 53 a1 be dc 3f 1d bf f8 0e 9d bf 41 1b 34 3e
       -0.31508794 -0.61425567 -1.2270193 0.17588522
000240 1d f4 95 3f c4 c9 23 bf 08 e3 2e be a8 b1 c8 3f
       1.1715122 -0.63979745 -0.17078793 1.5679216
000250 73 6d 41 3f e5 26 d8 3e 35 bf 23 3e 4f 71 14 3f
       0.7555763 0.42217174 0.15990908 0.57985395
000260 28 54 bb bf e6 a6 62 bf ca e8 13 3e eb 86 e6 3f
       -1.4635057 -0.88535917 0.1444427 1.8009924
000270 75 af dd 3f bc 59 0f 40 88 0d f7 be 45 23 ac 3d
       1.731917 2.239852 -0.4825251 0.08405165
000280 e4 b6 1a 40 e7 aa 5c be 12 14 1e bf 33 7c 3d bf
       2.4174128 -0.21549569 -0.61749375 -0.7401764
000290 35 e8 d2 3f 69 c4 01 40 bf 45 c5 3f f5 60 02 bf
       1.6477114 2.027613 1.541191 -0.50929195
0002a0 39 ba 02 3f 14 ad a3 3e 9d b8 28 3e 08 ed a5 bf
       0.51065403 0.31967986 0.16476674 -1.2962961
0002b0 8f b6 f5 be b7 4d f2 3e b9 45 97 bf 33 21 2b 3f
       -0.47990844 0.47324917 -1.1818153 0.66847533
0002c0 31 06 88 3f 8c 19 f6 3f 84 46 3a bf 3c ad 58 3f
       1.062689 1.9226546 -0.7276385 0.84639335
0002d0 07 85 2c bf 80 32 83 3f ca 3e 20 3f f4 9f 22 3f
       -0.67390484 1.0249786 0.6259581 0.6352532
0002e0 d9 72 3f 3f ed ed 8b 3e bd ca 29 bf f4 87 32 3f
       0.7478462 0.2732996 -0.6632498 0.697387
0002f0 c5 ac 77 3f 5b ea 79 bf ae 77 87 3f 5d e9 07 bf
       0.96748 -0.97623223 1.0583398 -0.5309046
000300 9f 36 9e 3f 0a d9 b4 be bd 04 a5 3f a6 1c 7d bf
       1.2360419 -0.35321838 1.2892071 -0.9887184
000310 8e 73 d1 be af 64 f8 bf 96 23 ca 3e e3 70 2c bf
       -0.40908474 -1.9405726 0.39480275 -0.6735975
000320 34 c0 9d 3e 5c 3a b0 3f 82 bf 81 be 21 98 a5 3f
       0.30810702 1.376781 -0.2534142 1.2937051
000330 6b 7c 0a c0 a8 c2 49 3e c3 02 17 be 37 c6 86 3e
       -2.1638439 0.19703162 -0.14747147 0.263231
000340 2f b8 ad 3f 77 99 4d 3f 13 bf bd be ce 16 ae 3e
       1.3571833 0.80312294 -0.3705984 0.34001774
000350 bd 53 b1 3d f1 31 dc bf 39 28 48 3c e6 45 02 3f
       0.0865855 -1.7202741 0.012216621 0.50887907
000360 d9 b7 34 be 99 ac 41 3e 74 7f 86 bd bc 03 62 bd
       -0.17648257 0.18913497 -0.065672785 -0.055179343
000370 b6 90 0c 3e 4c 17 1b 3f ee 9b f1 3e 68 a3 b1 bf
       0.13727078 0.60582423 0.47189277 -1.3877993
000380 1b 5d c9 bf 8f a2 62 bf 5d 16 38 3f 8d 83 39 be
       -1.5731539 -0.88529295 0.71909124 -0.18116589
000390 ef ad 89 3f 00 ab a3 bf b6 ac 82 be 09 f9 d9 3d
       1.0756205 -1.278656 -0.25522393 0.10643203
0003a0 a8 28 fd bf 23 d2 67 bf b2 03 c7 be 5b fe 0e 3f
       -1.9778032 -0.9055502 -0.38870007 0.55856866
0003b0 6a d3 50 3f 7c ba ac be a7 e8 ca be 47 93 21 40
       0.8157259 -0.33736026 -0.39630625 2.524614
0003c0 a8 50 85 bf 89 1d 00 bf 23 42 84 3f eb 20 82 3e
       -1.0415239 -0.5004507 1.0332683 0.2541574
0003d0 ad 9e 84 be 5c 1f b2 be 72 36 f3 3e 11 0f 56 bf
       -0.2590231 -0.3478955 0.47502476 -0.8361674
0003e0 8d 91 93 bf 13 bd b2 3f 32 32 f0 3f 22 e6 a8 bf
       -1.1528794 1.3963951 1.8765318 -1.3195231
0003f0 96 fd 5b be 9a 3d 75 be eb 37 64 3e 94 4f 8c 3f
       -0.21483454 -0.2394928 0.22286956 1.0961785

fc1.bias f4 [64]
000000 d9 66 53 be 87 2b b5 3f 37 3b ca bd 44 dc 8e bf
       -0.20644702 1.4153908 -0.098745756 -1.116097
000010 2d 6f 86 3f 01 46 95 bf 89 36 57 3f 27 9c 29 3e
       1.0502678 -1.1661988 0.8406759 0.16563474
000020 71 4e 85 bf 2c 80 8b bf 43 fd d7 3f 60 ae 90 3e
       -1.0414563 -1.089849 1.6874164 0.28258038
000030 02 5b f2 3d 90 0b b6 3d f9 df ec 3e fa e5 3e 3e
       0.118337646 0.08888924 0.46264628 0.18642417
000040 92 ff 8b be 97 3c b7 3e 1d 9c 1f bf 98 34 5f 3f
       -0.27343422 0.35788414 -0.62347585 0.87189627
000050 c1 75 2c be 4e 31 0a bf c9 45 6b bf 0d 43 bf 3e
       -0.16841795 -0.53981483 -0.9190336 0.37355843
000060 f3 cf 08 bf 6e e8 a7 be db e6 98 3e b9 4c 07 be
       -0.53442305 -0.32794517 0.2986363 -0.13212861
000070 f8 eb 03 3f f4 44 47 be 0f 9e 00 bf b2 68 1e 3f
       0.51531935 -0.19459897 -0.5024118 0.618785
000080 fe a3 aa 3f 2c 1a b5 be bb 6b f0 3f 37 15 a8 3d
       1.3331296 -0.3537153 1.8782877 0.082071714
000090 02 1c ef 3f 74 bf c2 3e 2c 83 d6 be 95 d0 83 3f
       1.8680422 0.38036692 -0.4189695 1.0298029
0000a0 f3 dc f4 bf f8 3e 94 bf 53 21 b4 be 7d 94 61 3f
       -1.9129928 -1.1581717 -0.35181674 0.881172
0000b0 89 bb a2 bf 3e 75 1c bf e0 cc 62 bf 53 c3 0c 3f
       -1.2713481 -0.611164 -0.88593864 0.5498554
0000c0 c7 a5 52 3f 9a 2f 88 bf bc 02 94 3e 39 dc 60 bf
       0.82284206 -1.0639527 0.28908336 -0.87836033
0000d0 d0 45 bd 3f 75 c7 0c 3d ae 41 85 be 93 05 14 3f
       1.478693 0.034369905 -0.26026672 0.57821006
0000e0 a7 e6 88 be 8b 4c ea bd 2d c9 5d bf ee e5 a6 bf
       -0.26738474 -0.11440381 -0.86635095 -1.3038919
0000f0 7a 4b e3 3e 34 78 8f bf 65 a7 0d 3f 08 71 21 bf
       0.44393522 -1.1208558 0.5533355 -0.63063097

fc2.weight f4 [15, 64]
000000 2a 23 5a bf d4 35 39 3f fe 7a 20 bf fd eb aa 3e
       -0.85209906 0.7234776 -0.6268767 0.3338317
000010 f0 6d 46 3f 84 a8 b9 3e b4 64 16 3e c7 21 c1 be
       0.775115 0.3626138 0.14686853 -0.37721083
000020 40 23 67 3e cb ca b0 bf d4 c6 41 bf e9 b9 41 be
       0.2257204 -1.3811888 -0.7569401 -0.18918575
000030 89 42 4c bf 4c 6a b2 3f 5a 2c dd 3e 75 7e 71 bf
       -0.79789025 1.3938689 0.431979 -0.94333583
000040 b8 29 a6 3f 66 ff 71 bf 80 0f 0a c0 f8 9d 1f 3f
       1.2981482 -0.9453033 -2.157196 0.62350416
000050 b2 10 56 bf 9a 3f 31 be d4 55 02 40 38 4e c7 bf
       -0.83619225 -0.17309418 2.0364885 -1.5570745
000060 44 fb 1c 40 3e bd af bf ca 34 37 3f f3 38 59 bf
       2.452836 -1.3729627 0.71564925 -0.8485252
000070 89 b3 82 be 3b f1 4c c0 7b 5c d2 3f b2 10 44 3e
       -0.255276 -3.2022235 1.6434473 0.19146994
000080 9a 3e 3f bd 80 d8 21 bf 94 ac 8d 3f 17 2a 81 3d
       -0.04669056 -0.6322098 1.1068292 0.06306856
000090 e8 a5 dd 3e 95 69 8e 3e ee 87 28 bf ba b1 04 bf
       0.4329064 0.27814928 -0.6583241 -0.5183369
0000a0 45 a2 fb 3d c2 14 c5 3e a6 6b 8a 3e ac a5 32 3e
       0.1228681 0.384924 0.27035254 0.17446011
0000b0 e7 c9 0b be 53 98 4d 3f 1f fe 34 bf 51 bc e3 be
       -0.13651238 0.80310553 -0.7070026 -0.44479612
0000c0 0a 0c 5c be 90 c5 b0 3e e0 ef 19 c0 0f 86 4b 3f
       -0.21488968 0.34525728 -2.4052658 0.7950143
0000d0 23 8c e1 3f 3f 75 46 3e c8 17 9b 3f 73 51 70 3f
       1.7620891 0.19380663 1.2116632 0.9387428
0000e0 48 9e 9c 3f 25 1d 84 bf c2 39 d3 3f a1 9b d2 3f
       1.2235804 -1.0321394 1.6502001 1.6453744
0000f0 6a 76 91 3f c8 27 9f 3f c1 e4 52 3f 5f 1d 9d 3d
       1.1364262 1.2434015 0.823803 0.07671618
000100 0a ba a6 bf 01 15 ba 3e ee f3 85 3e 71 4b 2f 3f
       -1.3025525 0.3634415 0.26162666 0.6847449
000110 0e 23 8f bc c2 0e 7c bf 09 94 08 bf 65 ed 2c 3f
       -0.01747277 -0.9846002 -0.53350884 0.67549735
000120 39 5e be 3d 50 8d a8 3f d7 78 aa bf 42 37 e7 bf
       0.09295315 1.3168125 -1.3318127 -1.8063738
000130 e7 e3 ae 3f bd 0e 2e bf b3 9a 10 40 06 74 c1 be
       1.36633 -0.6799124 2.259442 -0.3778383
000140 21 a1 c8 3f 30 34 e7 3f 27 6e cf bf 94 99 ce 3f
       1.5674173 1.8062801 -1.6205491 1.6140618
000150 e3 bc 27 3f e1 e2 c9 3e 02 16 b0 3f 0b ad 47 be
       0.65522593 0.39430907 1.3756716 -0.19499604
000160 e9 9a 57 3f 96 d6 b3 3e 19 fd 1f c0 b9 8b 32 3f
       0.8422075 0.35124654 -2.4998229 0.6974445
000170 e2 50 b0 3e cd 9a 93 3f df a8 0c bf 59 d2 44 bf
       0.3443671 1.1531616 -0.54945177 -0.76883465
000180 90 96 ac bf b3 f0 b2 bb fc 27 52 3e 88 d6 b4 bf
       -1.3483448 -0.0054608225 0.20523065 -1.412797
000190 a9 41 1c bf d9 c4 ed be ac f3 44 bf 03 2d a6 3d
       -0.6103769 -0.46439245 -0.76934314 0.08114054
0001a0 d3 fd 21 3f f8 3e d1 3e a8 ac 18 be 5c 7c 6b bf
       0.6327793 0.40868354 -0.14909613 -0.9198663
0001b0 20 77 1d bf 3e d4 95 bf 51 e3 4c 3e 39 71 89 bf
       -0.61509895 -1.1705396 0.2000859 -1.0737678
0001c0 ef f2 d6 3c df 76 52 3f 48 15 92 3f 41 a8 54 bf
       0.026238887 0.8221263 1.1412745 -0.83069235
0001d0 89 fe a2 bf 52 4e ab be 7a d4 b3 3f 37 24 b0 3f
       -1.2733928 -0.3345819 1.4049218 1.3761052
0001e0 98 82 8a 3f a7 3f c3 bf 44 35 60 3f 9e 69 4d 3e
       1.0821104 -1.52538 0.87581277 0.20059821
0001f0 89 53 a0 be 4e 17 85 be 64 90 b0 3e 4e e1 ef 3e
       -0.31313732 -0.25994343 0.3448516 0.4685158
000200 f4 d6 2d 3e 9d e2 5c 3f af 89 54 3e 84 da d6 bf
       0.1697653 0.86283284 0.20755647 -1.6785436
000210 d0 5e 91 3e 5a 9f 78 3d 53 66 1a bf 6f ff 3b bf
       0.2839265 0.060698844 -0.60312384 -0.73436636
000220 0a 8f 02 bf fc f1 26 bc 68 bd 32 bf 00 d9 82 be
       -0.5099951 -0.0101895295 -0.6982026 -0.25556183
000230 6e 28 19 3e 4c 4e ee bf bb 73 08 3f 9f f5 22 3f
       0.14956829 -1.8617644 0.5330159 0.6365604
000240 43 d5 d0 3d b1 a8 06 bf dc 10 f7 bf a4 ad 8b 3f
       0.101969264 -0.5260115 -1.930202 1.0912366
000250 88 62 99 3f ee 21 70 bf 07 d2 17 3f 08 34 0b c0
       1.1983194 -0.9380177 0.5930485 -2.1750507
000260 4b 74 2f 3c 3b dd ad 3f b8 db 8d bf 5a 6c a4 3f
       0.010708879 1.3583139 -1.1082678 1.2845566
000270 b9 5c 10 bf ee e9 e4 3e 99 78 10 3f 17 b8 a8 3e
       -0.56391484 0.44709724 0.5643402 0.3295295
000280 41 af bd 3d 43 8e 50 3e 26 62 ff bc a0 9a ac bf
       0.09261943 0.20366769 -0.03117473 -1.3484688
000290 72 43 de be a1 2b 85 3f ee d3 05 3f 1c 99 28 3f
       -0.43410832 1.040394 0.52276504 0.65858626
0002a0 d3 d2 7f be 9d 5d ce bf ad d1 8e 3f 53 0b 87 3e
       -0.24982767 -1.6122319 1.1157738 0.26375827
0002b0 71 ce 29 bf 44 12 0c 3f 04 07 3e 3f 4a 5a 00 bf
       -0.6633063 0.5471537 0.74229455 -0.5013777
0002c0 69 06 d1 3f 02 4b 34 3f e6 75 6e bf ef 32 91 3f
       1.6330081 0.7042695 -0.9314865 1.1343669
0002d0 4b b8 0c c0 b4 49 ef bf 2c 53 58 bf 76 1a 15 bc
       -2.1987484 -1.8694367 -0.8450191 -0.009100547
0002e0 57 8b be 3d 3e 15 03 3f 8b 5f ae bf f9 2c 9e 3f
       0.09303921 0.5120429 -1.3622907 1.2357475
0002f0 3d f0 98 bf a4 34 1e 40 f5 9d 2c bf d5 2e ec 3e
       -1.1948315 2.471963 -0.67428523 0.4612948
000300 d6 19 03 be 45 12 01 3f b7 cc e1 bd 78 b7 96 bf
       -0.12802824 0.504185 -0.110253744 -1.177474
000310 06 39 57 3f 92 75 3f 3e 3b 4c 01 be 60 c8 39 be
       0.84071386 0.18697193 -0.12626736 -0.18142843
000320 e7 0d 80 bf ca dd 07 3e 26 67 3e bf 5b ca 08 be
       -1.0004243 0.132682 -0.7437614 -0.13358442
000330 42 3d 5a bf ec 1f 60 bf fc c4 cd be fc 87 6d be
       -0.8524972 -0.8754871 -0.4018935 -0.23196405
000340 c9 cf 2e bf a8 37 b7 be e8 cf ec bf 31 3b 1b 3f
       -0.68285805 -0.3578465 -1.8500948 0.60637194
000350 ce d8 48 3f ff ba 06 3e 0b 4c 23 be 4d 33 b2 3f
       0.7845582 0.13157271 -0.15946977 1.3921906
000360 17 25 9a 3e 73 f1 02 40 52 30 9e be 8d 9b 65 bf
       0.30106422 2.045987 -0.3089624 -0.89690477
000370 f0 83 98 bf c4 23 92 3e bf 78 9b 3f a6 e2 07 3e
       -1.1915264 0.28542912 1.2146224 0.13270053
000380 b1 fc 1a bf c3 19 ab be 34 e5 b0 3f 90 9a 02 be
       -0.60541826 -0.33418092 1.3819947 -0.12754273
000390 3d a7 f6 bf ae b5 d8 3f 16 ba 01 c0 e6 cd 8e bf
       -1.9269787 1.6930444 -2.0269828 -1.1156585
0003a0 3e ec c2 3e e1 9f 85 bf 30 f1 45 be 06 2e ca 3e
       0.38070863 -1.0439416 -0.19330287 0.39488238
0003b0 3b a3 bf 3e 69 aa cd 3f 5c 2d 97 3f 19 c2 49 bf
       0.37429222 1.606763 1.1810718 -0.78811795
0003c0 39 fe ac 3f 2a 88 bb 3f 38 ea be 3e ba aa c0 3f
       1.3515083 1.4650929 0.3728807 1.5052102
0003d0 65 55 6c bf 47 12 74 bf 4e e4 c8 3d 75 40 71 bf
       -0.923178 -0.9534039 0.09809171 -0.9423898
0003e0 94 9a 01 c0 49 e8 d4 3e cb fb 40 3f b8 8e 21 bf
       -2.0250597 0.4158347 0.75384206 -0.63108397
0003f0 60 f8 a3 3d 56 4c 06 bf 0b e4 68 3f d1 fe 95 bf
       0.08006358 -0.5246023 0.90972966 -1.1718389

fc2.bias f4 [15]
000000 a1 53 20 bf 3f 70 30 3f ee b2 f3 3e 6f 12 4c be
       -0.6262761 0.68921274 0.4759745 -0.19928907
000010 70 d1 96 3e 78 53 c1 bf 86 8c 0a bf e3 67 00 bf
       0.29456663 -1.5103598 -0.5412067 -0.5015852
000020 27 8b 16 3f f0 60 21 bd 1d 40 a3 3f d7 9b 09 3f
       0.5880608 -0.039399087 1.2753941 0.5375342
000030 b1 7a d1 3e a4 8a b5 3e 3d f9 1a 3f
       0.4091392 0.35457337 0.6053656
