cem_cartpole_best.pth (torch_old, 8024 bytes, 4 tensors)

fc1.weight f4 [64, 12]
-0.7686163 0.22476095 -0.55905324 -0.45469785 -0.0863221 -0.6276846 -0.31704357 0.5312116
-0.11969174 -0.22755975 0.2883158 0.7168606 -0.4261636 0.18508479 -0.16350976 0.26480076
-0.6169519 0.22291173 -0.36828476 -0.102731876 0.3396014 -0.08871571 -0.25949457 0.6262321
0.16977574 0.30428696 0.1305472 -0.28860867 -0.123889 -0.028458772 0.06850023 -0.3241026
-0.65241194 0.30152375 -0.36605847 0.05221635 -0.1953405 -0.38658702 0.50293845 -0.6946836
-0.8677927 -0.730464 0.42619473 0.4096179 -0.12266142 0.049056977 0.18290998 -0.061741598
-1.019826 0.105369784 0.50638795 0.13894926 0.51759535 -0.012300177 0.68494123 0.45212486
-0.49029866 0.38458043 -0.18597233 -0.3544311 0.07863907 -0.15077871 0.7965948 0.19357707
0.09947727 -0.19330707 -0.19642034 -0.00976123 0.01165773 0.18674344 -0.33111188 -0.40084806
0.06557181 0.52586484 0.029980455 0.29491916 0.5320114 -0.031283744 -0.5301805 0.2898624
0.2057216 0.44501296 -0.58930504 0.5535037 0.012733453 -0.031124823 -0.6824228 0.38963148
0.38749486 0.0054307845 0.11149663 0.045296654 0.0008385443 0.0677553 -0.262448 0.5847291
-0.6254471 -0.28074953 -0.38428065 -0.10816767 -0.26518688 0.117920116 0.18156198 -0.6005255
0.22715612 -0.049238063 0.04045844 -0.24132997 0.410048 0.56183547 0.35060424 -0.6691478
-0.28614125 -0.4223217 -0.05134206 -0.08615707 0.19365817 -0.19020553 0.22847669 -0.8040728
0.32438037 -0.5470334 -0.38944986 0.1971501 -0.7079429 0.27338782 0.32481173 -0.5029749
0.10923831 -0.72765446 0.2405083 -0.16786422 -0.23877075 0.18660419 0.16404703 -0.11734848
0.43158215 -0.14929132 -0.061547495 -0.19017227 -0.09687771 -0.08772814 -0.5020764 0.6875421
0.23837078 0.15566735 0.16434124 0.7109564 -0.22846237 0.033973176 -0.23196985 -0.5694341
-0.0938578 -0.24435967 0.19497024 0.09773714 -0.2881694 -0.709337 0.44471756 -0.11009293
0.016903203 -0.19585331 0.19472583 -0.05047351 -0.0952809 -0.24775305 -0.67943597 -0.19698699
0.48459867 0.47738943 0.24586555 -0.15924835 0.7469513 -0.2982647 -0.2732746 -0.005104153
0.7554685 0.24711744 0.033171397 0.64890695 0.0694586 0.17468813 -0.48359448 0.24643819
-0.627166 -0.042036857 -0.15083832 -0.72600126 -0.22483827 -0.34317335 -0.22903395 -0.14807859
0.042288136 0.3919599 0.028337382 -0.42030165 -0.54199326 -0.17557126 -0.008656843 0.32497582
-0.4104131 0.2945396 0.17517538 0.17047359 0.31065863 -0.35619515 0.52419364 0.49781647
-0.18001652 0.101156116 -0.4030042 0.15924664 0.4346249 -0.30769083 0.64128125 -0.39707136
0.31245923 0.008639953 -0.3114868 -0.24879181 -0.2382251 -0.68732715 -0.7011922 -0.7121603
0.076472096 0.036449615 -0.3550103 -0.19355452 0.010076051 0.33489883 -0.7729852 0.030407447
0.4419157 0.35715747 0.13416019 0.022293737 0.30536714 0.7025648 -0.25178707 -0.020912552
-0.12130364 0.29204944 0.25194892 -0.030968871 0.3146662 -0.39067838 0.39420992 0.45094326
0.057914242 0.08546622 -0.2854391 0.15974352 -0.25034747 0.3058584 -0.021479363 -0.43974507
00000000: 0ac4 44bf bc27 663e 1d1e 0fbf 28ce e8be
00000010: a4c9 b0bd f0af 20bf 8953 a2be 7cfd 073f
00000020: f120 f5bd 6c05 69be 219e 933e 2d84 373f
00000030: 1e32 dabe de86 3d3e 1a6f 27be f793 873e
00000040: 8ff0 1dbf f942 643e d28f bcbe 1765 d2bd
00000050: 3ce0 ad3e 95b0 b5bd 79dc 84be bf50 203f
00000060: b1d9 2d3e 80cb 9b3e 2aae 053e 84c4 93be
00000070: 84b9 fdbd 5f22 e9bc d949 8c3d c7f0 a5be
00000080: 7804 27bf 5261 9a3e 046c bbbe d0e0 553d
00000090: 5707 48be bcee c5be 93c0 003f c9d6 31bf
000000a0: aa27 5ebf b0ff 3abf 3236 da3e 70b9 d13e
000000b0: e935 fbbd f8ef 483d c14c 3b3e c2e4 7cbd
000000c0: a989 82bf 1dcc d73d a4a2 013f b748 0e3e
000000d0: 2181 043f ae86 49bc 4f58 2f3f e97c e73e
000000e0: 6d08 fbbe bae7 c43e 886f 3ebe fe77 b5be
000000f0: 850d a13d bc65 1abe a3ed 4b3f 1139 463e
00000100: bdba cb3d 4af2 45be 6a22 49be 91ed 1fbc
00000110: 1000 3f3c ac39 3f3e 7f87 a9be f53b cdbe
00000120: 834a 863d 149f 063f 9299 f53c a5ff 963e
00000130: e631 083f 6223 00bd e9b9 07bf d868 943e
00000140: afa8 523e bdd8 e33e b2dc 16bf 6bb2 0d3f
00000150: f99f 503c 7cf9 febc 43b3 2ebf c77d c73e
00000160: ba65 c63e b9f4 b13b 5858 e43d fc88 393d
00000170: c1d1 5b3a 4ac3 8a3d 965f 86be ceb0 153f
00000180: 4d1d 20bf 67be 8fbe 6fc0 c4be 0387 ddbd
00000190: 93c6 87be 1a80 f13d 62eb 393e 0abc 19bf
000001a0: 9d9b 683e daad 49bd c0b7 253d 341f 77be
000001b0: d0f1 d13e 73d4 0f3f 6682 b33e 454d 2bbf
000001c0: 1b81 92be 8d3a d8be 0d4c 52bd 1e73 b0bd
000001d0: 544e 463e 3dc5 42be cbf5 693e b7d7 4dbf
000001e0: 2f15 a63e 620a 0cbf f965 c7be b7e1 493e
000001f0: bf3b 35bf 7df9 8b3e b94d a63e f7c2 00bf
00000200: 56b8 df3d 9047 3abf cf47 763e 99e4 2bbe
00000210: 5280 74be 2b15 3f3e f2fb 273e 6654 f0bd
00000220: 56f8 dc3e d3df 18be 3a19 7cbd 85bc 42be
00000230: d267 c6bd d0aa b3bd 1488 00bf c202 303f
00000240: 7817 743e 4367 1f3e 1249 283e 3d01 363f
00000250: 0af2 69be 7527 0b3d 8189 6dbe 6fc6 11bf
00000260: 8538 c0bd 6c39 7abe 47a6 473e 692a c83d
00000270: f18a 93be 1c97 35bf 05b2 e33e 6778 e1bd
00000280: 9678 8a3c c58d 48be 3566 473e 50bd 4ebd
00000290: a222 c3bd fab2 7dbe 84ef 2dbf f5b6 49be
000002a0: 511d f83e 636c f43e 2ec4 7b3e 0012 23be
000002b0: 3338 3f3f 27b6 98be a6ea 8bbe bd40 a7bb
000002c0: 6266 413f 5b0c 7d3e bbde 073d c41e 263f
000002d0: 4f40 8e3d 72e1 323e b299 f7be 4b5a 7c3e
000002e0: f38d 20bf d72e 2cbd 5c75 1abe 38db 39bf
000002f0: 013c 66be 6bb4 afbe e087 6abe eaa1 17be
00000300: 5336 2d3d f8ae c83e cc23 e83c c731 d7be
00000310: 12c0 0abf f4c8 33be 6ed5 0dbc 3b63 a63e
00000320: aa21 d2be e5cd 963e 2d61 333e a190 2e3e
00000330: a60e 9f3e 365f b6be 8e31 063f cde1 fe3e
00000340: 4056 38be f02a cf3d 9156 cebe 8d11 233e
00000350: 2887 de3e a789 9dbe 022b 243f f04c cbbe
00000360: a8fa 9f3e 978e 0d3c 337b 9fbe 48c3 7ebe
00000370: 48f1 73be acf4 2fbf 5581 33bf 2350 36bf
00000380: 679d 9c3d 314c 153d e9c3 b5be 2833 46be
00000390: 0516 253c dc77 ab3e 5ce2 45bf 0a19 f93c
000003a0: c642 e23e 58dd b63e 4a61 093e 5ba1 b63c
000003b0: 1559 9c3e 49db 333f 3cea 80be cd50 abbc
000003c0: 0b6e f8bd 8187 953e 73ff 803e 6eb2 fdbc
000003d0: ee1b a13e ff06 c8be e2d5 c93e 09e2 e63e
000003e0: 7c37 6d3d ea08 af3d 1325 92be ce93 233e
000003f0: 8b2d 80be 7999 9c3e 7df5 afbc 4426 e1be

fc1.bias f4 [64]
-0.39278316 -0.14047778 -0.14622845 -0.05317158 -0.07762627 0.30707332 -0.10388431 0.53665483
0.29177606 0.34818262 0.23931211 -0.8989759 -0.16788156 -0.10154168 -0.35363254 -0.967737
0.46133083 0.5433037 -0.3698345 0.049500942 0.85378575 -0.07728344 0.03956636 0.12563257
0.44975203 -0.86818296 0.499491 0.6435 0.1099391 0.78730005 0.10747323 -0.17785244
0.66370326 0.37390047 -0.24304397 -0.10450687 -0.0067171333 -0.43380594 0.034411807 0.08200943
-0.073789455 -0.6571878 0.06348248 -0.1338056 0.15753826 -0.22034344 -0.54916865 0.5855572
-0.52479625 0.32347924 0.44836938 -0.14850526 0.8932133 -0.290324 0.3953981 0.39277807
0.30955955 -0.25181073 0.575036 0.2407865 -0.036016088 0.63787216 -0.068910465 0.3619699
00000000: e01a c9be 68d9 0fbe e9bc 15be 71ca 59bd
00000010: 86fa 9ebd b738 9d3e 4cc1 d4bd 3662 093f
00000020: ac63 953e fe44 b23e 3c0e 753e 4923 66bf
00000030: 25e9 2bbe 16f5 cfbd 530f b5be 9dbd 77bf
00000040: 8e33 ec3e f415 0b3f f35a bdbe 80c1 4a3d
00000050: b491 5a3f c846 9ebd 5610 223d d3a5 003e
00000060: e645 e63e 3d41 5ebf 49bd ff3e 6abc 243f
00000070: c027 e13d 7f8c 493f ed1a dc3d f31e 36be
00000080: 75e8 293f e26f bf3e 85e0 78be b307 d6bd
00000090: 661b dcbb d01b debe 65f3 0c3d 8ff4 a73d
000000a0: ed1e 97bd 763d 28bf 1a03 823d 5604 09be
000000b0: b651 213e b6a1 61be 5196 0cbf 14e7 153f
000000c0: 0c59 06bf 129f a53e ac90 e53e c311 18be
000000d0: a0a9 643f 59a5 94be 9f71 ca3e 351a c93e
000000e0: 977e 9e3e 56ed 80be 8f35 133f bc90 763e
000000f0: 9b85 13bd 974b 233f ee20 8dbd 1e54 b93e

fc2.weight f4 [15, 64]
-0.29080337 -0.24903685 0.935789 -0.21268158 -0.2227933 0.020038035 -0.6014204 -0.24304767
0.016988166 0.25298324 0.34229362 -0.3734477 0.020746581 0.7178981 -0.52147955 -0.40189368
-0.34391418 0.09879361 0.81709987 0.15409754 -0.23912838 -0.16921878 -0.7160644 0.33726928
-0.4754858 -0.5336971 -0.016513338 -0.0074688294 -0.11701646 -0.2908702 0.1676134 -0.18759528
-0.32175237 -0.46598095 -0.3723359 -0.7008218 0.2967852 -0.34296092 0.23198226 0.055111807
0.16176412 0.58338034 -0.41003826 0.38575855 -0.55872315 0.21520874 0.2631548 0.39634088
-0.44374987 0.03462612 -0.17186214 -0.06684888 0.18784758 0.49934325 0.5007075 -0.33486328
-0.34921712 -0.55398595 -0.0048231552 0.37709683 -0.38522312 -0.26427478 -0.37728748 0.08646884
0.050671313 0.20841554 -1.1030089 0.093652785 -0.32086265 -0.6129067 -0.2477736 -0.35062534
-0.030338444 -0.29309568 0.61547595 0.49191293 -0.17471223 -0.086029954 0.30480903 -0.43976122
0.59583104 0.55649495 -0.29392782 -0.32280692 0.3241453 -0.643196 0.090744354 0.1054716
-0.21937427 0.6537085 0.60609704 -0.43523198 -0.07082843 0.31608215 0.19532618 -0.40860185
-0.14378789 -1.0112486 -0.01480547 -0.1463243 0.2378221 0.1756055 -0.46089816 0.194919
-0.5677035 -0.15651524 0.31824878 -0.63521934 0.09877818 -0.24741575 -0.35939968 -0.30598617
0.024257438 0.2988883 -0.03103775 -0.2652377 -0.6429917 0.85089666 -0.47612497 -0.5588698
-0.87295085 -0.8004116 0.0891733 -0.15988557 0.06932729 -0.74520344 -0.3306347 0.24795417
0.11764727 -0.20282508 0.17131984 0.26821098 -0.29576144 -0.67297703 -0.031467073 0.18050121
-0.35004696 -0.45397753 0.29564965 -0.4440056 0.40963644 0.31279957 -0.32650527 0.81285995
0.46266767 -0.1802868 0.27092624 -0.46432105 0.09674291 0.14565174 -0.849822 -0.40098628
-0.53200775 -0.067980476 -0.3827245 -0.53243506 -0.3707748 0.41339323 -0.05295052 -0.3970784
0.16820426 -0.39195907 -0.04304664 -0.968075 0.75174904 -0.18739857 -0.14865641 -0.04112506
0.37702838 -0.009050537 0.11197551 -0.44639686 -0.37171638 0.2636709 -0.3844902 -0.1309441
-0.03506527 -0.23682673 -0.32879505 -0.40555358 -0.33282393 -0.060999747 -0.1527352 -0.078036405
0.42714754 -0.061859462 0.299861 0.6918183 -0.19084643 -0.21954717 -0.3538718 0.2974363
0.2974884 0.00031444296 0.27057773 0.17405981 0.32711565 0.14586191 0.1904247 -0.1170716
-0.3763725 0.1162004 0.17542945 0.15695845 0.20960906 -0.071209185 -0.9512545 -0.17450227
-0.63607776 0.7802347 0.17455636 -0.72829235 0.20645462 -0.23678194 0.29614538 0.004775597
-0.15803462 0.37395442 0.09352023 -0.53041774 -0.14630125 -0.5313341 0.50215846 -0.29494402
0.31965157 0.23359035 0.18431497 0.30651134 0.2139858 -0.07821276 -0.47151905 -0.09041438
0.05718088 0.11264046 -0.052263226 0.5542552 0.044126607 0.6862631 -0.31032267 -0.5248969
0.42492697 0.28360105 -0.3683191 0.4501638 -0.2791164 0.290464 0.40522355 0.14630425
0.15725829 -0.4661813 0.78723204 -0.8146058 0.15054719 -0.284874 -0.44623202 0.0015776118
00000000: 2ee4 94be 8403 7fbe de8f 6f3f 33c9 59be
00000010: ed23 64be ce26 a43c b0f6 19bf 7de1 78be
00000020: c42a 8b3c 0587 813e 1c41 af3e 8934 bfbe
00000030: bcf4 a93c 2bc8 373f af7f 05bf 02c5 cdbe
00000040: 8515 b0be 4e54 ca3d 752d 513f bfcb 1d3e
00000050: 12de 74be b047 2dbe ff4f 37bf 8fae ac3e
00000060: e072 f3be 60a0 08bf fb46 87bc 15bd f4bb
00000070: 53a6 efbd f0ec 94be d9a2 2b3e fa18 40be
00000080: babc a4be 0e95 eebe d0a2 bebe 0f69 33bf
00000090: 3bf4 973e 9398 afbe c28c 6d3e ebbc 613d
000000a0: 7ea5 253e 6a58 153f 89f0 d1be 2582 c53e
000000b0: 7b08 0fbf ae5f 5c3e 3abc 863e 31ed ca3e
000000c0: 2f33 e3be 1ed4 0d3d a1fc 2fbe 11e8 88bd
000000d0: 1e5b 403e eba9 ff3e 5e2e 003f 3373 abbe
000000e0: 96cc b2be 06d2 0dbf 8f0b 9ebb d612 c13e
000000f0: f73b c5be 064f 87be d32b c1be 9316 b13d
00000100: b98c 4f3d e26a 553e 652f 8dbf 08cd bf3d
00000110: 1c48 a4be 74e7 1cbf 5db8 7dbe 2a85 b3be
00000120: 5488 f8bc a310 96be d58f 1d3f 03dc fb3e
00000130: c3e7 32be 7930 b0bd ee0f 9c3e 6228 e1be
00000140: 6288 183f 7476 0e3f b57d 96be f346 a5be
00000150: 5ff6 a53e 7ea8 24bf 2dd8 b93d 7f01 d83d
00000160: a6a3 60be 7159 273f 2d29 1b3f bad6 debe
00000170: 7f0e 91bd 85d5 a13e 9603 483e 4334 d1be
00000180: 223d 13be 9870 81bf a492 72bc 0ad6 15be
00000190: a387 733e eed1 333e d8fa ebbe d998 473e
000001a0: 0455 11bf 8845 20be 81f1 a23e bc9d 22bf
000001b0: 374c ca3d 8e5a 7dbe 3c03 b8be 38aa 9cbe
000001c0: 89b7 c63c e307 993e e142 febc 3ccd 87be
000001d0: 1b9b 24bf 5dd4 593f a7c6 f3be 1712 0fbf
000001e0: b579 5fbf c6e7 4cbf 7ea0 b63d 0bb9 23be
000001f0: 77fb 8d3d a7c5 3ebf f448 a9be b3e7 7d3e
00000200: 0df1 f03d 61b1 4fbe 786e 2f3e f352 893e
00000210: 0b6e 97be 3948 2cbf 9ee3 00bd 4fd5 383e
00000220: 5b39 b3be be6f e8be 645f 973e b454 e3be
00000230: debb d13e 4427 a03e b32b a7be 9717 503f
00000240: c7e2 ec3e 1a9d 38be d8b6 8a3e 7dbb edbe
00000250: 2621 c63d bb25 153e ef8d 59bf 134e cdbe
00000260: a931 08bf 5939 8bbd 77f4 c3be aa4d 08bf
00000270: 32d6 bdbe 47a8 d33e a5e2 58bd dc4d cbbe
00000280: bd3d 2c3e dcae c8be ac51 30bd c3d3 77bf
00000290: a072 403f 69e5 3fbe 6339 18be c072 28bd
000002a0: dd09 c13e b448 14bc 6b53 e53d 218e e4be
000002b0: 9c51 bebe dfff 863e e6db c4be 3616 06be
000002c0: 9aa0 0fbd b582 72be d357 a8be b8a4 cfbe
000002d0: e667 aabe dfda 79bd 9e66 1cbe 8dd1 9fbd
000002e0: 15b3 da3e 5960 7dbd 6287 993e 011b 313f
000002f0: 3f6d 43be f9d0 60be af2e b5be 9249 983e
00000300: 6650 983e d2db a439 2a89 8a3e bc3c 323e
00000310: b47b a73e d35c 153e b1fe 423e 3cc3 efbd
00000320: e5b3 c0be 7afa ed3d c7a3 333e b7b9 203e
00000330: c2a3 563e 1fd6 91bd 6a85 73bf b9b0 32be
00000340: fed5 22bf 76bd 473f e7be 323e 5e71 3abf
00000350: d768 533e f776 72be 5ea0 973e 9c7c 9c3b
00000360: d4d3 21be f476 bf3e 8987 bf3d 75c9 07bf
00000370: ffcf 15be 8305 08bf 758d 003f e702 97be
00000380: 5fa9 a33e 4f32 6f3e 10bd 3c3e 0eef 9c3e
00000390: 181f 5b3e 032e a0bd f26a f1be 2d2b b9bd
000003a0: 8036 6a3d 0bb0 e63d f711 56bd abe3 0d3f
000003b0: 1abe 343d f0ae 2f3f 9de2 9ebe a55f 06bf
000003c0: 0790 d93e 2834 913e 5294 bcbe df7b e63e
000003d0: 58e8 8ebe b3b7 943e 7679 cf3e c8d0 153e
000003e0: 5108 213e 51af eebe 0a88 493f 018a 50bf
000003f0: 0b29 1a3e 01db 91be 8678 e4be dec7 ce3a

fc2.bias f4 [15]
-0.10926781 -0.31917 0.20984721 -0.42773715 -0.002712477 0.29628015 -0.08369282 -0.25299346
-0.011452407 -0.18917611 0.87919366 -0.17524259 -0.35642287 -0.15418138 0.28773913
00000000: cdc7 dfbd 406a a3be 30e2 563e 5d00 dbbe
00000010: d0c3 31bb 08b2 973e 2467 abbd 5c88 81be
00000020: e0a2 3bbc 62b7 41be d612 613f cb72 33be
00000030: 0f7d b6be b9e1 1dbe 8b52 933e
