cem_cartpole.pth (torch_old, 10328 bytes, 4 tensors)

fc1.weight f4 [64, 21]
0	0xbeb1a363	-0.34694967
1	0xbe35dead	-0.17760725
2	0xbead3473	-0.33829078
3	0xbe89f143	-0.2694188
4	0x3ee6feb4	0.45116198
5	0xbe749be3	-0.23887591
6	0x3e8a9197	0.270642
7	0xbf6dd094	-0.9289639
8	0xbede7df4	-0.4345547
9	0x3e54e11a	0.20788994
10	0xbe883b83	-0.26607904
11	0xbf1aaaa7	-0.60416645
12	0x3f6ce9b7	0.9254412
13	0xbca0579a	-0.019573022
14	0xbe0021a0	-0.12512827
15	0x3ede090f	0.43366286
16	0x3e91bee0	0.2846594
17	0xbe85917c	-0.26087558
18	0x3e2acc66	0.16679534
19	0xbc958291	-0.018250735
20	0x3e4ae47c	0.19813722
21	0x3d10c029	0.03533951
22	0xbf235867	-0.63806766
23	0x3edc008c	0.42969167
24	0x3f16dec9	0.58933693
25	0xbd35c8d4	-0.044380978
26	0x3ed34eec	0.4127115
27	0xbeac3dc1	-0.33640864
28	0xbdbfdf5b	-0.093687735
29	0x3e2b2a77	0.16715418
30	0xbf1e8f49	-0.61937386
31	0xbe7d6d96	-0.24748835
32	0xbe9c5512	-0.30533653
33	0xbf23dc3a	-0.64007914
34	0xbf0c4177	-0.5478739
35	0xbed136c7	-0.40862104
36	0xbecc442c	-0.3989576
37	0xbd5e8d62	-0.054334052
38	0xbf10d318	-0.56572104
39	0x3e9eb032	0.309938
40	0x3e64ccd4	0.2234376
41	0x3efd7d0f	0.49509475
42	0x3e2dcd16	0.16972765
43	0xbf0a6a3b	-0.54068345
44	0xbdf25b9a	-0.11833878
45	0xbe9a649a	-0.30154878
46	0xbd18014a	-0.037110604
47	0x3dd737d8	0.10508698
48	0x3e992495	0.29910722
49	0x3e0b4eb6	0.13604245
50	0x3f2db367	0.6785187
51	0xbdb3f009	-0.087860174
52	0xbe82d440	-0.2555256
53	0x3e9775e5	0.29582134
54	0x3e8af99c	0.27143562
55	0x3e352bd2	0.17692497
56	0x3e99f3f8	0.30068946
57	0x3e85b6f1	0.26116136
58	0x3d8bb86c	0.06822285
59	0xbe9ac698	-0.3022964
60	0x3e77f010	0.2421267
61	0xbe6cd183	-0.23126797
62	0x3df1b4b4	0.118020445
63	0x3dd6a279	0.10480208
64	0xbf72262b	-0.9458949
65	0x3f3b00f0	0.73048306
66	0x3e730670	0.23732924
67	0x3ef8cfa3	0.48595914
68	0xbf15e34b	-0.58549947
69	0x3f7e6af9	0.9938198
70	0x3ec94b69	0.39315346
71	0xbeb6b94e	-0.3568825
72	0x3dc46164	0.09588888
73	0x3c2b578e	0.010457886
74	0x3f2c6af9	0.6735073
75	0xbeb7d4a9	-0.35904434
76	0xbec637ba	-0.3871439
77	0x3d81b80a	0.06333931
78	0xbed2f785	-0.41204467
79	0xbed13dc5	-0.4086744
80	0xbd4f4c96	-0.050610147
81	0x3eec28c6	0.46124858
82	0xbe8add88	-0.2712214
83	0x3de0b60f	0.10972225
84	0x3d21323a	0.03935454
85	0x3da20af2	0.07912244
86	0x3ed93feb	0.42431578
87	0x3ce19e05	0.02754117
88	0xbe3bfdb8	-0.18358505
89	0x3f83b320	1.028904
90	0x3f5e60e8	0.8686662
91	0x3f4b9d24	0.7953665
92	0xbd39b84e	-0.045341782
93	0xbec4aab4	-0.38411486
94	0x3edb195e	0.4279279
95	0xbf01ca23	-0.5069906
96	0x3f203e68	0.62595224
97	0xbda9b7e6	-0.08287029
98	0xbe630cb1	-0.2217281
99	0x3f7a9b9f	0.9789371
100	0x3eb5a1fb	0.35475144
101	0xbf439898	-0.76404715
102	0x3e81bb4e	0.25338215
103	0x3f331f2e	0.6996945
104	0x3e1bfcd3	0.15233164
105	0xbf419192	-0.7561275
106	0x3e950362	0.29104143
107	0xbf81a2cd	-1.0127808
108	0x3d6ad1ff	0.057329174
109	0x3e6772e8	0.22602427
110	0x3f06a880	0.5260086
111	0x3e787b4f	0.24265788
112	0x3d32fdcd	0.043699075
113	0x3f4dce0f	0.80392545
114	0x3e927a24	0.2860881
115	0xbe6dde32	-0.23229292
116	0x3f00bbcd	0.5028656
117	0xbdfb9de2	-0.12285973
118	0xbf75df5d	-0.9604395
119	0x3e6c8e23	0.23101096
120	0x3dcf7647	0.101299815
121	0xbec46847	-0.38360807
122	0xbe38e497	-0.1805595
123	0xbebd7a82	-0.3700753
124	0x3f70eb63	0.9410917
125	0x3df27df4	0.1184043
126	0xbcb33199	-0.021874236
127	0x3ee45d84	0.44602597
128	0x3eb4f401	0.3534241
129	0x3e7c0a5f	0.24613331
130	0x3e570bab	0.21000545
131	0x3e87c353	0.26516208
132	0xbef8cba7	-0.48592874
133	0x3df2ffd3	0.11865201
134	0xbed09d33	-0.40744933
135	0xbf17ccd3	-0.5929691
136	0xbde23137	-0.11044543
137	0xbee380c5	-0.4443418
138	0xbed24dfa	-0.41075116
139	0x3d34608d	0.04403739
140	0xbec752a3	-0.38930234
141	0xbe57aaa2	-0.21061185
142	0x3e24c9fb	0.16092674
143	0x3e8b5ec3	0.27220735
144	0xbf69f2f1	-0.91386324
145	0xbe693572	-0.22774294
146	0x3dc0e7f6	0.09419243
147	0x3e185c90	0.1487906
148	0x3ef3f2db	0.47646222
149	0x3e2a76f8	0.16646945
150	0x3f2dbb9e	0.67864406
151	0xbde3fde1	-0.11132408
152	0x3eac3a76	0.33638352
153	0xbddb00f6	-0.10693543
154	0xbded8113	-0.115968846
155	0x3cc369fe	0.023854252
156	0xbed26137	-0.41089794
157	0xbe647762	-0.22311166
158	0x3e5be85c	0.21475357
159	0x3f272702	0.65293896
160	0xbe2163d4	-0.15760738
161	0xbf2be186	-0.67140996
162	0xbde15aea	-0.110036686
163	0xbef74100	-0.4829178
164	0xbe7f6125	-0.24939401
165	0x3e5a6ab2	0.21329764
166	0x3d4dc8fc	0.0502405
167	0x3d960653	0.07325425
168	0xbf1818fc	-0.59413123
169	0x3e9da049	0.3078635
170	0xbf07afc0	-0.5300255
171	0xbf08a365	-0.5337432
172	0xbea63da9	-0.32468918
173	0x3ddea5e5	0.108714856
174	0xbe536be4	-0.20646626
175	0x3f48363b	0.7820775
176	0x3e1cf53e	0.15327927
177	0xbdc869f9	-0.09785838
178	0xbcd4bc43	-0.025968676
179	0xbeab6aef	-0.3348002
180	0x3d9011ca	0.07034643
181	0x3f6502a1	0.89457136
182	0xbe042c7a	-0.12907591
183	0x3ebf0af4	0.37313044
184	0xbf7860c8	-0.97022676
185	0x3f1d3a74	0.6141732
186	0xbe8d28fd	-0.27570334
187	0xbdb35b49	-0.08757646
188	0x3f7860fb	0.9702298
189	0xbec25cf0	-0.3796153
190	0x3e682bfc	0.22673029
191	0xbe3f7495	-0.18696816
192	0x3bb95517	0.0056558955
193	0x3edeb64c	0.43498456
194	0xbf6b184e	-0.9183396
195	0xbd542188	-0.05178979
196	0x3ecce5b3	0.40018997
197	0xbeeeb8d2	-0.46625382
198	0x3f2c6a41	0.6734963
199	0x3f0415aa	0.51595557
200	0xbead5f90	-0.3386197
201	0x3f41f1a0	0.75759315
202	0x3f67efe6	0.9060043
203	0xbed34542	-0.41263777
204	0xbf2ce318	-0.6753402
205	0x3d63851e	0.055546872
206	0xbec78d80	-0.38975143
207	0xbe9dc9bf	-0.30817983
208	0x3f3905f0	0.72274685
209	0x3f063893	0.52430075
210	0xbf3a3659	-0.7273918
211	0x3e388892	0.18020847
212	0x3f069aa9	0.5257974
213	0xbdfe66e8	-0.124219716
214	0xbf27fa3c	-0.656162
215	0x3f795f1e	0.9741076
216	0xbf0af9ce	-0.5428742
217	0x3f01634c	0.5054214
218	0xbf3c2b20	-0.73503304
219	0xbe814af1	-0.25252488
220	0x3eb5fe70	0.35545683
221	0xbea953da	-0.33071786
222	0x3eead048	0.4586203
223	0x3eb5bb35	0.3549439
224	0xbdf438ba	-0.11924882
225	0xbe8f3d4a	-0.27976447
226	0x3e5ddf92	0.21667317
227	0x3f405d7f	0.75142664
228	0x3cc27e05	0.023741731
229	0x3eab6ef1	0.3348308
230	0x3f1bdd1a	0.6088425
231	0x3e945977	0.28974506
232	0x3e99ffd7	0.30078003
233	0x3d993a94	0.07481876
234	0xbe8f45df	-0.27982995
235	0xbfa4f376	-1.2886798
236	0x3da339d4	0.07970014
237	0x3f1941bf	0.59865946
238	0x3ee1cac2	0.44100004
239	0xbc4251f0	-0.011860356
240	0x3f031b28	0.5121331
241	0xbd82865e	-0.06373285
242	0x3dd09c01	0.101860054
243	0xbe093c4f	-0.13401912
244	0x3f6dafbf	0.9284629
245	0xbe90fe07	-0.28318807
246	0x3e84fd69	0.25974587
247	0xbf55f21a	-0.8357254
248	0xbf15b7f4	-0.58483815
249	0xbe7de77b	-0.24795334
250	0x3e7cc561	0.24684669
251	0xbd7870f0	-0.06065458
252	0x3d55add1	0.052167717
253	0x3e95da83	0.29268274
254	0x3f213d08	0.6298375
255	0xbee750c2	-0.451788

fc1.bias f4 [64]
0	0xbf1a7284	-0.60330987
1	0xbf376023	-0.7163107
2	0xbda8e908	-0.08247572
3	0x3e1191be	0.14215752
4	0x3e6c73d5	0.23091061
5	0xbd85a118	-0.06524867
6	0xbe91b059	-0.28454855
7	0x3f461aa8	0.77384424
8	0xbf268f2f	-0.6506223
9	0x3ebd668c	0.369923
10	0xbe8b1b29	-0.2716916
11	0x3f3b8e78	0.73264265
12	0x3de937b9	0.113875814
13	0xbec8b33d	-0.39199248
14	0xbdf88cd4	-0.12136236
15	0xbe6725c6	-0.22573003
16	0xbdc188f8	-0.09449953
17	0x3e185e2d	0.14879675
18	0xbee53d11	-0.44773152
19	0x3e045c4c	0.12925833
20	0x3f066e15	0.5251172
21	0xbec94650	-0.39311457
22	0xbf00a308	-0.50248766
23	0xbec7d5c2	-0.39030272
24	0xbec3e55a	-0.3826092
25	0x3f1761a8	0.59133387
26	0x3ead2225	0.33815113
27	0x3e5fe145	0.21863277
28	0xbecc3291	-0.3988233
29	0xbea391df	-0.31947228
30	0x3f99003b	1.1953195
31	0xbe734e06	-0.23760232
32	0x3ef03b8c	0.4692043
33	0x3ec9f71a	0.39446336
34	0x3dcd5e5a	0.10027762
35	0xbeaf15d2	-0.34196335
36	0x3dea482b	0.11439546
37	0x3de52de3	0.11190393
38	0xbe2a8361	-0.1665168
39	0xbd6d0da4	-0.057874337
40	0xbf3cf20e	-0.73806846
41	0xbf56bcd2	-0.83881867
42	0xbda4e385	-0.080512084
43	0xbdbd0f5a	-0.09231444
44	0x3f11a9f7	0.5689997
45	0xbdd98e68	-0.10622865
46	0x3ebaea46	0.3650686
47	0x3e4b76b9	0.19869508
48	0x3e4cbb41	0.19993307
49	0xbf12dede	-0.5737132
50	0xbf1ab9d1	-0.60439783
51	0x3ed78330	0.42092276
52	0xbdf7081b	-0.12062093
53	0x3e808e12	0.2510839
54	0x3e029611	0.12752558
55	0xbea63f28	-0.3247006
56	0x3eae3d4d	0.34031144
57	0x3e3066ce	0.17226717
58	0xbed12a34	-0.4085251
59	0xbe100adb	-0.14066641
60	0x3e356a24	0.1771627
61	0xbd8bc0da	-0.06823893
62	0xbec322df	-0.38112542
63	0xbe978824	-0.29596055

fc2.weight f4 [15, 64]
0	0x3eaf8710	0.34282732
1	0x3d355ea2	0.044279702
2	0x3e16cd2f	0.14726709
3	0xbf78d925	-0.97206336
4	0xbd2c81bd	-0.042115916
5	0xbeb55fa7	-0.3542454
6	0x3ea9dce3	0.33176336
7	0xbde78a09	-0.11305625
8	0xbf3209a8	-0.69545984
9	0x3de51708	0.111860335
10	0xbe9d4cf4	-0.30722773
11	0xbc1e489a	-0.009660864
12	0xbe86367f	-0.26213452
13	0xbf062ab2	-0.524089
14	0x3e8f42a7	0.2798054
15	0xbf165f42	-0.587391
16	0x3bb10e14	0.0054032896
17	0xbe778ace	-0.24174044
18	0xbcd67b38	-0.026181802
19	0x3eaf5967	0.34247896
20	0xbcd0e9a1	-0.025502028
21	0xbf208d07	-0.6271519
22	0xbe52a2e4	-0.2056995
23	0xbdac6c97	-0.08419149
24	0xbc25a7c0	-0.0101107955
25	0x3e5a4e7d	0.21319003
26	0xbd9dee82	-0.077115074
27	0x3f725af9	0.94670063
28	0xbed3ae48	-0.41343904
29	0x3eac5e1f	0.3366556
30	0xbe80e1eb	-0.25172362
31	0x3e2a6209	0.1663896
32	0xbcb9eab2	-0.02269492
33	0x3e7ee389	0.24891485
34	0xbec78c77	-0.38974354
35	0xbee136c2	-0.4398709
36	0xbf56814f	-0.8379106
37	0xbebc8326	-0.36818808
38	0x3f4fe452	0.81207764
39	0xbef6fa41	-0.48237804
40	0x3df9644b	0.121773325
41	0xbf1d64cb	-0.6148192
42	0x3ed9a983	0.4251214
43	0xbf7a5239	-0.9778171
44	0xbf236103	-0.63819903
45	0xbf24d26c	-0.6438358
46	0x3c8eb27b	0.01741909
47	0x3ef97253	0.48720035
48	0xbe8a858d	-0.27055016
49	0x3d8dbf5f	0.06921267
50	0xbf5e8179	-0.8691631
51	0x3c22673b	0.009912307
52	0xbca4e1c6	-0.020127188
53	0x3dcc44a0	0.09974027
54	0x3f00208a	0.5004965
55	0xbe8535b5	-0.26017538
56	0x3f1e0bc8	0.61736727
57	0xbee13833	-0.4398819
58	0xbca1f027	-0.019767834
59	0x3e2e3aae	0.17014572
60	0xbec2357f	-0.3793144
61	0xbf1ab8d5	-0.6043828
62	0xbf006003	-0.501465
63	0x3f42d82d	0.7611111
64	0xbddf1a00	-0.10893631
65	0x3ddb1cb2	0.106988326
66	0xbf312bbd	-0.69207364
67	0xbebb4138	-0.36573195
68	0xbeac0fdf	-0.3360586
69	0x3e3ce24b	0.18445699
70	0x3eeecc4e	0.46640247
71	0xbf3b849a	-0.7324921
72	0x3e4561f6	0.1927565
73	0xbe6c0f68	-0.23052752
74	0x3e840eff	0.2579269
75	0xbd96f4c6	-0.073709056
76	0xbe0ff803	-0.14059453
77	0xbea146c5	-0.31499305
78	0xbe0775e8	-0.13228571
79	0xbebd3b02	-0.36959082
80	0x3eb47e61	0.3525267
81	0xbd63bf63	-0.055602442
82	0x3f372c38	0.7155185
83	0xbe2a9437	-0.16658102
84	0x3e270bda	0.16313115
85	0xbc781eea	-0.015144089
86	0x3e1d35bf	0.15352534
87	0xbeee7e72	-0.46580845
88	0x3e991560	0.2989912
89	0xbed699c6	-0.41914195
90	0xbdeb54e6	-0.114908025
91	0x3d8b3bc2	0.06798507
92	0x3edf6651	0.4363275
93	0x3e8ee8e1	0.27912048
94	0x3bac5785	0.0052594566
95	0xbe6e866f	-0.2329347
96	0xbe0a75b6	-0.13521466
97	0xbea4eae9	-0.32210472
98	0xbe54c112	-0.20776775
99	0x3f1dca0c	0.61636424
100	0x3ecc56bc	0.39909923
101	0x3f183df4	0.5946953
102	0x3e1ddc5d	0.15416093
103	0xbf61f556	-0.8826498
104	0x3c151551	0.0090993205
105	0x3e50efd5	0.20403989
106	0xbe189f4b	-0.14904515
107	0xbf44af74	-0.7683022
108	0x3d41caba	0.047312476
109	0xbcb0546e	-0.021524634
110	0x3e9c5afb	0.30538163
111	0x3e960d2c	0.29306924
112	0x3e1be295	0.15223153
113	0x3ef3d642	0.47624403
114	0x3f211f6c	0.6293857
115	0xbea1d325	-0.31606403
116	0xbe8ea325	-0.27858844
117	0xbeb88463	-0.36038503
118	0xbe6e987f	-0.2330036
119	0x3ea38f88	0.31945443
120	0x3ee815a3	0.45329008
121	0x3f58af60	0.846426
122	0x3f1c9caf	0.6117658
123	0xbe79524f	-0.24347804
124	0x3f0d1379	0.5510784
125	0xbdc2bbc0	-0.09508467
126	0xbf0a0231	-0.53909594
127	0xbe4d698d	-0.20059796
128	0xbf0aef2f	-0.54271215
129	0xbeecf7b9	-0.46282747
130	0xbd9ac5af	-0.075572364
131	0xbe1de98b	-0.15421121
132	0x3f1e8dda	0.619352
133	0x3eaac3cd	0.3335251
134	0x3e8433ca	0.25820762
135	0x3d6f74e7	0.058461096
136	0xbd9833c5	-0.07431749
137	0x3f1047b2	0.563594
138	0xbe2b1c6a	-0.16710058
139	0x3d77ea9a	0.060526468
140	0x3da469a0	0.08027959
141	0x3fd71565	1.6803404
142	0xbec3e8f0	-0.38263655
143	0xbf50bb10	-0.81535435
144	0xbdb22e6d	-0.08700261
145	0xbdd847a9	-0.10560543
146	0x3dcd10a4	0.100129396
147	0x3ca8699d	0.020558173
148	0x3ef7f580	0.4842949
149	0x3e054bbf	0.13017176
150	0xbe848406	-0.25881976
151	0x3ed1db78	0.40987754
152	0xbd699ebb	-0.057036143
153	0x3d73c5f5	0.05951496
154	0x3f1671ac	0.587672
155	0x3d0cda81	0.03438807
156	0xbf4905cc	-0.7852447
157	0xbd352db7	-0.04423305
158	0x3dac5f1e	0.0841658
159	0x3f324803	0.6964113
160	0xbe4982d9	-0.1967882
161	0xbee1dfc8	-0.44116044
162	0x3d950a44	0.07277349
163	0xbea4acfb	-0.32163224
164	0xbe46f436	-0.19429097
165	0xbea17436	-0.31533974
166	0x3edf7509	0.43643978
167	0xbda34402	-0.07971956
168	0x3e0c0e31	0.13677289
169	0xbf2f84e8	-0.68562174
170	0x3e824e5b	0.25450405
171	0x3f9b15ed	1.2116066
172	0x3e346dc6	0.1762
173	0xbe33c34d	-0.1755497
174	0xbd1f927e	-0.038958065
175	0x3ea46242	0.32106215
176	0xbf1d2036	-0.61377275
177	0x3ef0b297	0.47011253
178	0x3e44e2d9	0.1922716
179	0xbd7bd64f	-0.061483677
180	0xbea762f0	-0.3269267
181	0xbe986f8a	-0.29772598
182	0x3f3a6bac	0.72820544
183	0x3ec0a58b	0.376263
184	0x3ee459ad	0.44599667
185	0x3ec4b293	0.3841749
186	0xbf08963b	-0.53354234
187	0x3d0db0c2	0.034592398
188	0xbf3dcad5	-0.7413762
189	0x3cd98c9e	0.02655631
190	0x3f3ed920	0.74550056
191	0xbf2a306e	-0.6648015
192	0xbe902bda	-0.28158456
193	0x3ed562d3	0.4167696
194	0xbe901b0d	-0.28145638
195	0x3ced28b5	0.028950075
196	0x3f27c466	0.65534055
197	0x3e9d4fab	0.30724844
198	0xbe2e7931	-0.17038418
199	0x3dba1852	0.0908667
200	0x3f69133c	0.91044974
201	0x3ec9d7c4	0.3942243
202	0x3d5ee57a	0.054418065
203	0xbe9558d6	-0.2916934
204	0x3f847189	1.0347148
205	0x3e8ea3bd	0.27859297
206	0x3f02c680	0.51084137
207	0x3f472cf8	0.7780299
208	0x3f330464	0.69928575
209	0xbf256a94	-0.6461575
210	0x3d3065a3	0.04306568
211	0xbd9c24ab	-0.07624181
212	0xbeb9c129	-0.36280182
213	0xbd7c8675	-0.061651666
214	0x3eb8d452	0.36099488
215	0xbcdb8d9f	-0.026800929
216	0x3f001a5b	0.50040215
217	0xbea5f87d	-0.32416144
218	0xbde4cafe	-0.1117153
219	0xbf10d8dc	-0.565809
220	0xbdcebb96	-0.10094373
221	0xbe9d6df4	-0.3074795
222	0x3ea26842	0.31720167
223	0xbe8615c2	-0.26188475
224	0x3db23bf3	0.08702841
225	0xbf224f1f	-0.6340198
226	0xbc42dffd	-0.011894223
227	0x3f0e2315	0.5552228
228	0x3e6ad485	0.22932632
229	0x3eae600e	0.3405766
230	0x3ef4bdb3	0.4780098
231	0x3e7fbdbf	0.24974726
232	0x3f789573	0.9710304
233	0xbd7891d4	-0.060685948
234	0x3eca5ae3	0.39522466
235	0x3e07f6ab	0.1327769
236	0x3e92d427	0.28677484
237	0x3ec431ec	0.38319337
238	0x3eef686b	0.46759352
239	0xbf2d4603	-0.67684954
240	0xbf2d82d1	-0.67777735
241	0x3c9ed24d	0.019387389
242	0x3dd97206	0.10617451
243	0xbfa00d97	-1.2504147
244	0xbee91d7e	-0.45530313
245	0xbeae3467	-0.34024355
246	0xbedeb191	-0.43494847
247	0xbf312824	-0.69201875
248	0xbeeb8a91	-0.46004155
249	0x3e826953	0.2547098
250	0x3eaa5931	0.33271173
251	0x3c9752b7	0.018472059
252	0x3ed53a53	0.4164606
253	0xbe4cdece	-0.20006868
254	0x3eb4ab0e	0.35286754
255	0x3ecf6858	0.40509295

fc2.bias f4 [15]
0	0x3f861117	1.0473965
1	0x3e6afe5f	0.22948597
2	0x3f011419	0.5042129
3	0x3f32b7c2	0.6981164
4	0x3e524648	0.20534623
5	0x3ebbbc9c	0.36667335
6	0xbe9f8c51	-0.3116174
7	0xbec8afbb	-0.39196572
8	0x3e9691e4	0.2940818
9	0xbefd3106	-0.49451464
10	0xbf869219	-1.0513335
11	0x3f4b97a1	0.7952824
12	0x3d3274bf	0.04356837
13	0xbdd0869a	-0.10181923
14	0xbd8440fa	-0.06457706
