cem_cartpole.pth (torch_old, 41802 bytes, 8 tensors)

fc1.weight f4 [64, 12]
0	0xbee5f361	-0.44912246
1	0x3d784118	0.060608953
2	0xbf617b90	-0.88079166
3	0x3f8179e2	1.0115321
4	0x3e1e7af6	0.15476593
5	0x3feaa407	1.8331307
6	0xbf1fb259	-0.6238151
7	0x3d73e4fd	0.059544552
8	0xbfb68c82	-1.426163
9	0x3fdcdc00	1.7254639
10	0x3e86d68b	0.26335558
11	0x3e1e61ba	0.15466967
12	0xc008a14e	-2.1348453
13	0xc02e8ce9	-2.7273505
14	0x3e863db8	0.26218963
15	0xbe575513	-0.21028547
16	0x3f6faecc	0.93626094
17	0xbf516979	-0.81801564
18	0x3f3f5c50	0.7475023
19	0xbdceedd9	-0.101039596
20	0xc013476f	-2.301235
21	0x3fc65a1a	1.5496247
22	0xbeda603c	-0.42651546
23	0x3fbda6a6	1.4816482
24	0x3f3e3e30	0.7431364
25	0x3f5df2ce	0.86698616
26	0xbd14b948	-0.03630951
27	0xbfbcd01a	-1.4751008
28	0x3f5a5118	0.8527999
29	0xc002960e	-2.0404086
30	0x3ee63bb0	0.44967413
31	0x3f25d666	0.6478027
32	0xbf7a5390	-0.97783756
33	0xbfab8fa4	-1.3403211
34	0x3eae1c62	0.3400603
35	0x3f38bb15	0.72160465
36	0x3f82dff4	1.0224595
37	0x3fab8650	1.3400364
38	0xbfebb650	-1.8415012
39	0xbf938d2b	-1.1527456
40	0xbef7784b	-0.48333964
41	0xbf6c51d4	-0.9231236
42	0x3ee3efc5	0.44518867
43	0xbf8dfec6	-1.1093376
44	0x3f2774ba	0.65412486
45	0xbf6308fa	-0.8868557
46	0xbfa5e10f	-1.2959307
47	0xbf5d96a1	-0.86557966
48	0x3fe0f8ba	1.7575905
49	0xbf910de5	-1.1332365
50	0xbe9abcd3	-0.30222186
51	0xbcf7a19f	-0.030228434
52	0x3fb0ee14	1.3822656
53	0x3fba1c76	1.4539936
54	0x3fe35b03	1.776215
55	0xbf0a8bf5	-0.5411981
56	0xbfe51d64	-1.7899594
57	0x3f8c7b97	1.0975217
58	0xbed4170b	-0.4142383
59	0xbf006d53	-0.50166816
60	0x3f177438	0.5916171
61	0xbe9d3c0d	-0.30709878
62	0xbfc4f5e3	-1.5387539
63	0x400b3836	2.1753058
64	0xbf9a8bf7	-1.2073964
65	0xbf76bc96	-0.9638151
66	0xbf19d044	-0.60083413
67	0xbf95cec7	-1.1703728
68	0x3fac756b	1.3473333
69	0xbeddda46	-0.43330592
70	0xbfe1ca8d	-1.7639939
71	0x3f8b9de6	1.0907562
72	0x3fca4069	1.5800906
73	0x3f48f42e	0.7849759
74	0xbee9f5c3	-0.45695314
75	0xbc485ab6	-0.012228658
76	0x3fc1982e	1.5124567
77	0xbe3083b3	-0.1723774
78	0xbf80b26b	-1.0054449
79	0x40087c74	2.132596
80	0xbf804a4b	-1.0022672
81	0xbf54e999	-0.8316894
82	0x3de3dcb7	0.111260824
83	0xbfba6044	-1.4560628
84	0x3fdb81c0	1.7148972
85	0xbfcd425a	-1.6035874
86	0xc0038b73	-2.0553863
87	0x3ee2801c	0.44238365
88	0xbf980647	-1.1876916
89	0x3f93e91c	1.1555514
90	0xc0004663	-2.004296
91	0xbf8c9df5	-1.0985705
92	0x3fa89e07	1.3173226
93	0xbea45b2a	-0.32100803
94	0xbd4aaa64	-0.049478903
95	0xbec6866c	-0.3877443
96	0x3f1d8b0b	0.6154029
97	0x3e89e0fb	0.2692946
98	0x3ed1d0fa	0.4097975
99	0xbfa4ceb2	-1.2875578
100	0xbf3c3d58	-0.73531103
101	0x3ede0997	0.4336669
102	0x3f014fdd	0.50512487
103	0xbf8485e4	-1.035336
104	0xbfac55f8	-1.3463736
105	0xbf1503fb	-0.582092
106	0xbf9db820	-1.2321815
107	0x4023892e	2.5552478
108	0x3f7eb2f7	0.9949183
109	0x3d927a38	0.071522176
110	0xbf0fd9e8	-0.56191874
111	0x3bc62957	0.0060474086
112	0x403972d7	2.8976343
113	0x3f930869	1.1486942
114	0x3e43cb4f	0.19120525
115	0xbe6ea753	-0.23306017
116	0x3f4e82ba	0.8066822
117	0x3ed87a63	0.42280874
118	0xc00abc88	-2.167757
119	0x3f502b6a	0.81316245
120	0xbcc058b1	-0.023479791
121	0xbf05ac43	-0.52215976
122	0x3ea73e38	0.32664657
123	0x3f28fc33	0.66009825
124	0x3e61441b	0.21998636
125	0x3ee18ea4	0.4405414
126	0x3fc70485	1.5548254
127	0x3e2081e0	0.15674543
128	0xbf4cb817	-0.799684
129	0x3eec9a09	0.4621127
130	0xbeec2f18	-0.4612968
131	0x3eb22fc7	0.34802076
132	0x3f8a2547	1.0792626
133	0xbe3e6e94	-0.1859687
134	0x3fbaa9af	1.4583033
135	0x3f395e3e	0.7240943
136	0xbe09a542	-0.13441947
137	0xc00f704d	-2.2412293
138	0xbefe9499	-0.49722746
139	0x3e4692c0	0.19391918
140	0x3eb2cb84	0.34920895
141	0x3ed75935	0.42060247
142	0x3f3ae78c	0.7300956
143	0x3f85c2dc	1.0450091
144	0xbfa52953	-1.2903236
145	0xbd6f44bb	-0.058415156
146	0x3f9a2d03	1.2044986
147	0xbf4d0e77	-0.80100197
148	0xbf695b68	-0.911551
149	0x3fb72a9d	1.430988
150	0xbda3265a	-0.07966299
151	0x3ea4eaef	0.3221049
152	0x3f008904	0.5020907
153	0xbf82dab4	-1.0222993
154	0xbd7f37f0	-0.062309206
155	0x3fa6751d	1.300449
156	0x3dacb9c2	0.08433868
157	0xbdca5823	-0.09880092
158	0x3f048bbe	0.5177573
159	0x4006ebfe	2.1081538
160	0xc04db3c7	-3.2140977
161	0xc014349a	-2.3157105
162	0x3f67c443	0.90533847
163	0xbe70fcd8	-0.23533952
164	0x3ef4d0a8	0.47815442
165	0xbd89054b	-0.06690463
166	0x3f434f23	0.7629263
167	0x3f957bf3	1.1678451
168	0xbf45f7c6	-0.773312
169	0xbea58138	-0.3232515
170	0xbe916f2a	-0.28405124
171	0x3fa87840	1.3161697
172	0x3fd4ce8a	1.6625531
173	0xbf170f53	-0.5900776
174	0xbfa29e41	-1.2704545
175	0xbdc7bc76	-0.09752743
176	0x3f059f5a	0.52196276
177	0x3fbbb714	1.4665246
178	0x3feaade2	1.8334315
179	0x3fafa14f	1.3721102
180	0x3e9f4ad6	0.31111783
181	0x3f631abc	0.8871267
182	0xbf207aff	-0.6268768
183	0x3f8fd263	1.123608
184	0xbf95ff7f	-1.1718596
185	0x3f1df272	0.6169807
186	0xbf6c0703	-0.921982
187	0x3f890458	1.0704451
188	0xbfa11646	-1.2584922
189	0x3afc58a3	0.001925249
190	0x3e161012	0.14654568
191	0x3f221acc	0.6332214
192	0xbfb7c7ea	-1.4357884
193	0x3ebda268	0.3703797
194	0xbedb06b0	-0.4277854
195	0xc006addb	-2.1043613
196	0xbfe0aacc	-1.7552123
197	0x3fba86a2	1.4572337
198	0xc050361c	-3.2533026
199	0x3ed9dbda	0.42550546
200	0xbf17b61e	-0.59262264
201	0xbf530c44	-0.8244059
202	0xbf20555b	-0.6263024
203	0x3f47fba6	0.7811836
204	0x3cffecd3	0.031240856
205	0x40055169	2.083094
206	0xbef6ef2b	-0.48229346
207	0xbebf6389	-0.37380627
208	0xbf456e96	-0.77121866
209	0xc00e1e61	-2.2206042
210	0x3d90b773	0.0706624
211	0xbedea0d2	-0.4348207
212	0x3fd724b8	1.6808081
213	0xbf4ef85d	-0.8084772
214	0xbfc70378	-1.5547934
215	0xbea60f15	-0.32433382
216	0x3fe3f8b9	1.7810279
217	0xbfddfbf6	-1.7342517
218	0x3e3dde82	0.18541911
219	0xc00d22b1	-2.2052424
220	0x3f84d291	1.037676
221	0xbeedcc7c	-0.46445072
222	0xbf922178	-1.1416464
223	0xbf83973e	-1.028053
224	0x3f53b57f	0.82698816
225	0x403e7c70	2.976345
226	0x3f9708be	1.1799543
227	0xbf928755	-1.144755
228	0xbf7bb9f8	-0.9833064
229	0x3f152667	0.5826172
230	0xbf2d5672	-0.6771003
231	0xbe56dea0	-0.20983362
232	0xbf781a66	-0.9691528
233	0x3db3bd54	0.08776346
234	0xbeb2adea	-0.3489831
235	0x3d278bed	0.040904928
236	0xbf858158	-1.0430098
237	0xbf544dca	-0.82931197
238	0xbfe14041	-1.7597734
239	0x3f99717e	1.198776
240	0xbf228f0a	-0.6349951
241	0xbf4305d0	-0.76180744
242	0x3e712c26	0.23551998
243	0xbf88344d	-1.0640961
244	0xbf33a5cb	-0.70174855
245	0x3fed6b3f	1.8548354
246	0xbc5f8a76	-0.0136438515
247	0x3d5394ac	0.051655456
248	0xbfe8abaf	-1.8177394
249	0x3aeef1ef	0.0018230061
250	0x3f2e12f4	0.6799767
251	0xbd887cdc	-0.0666444
252	0xbfe22cf1	-1.7669965
253	0xbfe2beaf	-1.7714442
254	0x40061458	2.0949917
255	0xbfc810a7	-1.5630082

fc1.bias f4 [64]
0	0xbd74fd18	-0.05981168
1	0xbfcd419d	-1.6035649
2	0x3e12bbf3	0.1432951
3	0xbeec724c	-0.46180952
4	0xbe5c5eb2	-0.21520498
5	0x3eb1195a	0.34589654
6	0x400fe1ed	2.2481644
7	0x3f402bde	0.75066936
8	0xbe6c77ff	-0.2309265
9	0xbffb17ae	-1.9616601
10	0x3ec712d5	0.38881555
11	0xbf8c01c7	-1.0938042
12	0x3fe05644	1.7526326
13	0xbff9a83b	-1.9504465
14	0x4011b518	2.276678
15	0xbeae835a	-0.34084588
16	0xbf312d98	-0.69210196
17	0x3f8046e4	1.0021634
18	0x3eec7bff	0.46188352
19	0x3c15d9e1	0.009146185
20	0xc020b726	-2.5111785
21	0x3fb9299f	1.4465827
22	0xbff316e1	-1.8991357
23	0x3e8d5568	0.27604222
24	0x3f567820	0.83777046
25	0xbed78fe9	-0.42101982
26	0xbf894e87	-1.072709
27	0xbe28bfb3	-0.16479377
28	0xbf4771c1	-0.7790795
29	0xbf4638fc	-0.774307
30	0x3f80cf54	1.0063272
31	0x3f8e5e59	1.1122543
32	0x3fb99d6c	1.4501166
33	0xbf8c86f8	-1.0978689
34	0xbf8a6453	-1.0811867
35	0xbf7ed823	-0.9954855
36	0xbe92946f	-0.2862887
37	0x3ecef1d3	0.40418872
38	0xbe85a8d5	-0.2610537
39	0xbf02d0ff	-0.5110015
40	0xbe089552	-0.13338211
41	0xbebd7bd1	-0.37008527
42	0xc00ed5ab	-2.2317913
43	0x3f6d589d	0.9271334
44	0x3fa97b1c	1.3240695
45	0xbf9664cb	-1.174951
46	0x3f350f18	0.70726156
47	0x3da0efc3	0.07858231
48	0x3f5a9282	0.85379803
49	0xbf85857c	-1.0431361
50	0x3f073c13	0.5282604
51	0xc036008e	-2.8437839
52	0x3fce34e1	1.6109887
53	0x3f2e0e13	0.67990226
54	0xbf2a68a5	-0.66565925
55	0xbd92c108	-0.07165724
56	0x4018facd	2.3903077
57	0x3ffd78d6	1.9802501
58	0xc03153f9	-2.7707503
59	0xc042cd51	-3.0437815
60	0x4015f5a1	2.343117
61	0x3e433dff	0.19066618
62	0xbeaa56c2	-0.33269316
63	0x3e7fef4f	0.24993633

fc1_2.weight f4 [64, 64]
0	0xbfd1e6d0	-1.6398563
1	0x3f980fba	1.1879799
2	0x3f13d155	0.5774129
3	0x3f291f84	0.66063714
4	0x3fd121c0	1.6338425
5	0xbf878a83	-1.0589145
6	0x3f8399b7	1.0281285
7	0x4018eb29	2.389353
8	0xbf694d1a	-0.9113327
9	0x3eed925a	0.4640072
10	0x3fc53140	1.5405655
11	0x40230ebc	2.5477743
12	0x3f52b167	0.82301944
13	0x3fb8cf6d	1.4438301
14	0x3faac998	1.3342772
15	0xbf6223e7	-0.8833603
16	0xc02cb069	-2.6982672
17	0x3f0476a9	0.5174356
18	0xbe8594ef	-0.2609019
19	0x3f9ed594	1.2408929
20	0x4005a46b	2.0881603
21	0xbea2b393	-0.3177763
22	0x3ea5b83b	0.3236712
23	0xbfeb9de1	-1.8407556
24	0x3f16ae1b	0.58859414
25	0xbfea76a5	-1.8317457
26	0xc043783b	-3.0542133
27	0x3f9e1724	1.2350812
28	0xbe85ad34	-0.26108706
29	0x3fd778ca	1.6833737
30	0xbfb0490c	-1.3772292
31	0x3febb3c0	1.841423
32	0x3f86022d	1.0469414
33	0xbd87d667	-0.06632691
34	0x3fee6098	1.8623228
35	0xbebe718d	-0.37196007
36	0xbfa8b5c4	-1.318047
37	0xbfac4ed9	-1.3461562
38	0xbf98c96f	-1.1936473
39	0x3f05a068	0.52197886
40	0xbf415cd4	-0.7553227
41	0xbe2ebd5f	-0.17064427
42	0xbf83a785	-1.0285498
43	0x3f32c3f5	0.69830257
44	0xbfa05864	-1.2526975
45	0xbefa7b34	-0.48922122
46	0xbfaa0224	-1.3281903
47	0x3fdafc4d	1.7108246
48	0x3eebfcfd	0.46091452
49	0x3fed1687	1.85225
50	0x3fd0e284	1.6319127
51	0xbfedd77d	-1.8581387
52	0xbe116f6d	-0.14202662
53	0x3c8c3c2f	0.017118542
54	0x3e8ebb7b	0.2787741
55	0x401dc092	2.4648786
56	0x4017a4f3	2.3694427
57	0xbeaf036c	-0.34182298
58	0xbffeb8e4	-1.9900174
59	0x3e9b56d3	0.3033968
60	0xbf995539	-1.1979133
61	0x3dd21bbe	0.10259198
62	0xbf6737ea	-0.90319693
63	0x3f392b4d	0.72331697
64	0xbe9c70d3	-0.30554828
65	0xbf8ab2bf	-1.0835799
66	0xbf13737d	-0.57598096
67	0x3e9190b8	0.28430724
68	0x400d79b4	2.2105532
69	0xbf03afe4	-0.5144026
70	0x40103fa3	2.253884
71	0xc079b2d4	-3.9015398
72	0xbfb435f7	-1.4078969
73	0xbe7a3341	-0.24433614
74	0xbf1f1d58	-0.6215415
75	0x3e611ca4	0.21983582
76	0x3fa16cc3	1.2611316
77	0xbf9495fb	-1.160827
78	0xbf5ed756	-0.87047327
79	0xbf72a1ba	-0.94778025
80	0x3fe84b59	1.8147994
81	0xbe06c85b	-0.13162367
82	0xbf16d370	-0.5891638
83	0xbee7a069	-0.4523957
84	0xbfbcbe66	-1.4745605
85	0x3eabfd13	0.33591518
86	0x3e40b37b	0.18818466
87	0xbeec20d1	-0.46118787
88	0xbf4818a0	-0.78162575
89	0x3fa34366	1.2754943
90	0xbf88b041	-1.0678788
91	0x3ec8a3fe	0.39187616
92	0x3f296ab9	0.6617847
93	0x3f1c6f16	0.61107004
94	0xc0022516	-2.0335135
95	0xbe54a58c	-0.20766276
96	0xbf93158d	-1.1490952
97	0xbf1fc842	-0.62414944
98	0x3feee631	1.8663999
99	0xbe3181bf	-0.1733465
100	0x3fe09983	1.7546848
101	0xbffb63a5	-1.9639784
102	0xc001e9da	-2.0298982
103	0xbef9644d	-0.48709336
104	0x40073526	2.112619
105	0xbfceaca6	-1.6146438
106	0xbf44c8d6	-0.7686895
107	0xbf773431	-0.9656401
108	0x3f7742e5	0.9658645
109	0x3f30e02b	0.69092053
110	0xbfb3ac10	-1.4036884
111	0x3e1036ba	0.14083377
112	0xbf360655	-0.7110341
113	0x3e30b1cb	0.17255323
114	0x3f94eda9	1.1635028
115	0xbf2690bf	-0.65064615
116	0x3f864dee	1.0492532
117	0x3f9735ce	1.1813295
118	0x3f60a597	0.8775267
119	0xbf171d72	-0.59029305
120	0xbfa208ce	-1.2658937
121	0xbf8cefe5	-1.101071
122	0xbf09089e	-0.53528774
123	0x3fd35c3b	1.6512522
124	0x3e68262b	0.2267081
125	0xbf45bbf5	-0.77239925
126	0x3fb2e79c	1.3976932
127	0xbf2d0da4	-0.6759894
128	0xbe78605b	-0.24255507
129	0x3e43f45d	0.19136186
130	0x3e44f262	0.19233087
131	0x3fa2bf92	1.2714713
132	0x3dca5058	0.098786056
133	0xbf082be2	-0.5319196
134	0xbf31ecdc	-0.69502044
135	0xbff78a95	-1.9339167
136	0x3fe0f0b6	1.7573459
137	0xbfe5bd35	-1.7948366
138	0xbfaa70f2	-1.3315718
139	0x3e0e198a	0.1387693
140	0x3e429b3d	0.19004531
141	0x3f0eb086	0.55738103
142	0xbee496da	-0.4464634
143	0xbf830dad	-1.0238549
144	0x3ff08b26	1.8792465
145	0x3f451478	0.7698436
146	0x3f2b84f3	0.6699974
147	0xbf1afeae	-0.6054486
148	0xbeeb2203	-0.45924386
149	0x3f37c747	0.7178845
150	0x3edcd895	0.4313399
151	0x3ff0ca72	1.8811781
152	0x3ff5f6d3	1.921595
153	0xc01077c8	-2.2573109
154	0x4013c789	2.3090537
155	0xbedbdda4	-0.42942536
156	0xbe21c4c0	-0.1579771
157	0xbe63e661	-0.22255851
158	0xbfc7cf6f	-1.5610179
159	0x3f01ff49	0.5078016
160	0x3ee38b3d	0.44442168
161	0xbf5e261d	-0.86776906
162	0x3ee7f2eb	0.4530252
163	0x3f39b719	0.7254501
164	0xbf1dd919	-0.6165939
165	0xbf0ef697	-0.55845016
166	0xbfdfa7f8	-1.7473135
167	0x3f873f0e	1.0566118
168	0xbdaefa80	-0.08543873
169	0x3eaa2643	0.33232316
170	0xbf2d15b9	-0.6761127
171	0x3ff558e4	1.9167752
172	0xbec39ee1	-0.38207152
173	0xbfa429b4	-1.2825227
174	0x3edf2ff6	0.4359128
175	0x3f457416	0.7713026
176	0x40509ebf	3.259689
177	0xc017b4b0	-2.3704033
178	0xbe46b645	-0.19405468
179	0x3fcde617	1.6085843
180	0xbf662e00	-0.8991394
181	0xbfed8907	-1.8557442
182	0x3f91cb8b	1.1390241
183	0xbf64e18d	-0.89406663
184	0x3f9a4606	1.205262
185	0xbf07f21e	-0.53103817
186	0x3f8a7549	1.0817043
187	0xbf31feae	-0.69529235
188	0x3f1daa2a	0.61587775
189	0x3f6f42c3	0.93461245
190	0xbeb8ac32	-0.36068875
191	0xc00c1a75	-2.1891148
192	0xbec97c87	-0.3935282
193	0xbf462b6e	-0.7741002
194	0xbff66495	-1.9249445
195	0x3f86ae88	1.0522013
196	0xbf331c51	-0.6996508
197	0x3eb8e70e	0.3611378
198	0xbf12a113	-0.5727703
199	0x3f1c2978	0.61000776
200	0x3f462a31	0.7740813
201	0xbeb9a2ea	-0.36257106
202	0xbfb27006	-1.3940437
203	0x3f6e1c8e	0.9301232
204	0xbfe2b48d	-1.771135
205	0x3f0146cc	0.5049865
206	0x3fe776ea	1.8083165
207	0x3fa542a7	1.2910966
208	0x3fe3c61c	1.7794833
209	0x3f517d11	0.8183146
210	0xbeb9d3bb	-0.3629435
211	0x3e2f3122	0.17108586
212	0xbfc6bb88	-1.552598
213	0x3fb7b25b	1.4351305
214	0x3ff356ec	1.9010901
215	0xbee155d7	-0.44010803
216	0xbe63fe0e	-0.22264883
217	0xbd133b94	-0.03594549
218	0xbefae504	-0.4900285
219	0x3f98f29e	1.1949041
220	0xbf60bf88	-0.87792253
221	0xbfcd4932	-1.6037962
222	0xbf2c197f	-0.67226404
223	0x3e4dbfea	0.2009274
224	0x3f64c8e0	0.8936901
225	0xbfe92f0f	-1.8217486
226	0x3dd6cb57	0.10488003
227	0xbfc425c2	-1.5324023
228	0x3ffe76ed	1.9880043
229	0xbd246838	-0.040138453
230	0xbf858b4b	-1.0433134
231	0x3f0b1244	0.54324746
232	0xbec6a74c	-0.38799512
233	0xbfe70278	-1.8047628
234	0x3f61385d	0.8797663
235	0x3f4b3092	0.7937099
236	0x401046dc	2.254325
237	0xbf388342	-0.72075284
238	0x3f70ed00	0.94111633
239	0xbf9ae540	-1.2101212
240	0x3f1fd2a2	0.62430775
241	0xbf3526f7	-0.7076258
242	0xbf6fbbac	-0.9364574
243	0xbe72039a	-0.23634186
244	0x3ffe99d0	1.989069
245	0x3fd73493	1.6812919
246	0x3d30fd44	0.043210283
247	0x3de26c34	0.11055794
248	0x40049c10	2.0720253
249	0xbf7a56ec	-0.9778888
250	0xc0474aa1	-3.11393
251	0xbf826069	-1.0185672
252	0xbfb63fc5	-1.4238211
253	0x3f877fe8	1.0585909
254	0x3f601c53	0.8754322
255	0xbe81a667	-0.25322267

fc1_2.bias f4 [64]
0	0xc0084d23	-2.129708
1	0x3db4d18e	0.08829032
2	0xbeec5217	-0.4615638
3	0xbf9a98d8	-1.2077894
4	0xbf8e5102	-1.1118472
5	0xbfbbd35d	-1.4673878
6	0xbf817fa0	-1.0117073
7	0xbf430ebb	-0.7619435
8	0xbedfe1cd	-0.4372696
9	0xbf4a5bc6	-0.79046285
10	0x3f004644	0.50107217
11	0x3d7d423c	0.061830744
12	0xbe9ace9f	-0.30235764
13	0x3fafb95c	1.3728442
14	0xbe87fb2f	-0.26558825
15	0xbd2ae08b	-0.041718047
16	0xbd6274a6	-0.055287026
17	0xbffd80dd	-1.9804951
18	0x3f45708d	0.77124864
19	0xbe7317ed	-0.23739596
20	0x3e2bc98d	0.16776104
21	0xbf3bb511	-0.7332316
22	0xbf974ae8	-1.1819735
23	0xbfb3029d	-1.3985173
24	0x3fbf6ef0	1.495573
25	0xbf936bd9	-1.1517287
26	0x3f90d198	1.1313963
27	0x3fd1a07c	1.6377101
28	0xc00dae9e	-2.2137828
29	0x3f32067a	0.6954113
30	0x3f8b0828	1.0861864
31	0xbff29fff	-1.8955077
32	0xbeb42937	-0.35187694
33	0x3df9f715	0.1220533
34	0xbde6e9fd	-0.112750985
35	0xbfa41bed	-1.2821022
36	0xbeeb9135	-0.46009222
37	0x3c61761e	0.0137610715
38	0xbe9bae69	-0.30406502
39	0xbfa6e083	-1.3037266
40	0x3ca034e5	0.019556472
41	0x3b6344c1	0.0034678432
42	0x3f5b263b	0.8560521
43	0xc025c741	-2.5902865
44	0x3edfea0e	0.43733257
45	0xbf301896	-0.68787515
46	0x3f014de1	0.5050946
47	0xbe91a426	-0.28445548
48	0x3e5d8a8b	0.21634881
49	0x3ef41399	0.47671202
50	0xbf009a16	-0.50235116
51	0x3f009f19	0.50242764
52	0x40357707	2.8353899
53	0xbe824202	-0.25440985
54	0xbf015b66	-0.5053009
55	0x3ed8c399	0.4233673
56	0x3f647eed	0.89256173
57	0xbf6833b7	-0.9070391
58	0xbe886585	-0.26639953
59	0x3e896a1a	0.26838762
60	0x3fc4bab7	1.5369481
61	0x3fdbcc9c	1.7171817
62	0x3f9eaaab	1.2395834
63	0x3fcb924a	1.5904019

fc1_3.weight f4 [64, 64]
0	0xc0322d8d	-2.7840302
1	0xbea05707	-0.31316397
2	0xbf267fce	-0.65038764
3	0x3e4fefb9	0.2030629
4	0x401be368	2.4357548
5	0xbf22a4d5	-0.63532764
6	0x3fff2444	1.9932942
7	0x3e8d6224	0.27613938
8	0xbf54bd3f	-0.83101267
9	0x3f1b154d	0.6057938
10	0x3ee53a9f	0.44771287
11	0xbf0b5979	-0.544334
12	0x4021f17d	2.5303643
13	0x4041c176	3.027433
14	0x3f1f4b25	0.62224036
15	0xbe58f4f4	-0.21187192
16	0x3f23e8c7	0.64027065
17	0xbf8c611c	-1.0967135
18	0xc013f3b6	-2.31175
19	0x3f25fb18	0.64836264
20	0x3eed16e1	0.46306518
21	0x3f9d6424	1.2296185
22	0xbe3525d3	-0.1769021
23	0xbfaabeb3	-1.3339447
24	0x3f2ebd0c	0.6825721
25	0x4002b107	2.042055
26	0xbfbfbbb8	-1.4979162
27	0x4002f848	2.046404
28	0x3f933c4e	1.1502779
29	0xbf4a4c07	-0.7902226
30	0xbf1797f6	-0.5921625
31	0x40268b42	2.6022496
32	0x3f3f45b8	0.7471576
33	0xbfaf5c8e	-1.370012
34	0xbf9c9e0a	-1.223573
35	0xc00bb48d	-2.182895
36	0xbfecfcab	-1.8514608
37	0xbf57b4d2	-0.84260285
38	0xbf4c64b0	-0.79841137
39	0xbfb1d8b7	-1.3894261
40	0x3ea7bf93	0.32763347
41	0x3f80cd42	1.006264
42	0xbf89caf0	-1.0765057
43	0xbec0c4ff	-0.37650296
44	0x3e79b4f1	0.2438543
45	0xc0289bd9	-2.6345122
46	0x3f8c47bf	1.0959395
47	0x400e688f	2.2251318
48	0x3f891293	1.0708793
49	0xbeb1d05d	-0.3472928
50	0xc0220cbb	-2.532027
51	0xbf8edc12	-1.116091
52	0xbf952cdf	-1.1654319
53	0x3fa9eb07	1.327485
54	0xbf1329b2	-0.57485497
55	0x3c18e594	0.009332079
56	0xbfdb5854	-1.7136331
57	0x3fae4f3f	1.3617934
58	0x3f9a9dc7	1.20794
59	0x3f9db27b	1.2320093
60	0xbfd61bf1	-1.6727277
61	0xbfb3b574	-1.403975
62	0xbb62614b	-0.0034542854
63	0x3f4770aa	0.77906287
64	0x3fedd1e2	1.8579676
65	0x3f526023	0.82177943
66	0x3ea70c47	0.32626554
67	0x3e2d6513	0.16933088
68	0x3f57387c	0.84070563
69	0xc000b4ae	-2.0110278
70	0xbe2d81f3	-0.16944103
71	0xbe8bc5a1	-0.27299216
72	0x3e5e4631	0.21706463
73	0xbe89fd6f	-0.26951167
74	0x3f9400d8	1.1562757
75	0xbfa35764	-1.2761045
76	0xbfc3c490	-1.5294361
77	0xbfc1bd98	-1.5135984
78	0xbcfa1382	-0.03052688
79	0x3fbbc890	1.4670582
80	0xbe45abbe	-0.19303796
81	0x3fa19299	1.2622863
82	0xbf1e6d05	-0.618851
83	0x3f92e3bf	1.1475753
84	0x3f3d4a72	0.7394172
85	0xbf5c7d6a	-0.86128867
86	0x3ea4e06b	0.32202467
87	0x3fcc257a	1.5948937
88	0xbe1dfcce	-0.15428469
89	0xbe76828b	-0.24073236
90	0xbe8592bb	-0.2608851
91	0x3fac7f29	1.3476306
92	0xbf5e4a0c	-0.86831737
93	0xbf316e85	-0.69309264
94	0x3fe982f2	1.8243086
95	0x3de52a69	0.1118973
96	0x400c3353	2.1906326
97	0x401842fa	2.379088
98	0x3c852931	0.016254993
99	0xbf908a0d	-1.129213
100	0xbea94045	-0.33056846
101	0x3ff84797	1.9396847
102	0xbfb7f94e	-1.4372957
103	0xbe0c2b6b	-0.13688438
104	0x3e431103	0.19049458
105	0x3ee1cca5	0.44101444
106	0x3ee80b0e	0.45320934
107	0x3f2be69b	0.6714875
108	0xbfcac942	-1.5842669
109	0x3e1997b3	0.14999275
110	0x3fd559fa	1.6668084
111	0xbf4e22f0	-0.8052206
112	0xbe94fec9	-0.29100636
113	0xbf832f37	-1.0248784
114	0x3fa65781	1.2995454
115	0xbf82f10d	-1.0229813
116	0xbf54c1a6	-0.83107984
117	0x3f3e1535	0.7425111
118	0xbf59f6e0	-0.85142326
119	0x3e982766	0.2971756
120	0x403e17f5	2.9702122
121	0x3fc443a9	1.5333148
122	0x3eccc775	0.39995924
123	0xbe8f87f3	-0.2803341
124	0xbf7e4ba2	-0.99334157
125	0x3fb71f7d	1.4306484
126	0xc006fc09	-2.109133
127	0x3eec8fba	0.46203405
128	0x3fba5474	1.4557023
129	0x3fc93b7d	1.5721279
130	0x3fb5f3cc	1.4215026
131	0xbe0b9400	-0.13630676
132	0x3f8660a4	1.0498242
133	0x3f890256	1.0703838
134	0xbf77f72a	-0.9686152
135	0xbf9385ab	-1.1525167
136	0xc025624f	-2.5841253
137	0xbed5ed7a	-0.41782743
138	0x3f9fe501	1.2491761
139	0x3f82edfd	1.0228878
140	0xbf9bf60f	-1.2184466
141	0xbfd17c67	-1.636609
142	0xbf155401	-0.58331305
143	0xbff0c80a	-1.8811047
144	0xbdd3115e	-0.10306047
145	0xbfd05ce9	-1.6278354
146	0x40199497	2.3996942
147	0x401df284	2.467927
148	0xbe95cc34	-0.29257357
149	0x3fe69e16	1.8016994
150	0x3f211b56	0.62932336
151	0xbdf108d2	-0.117692605
152	0x3f2a7fed	0.6660145
153	0x3fe549fc	1.7913203
154	0x3ece4655	0.40288034
155	0xbf6b1fd4	-0.9184544
156	0xc014e202	-2.3262944
157	0xc02080b9	-2.5078566
158	0x3f8666b7	1.0500096
159	0x3fc43966	1.5330017
160	0xbf6b921d	-0.92019826
161	0xbf60818f	-0.8769769
162	0x3f911eae	1.1337488
163	0x3ffe7579	1.98796
164	0xbf597f4f	-0.8495988
165	0xbf71951e	-0.9436816
166	0x3dd4fb13	0.10399451
167	0x3e774243	0.2414637
168	0x3e1f98e9	0.15585674
169	0xbf2b88bb	-0.6700551
170	0xc013ec3a	-2.3112931
171	0x401d4db9	2.4578688
172	0xbf9e1e7b	-1.2353052
173	0xbe06e7c3	-0.13174348
174	0xbebd37ac	-0.36956537
175	0x3f5e6830	0.8687773
176	0x3fdfb9c5	1.7478567
177	0xbf99509f	-1.1977729
178	0x3eb74685	0.3579599
179	0x3edfedfd	0.43736258
180	0xbee4cd65	-0.44687954
181	0x3ecbfd64	0.3984176
182	0x3f0ea30e	0.5571755
183	0xbf384d48	-0.7199292
184	0x3f82e75a	1.0226853
185	0x3f5c612f	0.8608579
186	0xbf8ed242	-1.1157916
187	0xbf700171	-0.937522
188	0x3ecd2a97	0.40071556
189	0x3fd5f79c	1.6716189
190	0xbdbe29e4	-0.09285334
191	0xc01147cf	-2.2700078
192	0x3fe855e1	1.8151208
193	0x3f9d654c	1.2296538
194	0x3fde00d2	1.7344
195	0xbfb8fb93	-1.4451774
196	0xbfa039c8	-1.2517633
197	0xbf8f41ba	-1.1191933
198	0x3f8bef99	1.0932494
199	0xbdfbc033	-0.122925185
200	0xbfc27a3f	-1.5193557
201	0x3f486a57	0.7828726
202	0xbd29ad67	-0.041425135
203	0xbe4082e7	-0.18799935
204	0x3d1ccbc1	0.038280252
205	0x40213ffb	2.51953
206	0xbf00530f	-0.5012674
207	0x3f10010e	0.5625161
208	0x400820bb	2.1269977
209	0xbf1d7574	-0.61507344
210	0x3fac6826	1.3469284
211	0xbe935ee7	-0.28783342
212	0x3e037b1a	0.12839928
213	0xbf3b9b11	-0.7328349
214	0x402deee4	2.7177057
215	0xbf172f08	-0.5905614
216	0x3e246ce3	0.16057162
217	0xbf4389bf	-0.7638206
218	0xbff20d9e	-1.8910406
219	0x3fb5b09a	1.419452
220	0xbf12cc3b	-0.5734288
221	0xbec13bdc	-0.37740982
222	0xbfe406cb	-1.7814573
223	0x3d67c33d	0.056582678
224	0x3f8bba8f	1.0916308
225	0x3f4bf729	0.7967401
226	0xbef48d69	-0.47764137
227	0x3f21cd14	0.6320355
228	0x3fe4738f	1.7847766
229	0xbfb24684	-1.392777
230	0x3fa70c2a	1.3050587
231	0x40011488	2.0168781
232	0xc01c1b6e	-2.4391742
233	0x3ecf47ff	0.40484616
234	0xbdcd91b9	-0.1003756
235	0x3ff24557	1.8927411
236	0xbfe9b272	-1.8257582
237	0x3f0db7d6	0.55358636
238	0x3edcd4e3	0.4313117
239	0xbfd261f5	-1.6436144
240	0xbfafa5a3	-1.3722423
241	0x3e8dbf11	0.27684835
242	0xbeab7b30	-0.33492422
243	0x3f89bdf1	1.076109
244	0xbedb71aa	-0.42860156
245	0xbe6f472c	-0.23366994
246	0xbe5cac7c	-0.21550173
247	0x3e989b7a	0.2980612
248	0x3f2a8ee9	0.66624314
249	0xbfdaa968	-1.7082949
250	0xbe82166d	-0.25407735
251	0x3e33e319	0.175671
252	0xbf0c121e	-0.54715145
253	0x3f54c2b6	0.83109605
254	0xbf727b44	-0.9471934
255	0xc0111a88	-2.2672443

fc1_3.bias f4 [64]
0	0x3f4155a6	0.75521314
1	0xbf388a2e	-0.72085845
2	0xbe80653b	-0.25077233
3	0x3e46eea7	0.19426976
4	0x3f38ca6a	0.7218386
5	0x3d8e42c3	0.069463275
6	0xbf5e6498	-0.86872244
7	0xbe835e5b	-0.25657925
8	0x3f97fd70	1.1874218
9	0x3e34106d	0.17584391
10	0xbea119f4	-0.31465113
11	0x3fee3c1c	1.8612094
12	0xc014cd56	-2.3250327
13	0xbf76ffc7	-0.96484035
14	0x3ee2ce5a	0.4429806
15	0xbf115440	-0.5676918
16	0x3e51a00e	0.20471212
17	0x40469683	3.1029365
18	0xbf630a4c	-0.88687587
19	0xbfdd0fd8	-1.727046
20	0x4046e7b4	3.107892
21	0xbed2dc74	-0.41183817
22	0xbea03455	-0.31289926
23	0xbfdc41c1	-1.7207566
24	0xbf41ce49	-0.7570539
25	0xbc0dcc79	-0.008654707
26	0xbfbbfa51	-1.4685766
27	0xc011d12d	-2.278392
28	0x3d21c290	0.03949219
29	0x3e247f21	0.16064121
30	0xbf0758e3	-0.52870005
31	0xbf4ea577	-0.8072123
32	0x3fea103a	1.8286202
33	0xbf74d5e8	-0.95638895
34	0xbea33ec2	-0.31883818
35	0x40076a9d	2.1158822
36	0xbfe11960	-1.7585869
37	0xbecb0b0a	-0.3965686
38	0x3e809cc7	0.25119612
39	0x3d65e858	0.056129783
40	0xbda34974	-0.079729944
41	0xbf1830cd	-0.59449464
42	0x3f832ba5	1.0247694
43	0xbd16c080	-0.036804676
44	0xbfa0692c	-1.2532096
45	0xbd06f130	-0.032944858
46	0x3faa12d2	1.3286994
47	0xbc0eb9ba	-0.008711273
48	0x3ea784f0	0.3271861
49	0x3f96dc3d	1.1785961
50	0x3fada53d	1.3566052
51	0x3dac1a53	0.084034584
52	0x3f885f25	1.0654036
53	0x3f860482	1.0470126
54	0x3edb99f9	0.4289091
55	0x3fe0e44c	1.7569671
56	0xbef4a654	-0.47783148
57	0x3f146300	0.5796356
58	0x3f54d537	0.8313784
59	0x3fb33723	1.4001201
60	0xbfba79e3	-1.4568447
61	0xbfa50bef	-1.2894267
62	0x3f015183	0.50515
63	0x3fb3de9a	1.4052308

fc2.weight f4 [15, 64]
0	0x3b25290f	0.0025201475
1	0xbe9c64f2	-0.30545765
2	0xbf8790e7	-1.0591096
3	0x3f4b1551	0.793294
4	0x3ea07a67	0.31343386
5	0xc022def7	-2.5448587
6	0x3f5aff3d	0.8554571
7	0xbf3e17f7	-0.7425532
8	0x3cdb0ba5	0.026738951
9	0x3f01032d	0.5039547
10	0x3f376f7c	0.71654487
11	0xbfe5c1d3	-1.7949775
12	0x3ecc310f	0.3988118
13	0x3f04c633	0.5186493
14	0xbf0bb531	-0.5457335
15	0xbda3c807	-0.079971366
16	0xbe04b52e	-0.1295974
17	0x3f622039	0.8833042
18	0x3efd9cdc	0.49533737
19	0xbf3583c5	-0.7090419
20	0xbf378102	-0.71681225
21	0xbfb77214	-1.4331689
22	0x3edc7008	0.43054223
23	0xbfa0e6fb	-1.257049
24	0xbe851f62	-0.26000506
25	0xbf0c7d66	-0.5487884
26	0x3ecb7f5b	0.39745602
27	0x3f6a5d95	0.91549045
28	0xbf7e23ea	-0.9927355
29	0x3fcfb507	1.622712
30	0xbeebbc0c	-0.46041906
31	0xbf19dc21	-0.60101515
32	0xc02322e7	-2.5490053
33	0xbfa4c55e	-1.2872732
34	0xc0179a66	-2.3687987
35	0x3f99767b	1.1989282
36	0x3e15b524	0.14619881
37	0x3ef23d52	0.4731241
38	0xbe3e29a0	-0.18570566
39	0xbff9587e	-1.9480131
40	0xbf6f67d0	-0.9351778
41	0x3fa9a463	1.3253292
42	0x3ebc6d79	0.3680227
43	0xbfaa6de6	-1.3314788
44	0xbeb2b0d4	-0.34900534
45	0x3e55c69e	0.20876548
46	0x3f8156d1	1.0104619
47	0xbffb23bd	-1.9620281
48	0x3d8a8af8	0.067647874
49	0x3fbd58b4	1.4792695
50	0xbf58ed3a	-0.8473698
51	0x3c97d4a5	0.018534014
52	0xbf0588e9	-0.52162033
53	0x3fd27e7b	1.6444849
54	0xbfa94cff	-1.3226622
55	0x3ffc1aa1	1.9695626
56	0xc0196a09	-2.3970969
57	0x3fbf36e5	1.4938627
58	0x3fa0c67a	1.256057
59	0xbec38d0a	-0.38193542
60	0x3f921bd9	1.1414748
61	0xbfaa4f56	-1.3305461
62	0x3ff70b21	1.9300271
63	0xbf7591cc	-0.95925593
64	0x3ffc4b56	1.9710491
65	0x3ec5df3e	0.38646883
66	0xbf9a762d	-1.2067314
67	0x3fb06da4	1.378346
68	0x3f768d73	0.96309584
69	0xbf87b248	-1.0601282
70	0x3f2c19e3	0.67227
71	0xbf559d38	-0.8344302
72	0xbed0cd17	-0.4078147
73	0xbfb51e75	-1.414992
74	0xbf887844	-1.0661702
75	0x3e3e447d	0.18580814
76	0xbf125500	-0.5716095
77	0xbec282a3	-0.37990293
78	0xbe816bbe	-0.25277513
79	0x3ffbda01	1.9675905
80	0xbf45f4b1	-0.77326494
81	0xbddc8da7	-0.107692055
82	0xbeee891e	-0.46588987
83	0xbf9f9f64	-1.2470517
84	0x3f16b1a5	0.58864814
85	0x400a9444	2.1652994
86	0xbe2cf1d1	-0.1688912
87	0xbef23ab7	-0.4731042
88	0xc047cd52	-3.1219068
89	0x3f75c04c	0.95996547
90	0xbec53240	-0.385149
91	0x3e276b50	0.1634953
92	0x3fd1e288	1.6397257
93	0xbf85991b	-1.0437349
94	0xbd908c89	-0.07058055
95	0x3f77ab18	0.96745443
96	0xbf8a292b	-1.0793813
97	0xbf1c2fe6	-0.6101059
98	0xbf4b1e91	-0.79343516
99	0xbf63dc31	-0.8900786
100	0x3fb8a74d	1.4426056
101	0x3ce384a6	0.027773213
102	0x3e4aecc8	0.19816887
103	0xbdb38809	-0.08766181
104	0xbf993cc8	-1.1971674
105	0xbea0cbd9	-0.31405523
106	0xbeb936bb	-0.3617457
107	0xbee889b8	-0.4541757
108	0xbf3bd505	-0.73371917
109	0x3f9a52cd	1.2056519
110	0xbf41ed1f	-0.75752443
111	0x3ec9c035	0.39404455
112	0x3f92dcc1	1.1473619
113	0xbf88212f	-1.0635127
114	0xbfc6fc39	-1.5545722
115	0x3dd78e8f	0.10525238
116	0xbe8524d0	-0.26004648
117	0xbe9e2f94	-0.30895674
118	0x3fac50e3	1.3462185
119	0x3f617529	0.880694
120	0x3ee30803	0.4434205
121	0x3f3e6b45	0.7438243
122	0x3f3d519e	0.7395266
123	0xbf59b14b	-0.8503615
124	0xbec55e9d	-0.38548747
125	0x3f68f13c	0.90993094
126	0xbf88e5d5	-1.0695139
127	0xbf6fe234	-0.93704534
128	0xbf04d020	-0.51880074
129	0xbffa0c51	-1.9535009
130	0xbf437c87	-0.7636189
131	0xbf68af50	-0.90892506
132	0x3e1e69bc	0.15470022
133	0x3f886f8d	1.0659043
134	0xc01e3a6e	-2.4723163
135	0xc01fb59d	-2.4954598
136	0xbf83d989	-1.0300761
137	0x3eca443a	0.39505178
138	0x3d2cd8c3	0.042198908
139	0x3e66ac3d	0.22526641
140	0x3fb482a7	1.4102372
141	0xbffe9b86	-1.9891212
142	0xbf6cab3f	-0.924488
143	0x3dbfec07	0.093711905
144	0x3e3c293f	0.18375109
145	0x3fb5f87b	1.4216455
146	0xbfd7f274	-1.6870866
147	0xc0128767	-2.2895143
148	0x3ee0010a	0.43750793
149	0xbf3ebe30	-0.74508953
150	0xbf6ad96e	-0.9173802
151	0xbf8b12a3	-1.0865062
152	0xbf294bca	-0.6613127
153	0x3f8dc78e	1.1076524
154	0xbf4bf532	-0.79671013
155	0x3f3cb66f	0.7371587
156	0xbeffb6bb	-0.499441
157	0xbf62412e	-0.88380706
158	0xbf4e9986	-0.8070301
159	0x3fb679eb	1.4255956
160	0x3f41afc6	0.75658834
161	0xbf15efce	-0.5856904
162	0xbfd03c23	-1.6268352
163	0xbf0f6f18	-0.5602889
164	0x3f5701f1	0.8398734
165	0x3dbe54b2	0.09293498
166	0x3edb2393	0.42800578
167	0xbe448ab4	-0.19193536
168	0x3f4b4502	0.7940217
169	0x4007ddfa	2.1229234
170	0xbf9e4408	-1.2364511
171	0xbf83a45d	-1.0284535
172	0x3f97fc0a	1.1873791
173	0x401f2403	2.486573
174	0x3f375381	0.7161179
175	0x3f42b35e	0.7605494
176	0x3ff0f524	1.8824811
177	0xbfb5bba3	-1.4197887
178	0xbf645c82	-0.89203656
179	0xbeb207d2	-0.3477159
180	0xbf917112	-1.1362631
181	0x3fa9a8e7	1.325467
182	0xbded0e95	-0.11575047
183	0xbe8644b3	-0.26224288
184	0xbf89b14f	-1.0757235
185	0x3fad0e78	1.352004
186	0xbd7eeac8	-0.062235624
187	0x401d46c6	2.4574447
188	0x3e06ff6b	0.13183372
189	0x3dfd12c5	0.12357096
190	0x3f011af8	0.50431776
191	0x3eda4625	0.4263164
192	0x3e7b5483	0.24543957
193	0xc007d3a3	-2.1222923
194	0xbfbc6c80	-1.4720612
195	0xbef95c66	-0.48703307
196	0xbe686703	-0.22695546
197	0xbd98a5e7	-0.07453518
198	0x3e97d5ff	0.29655454
199	0x3f0fe51f	0.56208986
200	0xbfc884ed	-1.5665566
201	0x3f3627ea	0.71154654
202	0xbec6a244	-0.38795674
203	0xbfa19269	-1.2622806
204	0x3f9c0b95	1.2191035
205	0x3cd0bb4a	0.025479931
206	0xc014d139	-2.32527
207	0x3e852578	0.2600515
208	0x3fdec8a1	1.7404977
209	0x3f1dfc67	0.6171326
210	0xbfa2b3a6	-1.2711074
211	0xbf1f8163	-0.62306803
212	0x3f277cb6	0.6542467
213	0xbf41f6bf	-0.7576713
214	0x3faf2f87	1.3686379
215	0x3e2dd8c5	0.16977222
216	0xbf24a386	-0.64312017
217	0xbf288b37	-0.65837425
218	0xbfbf825f	-1.4961661
219	0xc01b380f	-2.4252965
220	0xbeb1e517	-0.34745094
221	0x3f5ae82a	0.85510504
222	0x3eedc7c8	0.46441483
223	0x3f43bc2c	0.76459
224	0x3d8ae88c	0.06782636
225	0x3f23506b	0.63794583
226	0xbeddd2e0	-0.43324947
227	0x3fe7bd62	1.810467
228	0xbe1de68f	-0.15419982
229	0xc062cf78	-3.543913
230	0xbe31e20c	-0.17371386
231	0x3fc929a3	1.5715832
232	0x3e6f713c	0.23383039
233	0xbec4fdec	-0.38474977
234	0xbf9e7a1f	-1.2381018
235	0x3f863cf3	1.048735
236	0x3e9df2e9	0.30849388
237	0x3f1aa8fc	0.604141
238	0xbf275d1f	-0.65376467
239	0xbe349e78	-0.17638576
240	0xbfe65650	-1.799509
241	0xbe903c7d	-0.2817115
242	0xbe768db0	-0.24077487
243	0xc000e882	-2.0141912
244	0x3f4b6db2	0.79464257
245	0x3f8041c5	1.0020071
246	0x3f16a8b3	0.58851165
247	0x3f8fa984	1.1223607
248	0x3f14b134	0.5808289
249	0x3edbabbe	0.42904466
250	0x3fc78153	1.5586342
251	0xbe8cb559	-0.27482107
252	0x3ed000f9	0.40625742
253	0xbf1c5476	-0.6106638
254	0xc0241d95	-2.5643055
255	0xbf453bdb	-0.7704446

fc2.bias f4 [15]
0	0xbcc76b6c	-0.024343215
1	0xbfba7a14	-1.4568505
2	0xbeede4ba	-0.46463567
3	0x3fc4ea7e	1.5384061
4	0xbfdfca27	-1.7483567
5	0x3f987488	1.1910563
6	0xbea78520	-0.32718754
7	0x3ffaedfa	1.9603875
8	0x3fa088f2	1.2541792
9	0x3d1fd8f1	0.03902525
10	0x3f9d63c5	1.2296072
11	0xbf674bf5	-0.90350276
12	0x3fa7865f	1.3087882
13	0x3f241a86	0.6410297
14	0xc0338d6b	-2.8055065
