cem_cartpole_ep74_100.pth (torch_old, 8024 bytes, 4 tensors)

fc1.weight f4 [64, 12]
000000 a3 85 f7 3e 55 14 4a bf d4 01 9b 3e 43 98 f4 3e
       0.48344144 -0.78937274 0.30274832 0.47772416
000010 51 d5 3b bf 99 93 ba 3f 6c f9 d2 3e 47 45 1f c0
       -0.7337237 1.4576293 0.4120592 -2.4886034
000020 51 b1 2b 3f fa bf 12 bf c1 5c 3d bf c2 2a 42 bf
       0.6706744 -0.57324183 -0.73969656 -0.75846493
000030 5f 69 cc bf 28 f6 51 bf 28 3d 84 3f 09 87 9b bf
       -1.5969657 -0.8201623 1.0331163 -1.2150584
000040 04 87 a1 be b4 98 0a 3f 8d 1a 5c 40 7d 65 ca bf
       -0.3154832 0.54139256 3.4391205 -1.5812222
000050 93 ee 2e 3f 16 0a fa be 10 6b 13 bf d1 a1 c0 3e
       0.68332785 -0.4883582 -0.5758524 0.37623456
000060 18 8e bf 3e 3c 96 50 bf 2d c9 61 3f 67 bb 84 3e
       0.37413096 -0.8147924 0.88197595 0.25924227
000070 84 be 34 bf b9 aa 97 3f 5d 82 97 be 5d 80 92 3e
       -0.70603204 1.1848975 -0.29591647 0.28613558
000080 77 ef 96 bf ec 7d e0 be 14 d6 e8 bf b1 9e 8e 3e
       -1.1791829 -0.4384607 -1.8190331 0.27855447
000090 c9 38 5c bf e4 7a 82 3f 69 e1 63 bf e9 d7 1a bf
       -0.8602415 1.0193753 -0.89015824 -0.604857
0000a0 cb 47 7a bf b5 e2 f4 be 5e 5e 45 be 30 aa 84 3f
       -0.977658 -0.47829214 -0.1927428 1.0364437
0000b0 0a 81 45 bf 12 e0 a5 bf fd f2 b3 bf 6b 8d af 3f
       -0.77150023 -1.2959006 -1.4058529 1.3715032
0000c0 9e be 3c 3f 90 0c 80 3f b7 de bc 3f 7a f5 e1 bf
       0.7372836 1.0003834 1.4755467 -1.7653039
0000d0 76 45 dc 3e 22 34 10 c0 2a c2 7c 3f 94 c2 24 c0
       0.43021744 -2.253182 0.9873377 -2.574376
0000e0 fe 32 70 3e 9b f5 67 bf f1 ef a1 bd bf 25 1b 3f
       0.23456952 -0.9060914 -0.07907093 0.6060447
0000f0 21 87 67 40 e2 a4 d8 bf 8c 74 e6 3d ec cf 99 bc
       3.6176226 -1.6925318 0.11252698 -0.018775903
000100 d2 0c 30 bf 6b f5 83 bf 0f 94 0d 3f 58 60 48 3f
       -0.6876956 -1.0309271 0.55304044 0.7827201
000110 ef 21 e7 bf f1 e3 24 c0 fb 52 f7 bf 06 fc 6c 3f
       -1.8057231 -2.5764124 -1.9322199 0.9257206
000120 22 e1 fc be d1 84 64 bf 7b cb 22 bf 77 bc 42 bf
       -0.49390513 -0.8926516 -0.63591737 -0.76068825
000130 b2 04 cc 3f 78 b4 8c 3e 67 ff 64 3f 59 ed 91 3f
       1.5938933 0.27481437 0.89452213 1.1400558
000140 6b 2a e4 bd 7e 51 96 bf e0 7f 3c 3f 7e 4b 1a 3e
       -0.11140903 -1.174362 0.7363262 0.1506786
000150 e1 ed 71 3f b0 70 ae 3f 45 93 a2 bf 08 de 41 3d
       0.945036 1.362814 -1.2701193 0.047330886
000160 f4 fb 21 bd 10 a3 8a 3e 92 3f 80 3c fe c5 c2 3c
       -0.03954692 0.27077532 0.015655313 0.02377605
000170 54 9e 3d be d0 06 92 bf 8a 52 3f c0 49 ae 3e bf
       -0.18517429 -1.1408329 -2.9894128 -0.7448469
000180 a3 6e 9a bf cf ae a4 bf 8f 55 0c bf de 23 22 bf
       -1.2065014 -1.2865847 -0.5481805 -0.6333598
000190 d1 30 8b 3f 64 79 cc 3e d1 9f dd 3e 59 2f 1c 3f
       1.0874273 0.39936364 0.43285993 0.61009747
0001a0 78 17 38 3f c9 7f bf 3f 49 cc 49 bf 9c 0b 91 bd
       0.7191081 1.4960872 -0.7882734 -0.070822924
0001b0 be 01 49 bf 6c 8c 6b 3e ed 0b 4c bf e3 49 2a 40
       -0.78518283 0.23002785 -0.797057 2.6607597
0001c0 58 c9 12 3f 27 f5 2e 3f 21 f6 18 c0 3b af a5 bf
       0.57338476 0.6834282 -2.3900225 -1.2944101
0001d0 9f 48 c7 3e 0c 3d ec 3f ea 60 60 bf 9a 10 5a 3a
       0.38922593 1.845613 -0.8764788 0.0008318514
0001e0 e3 67 c3 bc 5e c6 ef 3f d6 f0 0b bf 7a 3a ea 3e
       -0.023853248 1.8732412 -0.5466436 0.4574774
0001f0 87 1d 28 be c0 42 b9 3f 8b b5 2b bf 40 78 d9 be
       -0.16417514 1.4473495 -0.6707389 -0.42474556
000200 b3 63 60 be c5 32 bc 3e 07 2f 29 3f 36 99 cc bf
       -0.21913032 0.36757484 0.66087383 -1.5984256
000210 53 9c 21 bf e9 fe fd 3f b4 e0 37 3f 5e b0 20 bd
       -0.63129157 1.9843417 0.71827245 -0.039230697
000220 9d 29 c5 bf df 2c b7 bd 59 43 4e bd ec 56 38 bf
       -1.5403324 -0.08944105 -0.050357196 -0.7200763
000230 7a 3a 0c bf 05 60 58 bf 12 c9 8d 3e 6d 62 57 3c
       -0.5477673 -0.84521514 0.27692467 0.013146025
000240 36 a6 09 bf ad 97 c6 3f 04 32 7d 3e 0e f3 92 3f
       -0.5376924 1.5515038 0.2472611 1.1480424
000250 6c c8 06 3f 80 c3 82 bf 24 aa 60 3e 14 c5 de 3e
       0.5264957 -1.0215912 0.21939903 0.43509734
000260 9f 91 86 3f d8 af 11 c0 41 c1 b7 bf 69 95 45 3f
       1.051319 -2.2763577 -1.4355851 0.77181107
000270 15 72 84 3f f2 e7 96 3e 21 5b 65 3f e0 e6 b6 3e
       1.0347315 0.29473835 0.89592177 0.3572302
000280 c6 d4 d9 3f d6 09 c7 bf 15 5b 54 bd c5 93 97 3e
       1.7018058 -1.5549877 -0.051844675 0.29604927
000290 02 ab 25 c0 11 1b 16 be 9a 0d f8 bf db bb ca 3e
       -2.5885625 -0.14658763 -1.9379151 0.39596447
0002a0 39 f4 c7 3e 62 4c 2a 3f 3e 49 90 3f 2b 2e 14 bf
       0.39053515 0.665228 1.1272352 -0.57882947
0002b0 6d 6f 87 bf 54 97 bd bf 9f ab da bf d2 a6 c8 3f
       -1.058088 -1.4811807 -1.7083625 1.567591
0002c0 06 6b 6a 3e aa a0 3b bf 02 7d 7d bf 55 e8 76 3f
       0.22892389 -0.7329203 -0.9901887 0.9644826
0002d0 33 84 7c 3f e4 b9 69 be 9b 33 b3 3f 52 2c 16 bf
       0.9863922 -0.22824818 1.4000124 -0.5866138
0002e0 0f ea b8 3f 6a 38 16 c0 98 1e 99 3f d1 4a 56 3f
       1.4446429 -2.3471932 1.1962461 0.8370791
0002f0 40 9c 9a 3f 4b 39 8d be 4d 35 a4 be 79 37 06 bf
       1.2078934 -0.27582774 -0.32071915 -0.52428395
000300 24 ec 21 3f 93 93 e9 3e 90 fe 11 bf 68 f4 86 be
       0.63250947 0.45620403 -0.57029057 -0.26358342
000310 2f 83 18 bf d3 1f f4 be d8 33 19 be b2 54 41 3c
       -0.5957517 -0.4768053 -0.14961183 0.011799978
000320 35 e3 73 3f f2 1b 3f 3f 14 ee 38 3f 64 32 23 be
       0.95268565 0.74652016 0.7223828 -0.15937191
000330 35 95 02 3f 21 2b dc 3f 39 e2 32 3f 50 c5 70 bf
       0.5100892 1.7200662 0.6987644 -0.94051075
000340 a5 f6 48 3f 2e 5a df bf c8 52 48 bc 4b 33 1c 3f
       0.7850135 -1.7449396 -0.012226768 0.61015767
000350 7f f0 c9 3e 82 24 23 bf 10 a3 52 3f 72 ad ca 3f
       0.39441296 -0.6372758 0.82280064 1.5834181
000360 cd c4 73 bf 1f 9f 64 3e cd 2d ef bf 4c 0c 15 bc
       -0.9522217 0.22326325 -1.8685852 -0.00909717
000370 4c a9 8d 3b b3 63 e4 3e a8 fa 73 3f e2 1a 64 3e
       0.0043231603 0.44607314 0.95304346 0.2227588
000380 ae d0 cb bf 84 56 2b be ee 1a e0 bf 5a bd 5a 3d
       -1.5923059 -0.16732222 -1.7508218 0.053403236
000390 b8 c3 a7 bf e2 cd bf 3e e4 da 5a be 10 7d 36 3f
       -1.3106604 0.37461764 -0.21372563 0.7128458
0003a0 74 5a 94 bf 39 6f dc 3d c6 1a 35 3f 22 d1 23 bf
       -1.1590104 0.107634015 0.7074398 -0.63990986
0003b0 ef a6 08 3d e3 1b 17 bd 21 f1 1e 3f 0d 30 9b bf
       0.033362325 -0.03689183 0.62086684 -1.2124039
0003c0 94 1f 1c bf cd 85 29 bf 9b a5 3c 3e 16 e3 73 bf
       -0.60985684 -0.6621979 0.18422548 -0.9526838
0003d0 ba a3 0b c0 4b e1 92 3e b5 ec 34 c0 78 95 dc be
       -2.181868 0.2868751 -2.8269475 -0.43082786
0003e0 cc 8d 5a 3f 2d 5b b7 3f 12 85 1e bf ba db ff 3e
       0.85372615 1.43247 -0.619218 0.49972326
0003f0 d7 3d 1c bf 88 9e d9 3f 21 7d 62 bf d9 56 ea bd
       -0.6103186 1.7001505 -0.8847218 -0.11442346

fc1.bias f4 [64]
000000 da bd 9a bf 28 76 14 3f 4e de d1 3e e1 64 29 bf
       -1.2089188 0.5799279 0.40989918 -0.66169554
000010 aa 9f f7 be fd 55 27 3f cd 20 74 bf fc 9c af bf
       -0.48364002 0.6536558 -0.9536255 -1.3719783
000020 20 d4 73 bf 47 7d 96 bc 61 ec 6a be 7a a6 49 40
       -0.9524555 -0.018370284 -0.22941734 3.150786
000030 4a d6 9d 3f 35 37 91 3e 0e 29 95 bf d3 28 2c 40
       1.2331021 0.28362432 -1.1653154 2.6899917
000040 2b 0d b9 bf 57 51 38 bf e6 63 10 bf 11 18 2c 3f
       -1.4457144 -0.71999115 -0.5640243 0.6722422
000050 4a 04 97 bf 8a 16 55 bf f9 e9 02 3f 80 4a 10 c0
       -1.1798184 -0.83237517 0.51138264 -2.254547
000060 ef ab 43 bf 9a c4 00 be c9 43 bb bf 06 85 9d bf
       -0.76434225 -0.12574998 -1.4630061 -1.230622
000070 11 e4 3c 3f 07 7c 04 c0 c4 9c 88 bf 90 95 0a 40
       0.737855 -2.07007 -1.0672841 2.1653786
000080 6f 5d e1 bd d0 40 98 3c d9 f0 13 3e 69 05 83 3f
       -0.11004149 0.018585593 0.14447345 1.0236026
000090 6b c3 1a bf 98 58 f9 3f 00 44 92 bf 15 eb 69 3f
       -0.60454434 1.9480162 -1.1427002 0.9137433
0000a0 08 75 08 3f 27 7d 13 bf a7 3f 46 40 66 27 7f 3f
       0.53303576 -0.5761284 3.097635 0.9966949
0000b0 da bb 82 be 54 bb d4 3f a6 c0 6e 3f 4d 36 5a bf
       -0.25533944 1.6619668 0.9326271 -0.85239106
0000c0 99 83 a3 3f 4b fe 91 bf 4e 49 34 3f 5d 55 0f c0
       1.2774535 -1.1405729 0.70424354 -2.2395852
0000d0 8d 00 a7 be b6 29 75 3f cc 46 2f bf f4 1a c6 3e
       -0.32617608 0.9576677 -0.684674 0.3869244
0000e0 f3 60 76 3f 57 17 cf 3e 8a a5 b7 3e 09 d5 d4 be
       0.9624168 0.40447494 0.35868484 -0.41568783
0000f0 f6 d3 b6 bf 17 c0 88 3e 16 5f 2e bf 6c 27 29 3f
       -1.4283435 0.26709053 -0.6811384 0.6607578

fc2.weight f4 [15, 64]
000000 a7 75 81 3e 00 ee b5 be d3 8a 8b bf a1 ec c0 bf
       0.25285074 -0.35533142 -1.0901741 -1.5072213
000010 10 09 91 3e b4 40 ea be 13 82 11 bf 39 6a 05 bf
       0.28327227 -0.4575249 -0.568391 -0.5211521
000020 d3 a3 c8 3e 7f 08 59 3f 76 85 42 40 6e 40 07 c0
       0.39187488 0.8477859 3.0393958 -2.1133075
000030 73 35 07 c0 ce fc 8b bf e1 42 1a bf f2 12 24 c0
       -2.1126373 -1.0936525 -0.602583 -2.5636563
000040 62 76 3d 3e 57 90 55 bd 4d e2 7f bf 09 95 f1 bf
       0.1850219 -0.052139606 -0.9995468 -1.8873607
000050 50 91 69 bf 2b 76 e7 3e 58 86 b5 3f a7 e3 c9 3f
       -0.91237354 0.45207343 1.4181623 1.5772599
000060 e7 b4 c3 bf 59 74 c4 3e 3b b3 5d bf 10 0d 95 3f
       -1.5289582 0.38370016 -0.8660161 1.1644611
000070 47 b9 93 3f ba e3 4a bf 2b 9b 2f 3f 69 f4 94 be
       1.1540917 -0.79253733 0.6859614 -0.2909272
000080 91 04 9f bd d1 2b 8b 3f 83 09 13 c0 89 33 c9 be
       -0.07764543 1.0872747 -2.2974555 -0.3929713
000090 43 9a 9a bf 6d 5d 90 bc 8d 54 b8 bf 46 73 4f be
       -1.2078327 -0.017622674 -1.4400803 -0.20258817
0000a0 f1 41 05 bf d9 cb 60 3f 1c b7 9c be a2 fd f0 be
       -0.52053744 0.87811047 -0.3060845 -0.47068506
0000b0 6a 14 c1 bf 46 f6 6c 3f 56 d6 f3 3f f7 03 7a 3e
       -1.5084355 0.92563283 1.9049785 0.24415575
0000c0 a5 2b b8 bf b7 ac 8e 3f 6b 4d cf bf 80 e8 f3 3f
       -1.4388319 1.1146458 -1.6195501 1.9055328
0000d0 0f e0 c1 bf 43 4b 9d 3b fe 3f f3 bd f4 a4 bc bf
       -1.5146502 0.0048002317 -0.1187744 -1.473784
0000e0 45 29 a4 be 88 c0 cf 3f 21 52 1b 3e 4a 31 53 bf
       -0.32062736 1.6230631 0.15168048 -0.82497084
0000f0 28 1f 79 bd ba 6a 0f 3e e0 1a b9 bf 52 18 7d be
       -0.06082073 0.14005557 -1.4461327 -0.24716309
000100 30 bb 9c bf dd 20 ad bf d4 5c 97 3f 22 17 7a 3f
       -1.2244625 -1.3525654 1.1825204 0.9769155
000110 87 4c ff 3d fd 3c a0 bf b0 b7 86 bf d8 a4 2c bf
       0.12465768 -1.2518612 -1.0524807 -0.6743903
000120 d9 50 72 3f 48 a1 07 3f 1b cb 69 3f 67 aa bc bf
       0.94654614 0.5298047 0.9132554 -1.4739503
000130 53 55 f7 bf f8 56 41 c0 ff 0a bb 3e 8f 23 df bf
       -1.9322914 -3.0209332 0.36531827 -1.7432727
000140 95 b0 ca 3b 72 d3 24 bf 73 20 55 3d a3 65 b8 3e
       0.006185601 -0.6438514 0.0520329 0.36015043
000150 c7 50 8f bf 55 b4 57 be c7 02 ac bf 6a b6 55 bf
       -1.1196526 -0.21064885 -1.3438348 -0.83481467
000160 c9 fb 2c be 6d 30 03 3f 81 e0 a1 bf 95 fc 34 bf
       -0.16892923 0.51245767 -1.2646638 -0.7069791
000170 d0 94 1e 3f 88 b7 e0 3f a9 07 27 3f 76 af 59 be
       0.6194582 1.7556009 0.65246063 -0.2125834
000180 83 b6 72 be 10 43 af bc fc 64 5b bf 7a 47 46 bd
       -0.23702435 -0.021394283 -0.85700965 -0.04840801
000190 90 a7 94 bf 4e 17 fa 3e b6 2d 25 c0 9f 77 34 3f
       -1.1613636 0.48845905 -2.580915 0.7049503
0001a0 5b 23 d9 bf a6 fa cb 3e 65 d5 94 be 3b b6 8e 3f
       -1.6963915 0.39839667 -0.29069057 1.1149362
0001b0 47 5d b5 bf 7d 6f 15 3f 2f 4d 9c bf 11 98 01 3f
       -1.4169091 0.5837324 -1.2211055 0.5062266
0001c0 b3 71 b8 be e8 49 a5 bf fa f8 61 3e d6 34 6e be
       -0.36024246 -1.2913179 0.22067633 -0.23262343
0001d0 51 fe b4 bd d7 e4 5b 3f 2b 04 cb 3f d2 be e2 3e
       -0.088375695 0.85896057 1.5860647 0.4428621
0001e0 2f eb a4 bf 42 c7 2e bf 04 99 82 bc 3f db c7 3e
       -1.2884272 -0.68272793 -0.015942104 0.3903446
0001f0 aa 87 2c 3f 2d 77 c6 bf b4 3d 8b 3f 81 18 c9 3f
       0.67394507 -1.550512 1.0878205 1.5710603
000200 7f c6 ec 3e 8a 26 55 bf c5 79 ff 3f c3 12 22 bf
       0.4624519 -0.8326193 1.9959036 -0.6330988
000210 4b 12 ee 3f 3f 22 cc bd b2 bc 04 be 64 9e 8c bf
       1.8599333 -0.099674694 -0.12962607 -1.0985837
000220 99 d8 b5 bf c2 38 d1 bd 53 2c 17 c0 6a 5c 27 3c
       -1.4206725 -0.10215904 -2.3620803 0.010214904
000230 0b 32 6c 3e dd 1a d0 bf 0a 0a 19 3f 2c 11 93 3d
       0.23065965 -1.6258198 0.59780943 0.0718101
000240 4d 4f 33 bf 1b f6 df bf d9 6a f2 bc 5b d4 86 3c
       -0.7004288 -1.749698 -0.029591965 0.01645868
000250 af ac 01 3f 00 23 30 3f c6 19 a0 3e 38 0f b7 3f
       0.5065412 0.68803406 0.31269664 1.4301519
000260 12 bf e7 bf e7 22 be 3f fd ff 12 bf 60 10 d8 3c
       -1.8105185 1.4854401 -0.5742186 0.026374996
000270 59 73 bf bf ea cc 04 3f 44 12 c7 3e 26 81 b9 3f
       -1.4957076 0.51875174 0.38881123 1.4492538
000280 a3 a0 b2 bf 3e 17 3c c0 40 b7 5f bf b3 7c 9d 3f
       -1.3955272 -2.9389186 -0.8738899 1.230368
000290 c0 3e b5 bf d4 f5 c2 3f be c2 90 bf 78 59 3f bf
       -1.4159775 1.5231271 -1.1309431 -0.74745893
0002a0 50 82 4c bf f7 f1 2a bf 60 53 3e bf 51 c9 1e 3f
       -0.7988634 -0.6677546 -0.7434597 0.62025934
0002b0 ef 3b 97 3e 5f 20 cc bf 92 d4 0a c0 de 4f 14 3d
       0.29537913 -1.5947379 -2.1692243 0.03620898
0002c0 d2 a6 ab bf 34 55 33 be fe 3a 1e 3f 9a 52 de bf
       -1.3410285 -0.17512971 0.61808765 -1.7368958
0002d0 e1 18 5c 3f 70 71 f9 bd d2 3b dc 3e a2 af a9 bf
       0.8597546 -0.121798396 0.4301439 -1.3256724
0002e0 3e e5 3c c0 66 12 86 bf c4 d2 9b be 0f 90 a8 3e
       -2.9514918 -1.0474365 -0.3043424 0.32922408
0002f0 b4 15 36 bf e3 9e dc bf 65 8d b5 be e5 c4 31 3f
       -0.71126866 -1.7235988 -0.35459438 0.6944106
000300 ba e2 58 bf f0 04 a8 be 23 1e b4 3f 24 80 c5 3e
       -0.8472096 -0.32816267 1.4071697 0.38574326
000310 ea 26 a9 be 3c 1a 35 40 6b 73 fc bf 73 0b 9a be
       -0.33037502 2.8297262 -1.9722723 -0.3008686
000320 71 c1 3d bf 2e 1d 74 be 5e 60 07 bf b0 5e 3a bf
       -0.74123293 -0.23839256 -0.5288142 -0.7280073
000330 55 8c 2f bf 77 a4 f5 be 92 5a de 3e 57 9d 1e 3e
       -0.68573505 -0.4797704 0.43428475 0.15489708
000340 1e f6 f3 be 57 5e 89 3e 45 3b bc bf a6 16 54 bf
       -0.4764871 0.26829788 -1.4705588 -0.8284706
000350 e9 85 44 be 3e c2 80 bf 45 21 78 3f 7d 68 cf 3f
       -0.19191708 -1.0059278 0.96925765 1.6203762
000360 e9 c7 16 3f aa 09 51 3f c4 72 17 c0 f0 58 fd 3e
       0.5889879 0.8165537 -2.3663797 0.49481916
000370 83 c2 e1 be 34 a9 97 3f 8b 95 4e 3f 0c 56 e7 3f
       -0.44093713 1.1848512 0.80696934 1.8073134
000380 76 eb 46 3f 82 c5 1b bf 6c 27 04 3f b0 77 0e c0
       0.77703035 -0.6084825 0.51622653 -2.2260551
000390 81 25 b1 3d 64 cd 67 3f 1a 96 5a 3f 9c f1 8a bf
       0.086497314 0.90547776 0.85385287 -1.0854983
0003a0 b9 68 88 bf 07 03 93 bf 16 9d a6 bf cb 4f e1 bf
       -1.0656959 -1.1485299 -1.3016689 -1.7602476
0003b0 de 1b 62 be af 69 1b bf 15 19 43 c0 34 96 cf 3e
       -0.22080943 -0.60708135 -3.048406 0.40544283
0003c0 b2 6b 34 3f 61 67 57 3d 00 df cc 3b 47 e5 eb be
       0.7047683 0.052588824 0.0062521696 -0.46073362
0003d0 2a 1d a1 be 80 9e 4f 3f fa 8d c6 bf 90 35 4e be
       -0.31467563 0.81101227 -1.5512078 -0.2013762
0003e0 55 43 c6 bf 55 2b ea bf b9 bf 30 3f 22 a7 1b bf
       -1.5489298 -1.8294474 0.69042546 -0.608019
0003f0 56 48 82 be ed 7d e1 3e 25 e3 18 bf 89 0c 49 bf
       -0.25445813 0.44041386 -0.59721595 -0.7853475

fc2.bias f4 [15]
000000 08 cc d2 3f dd 20 c1 3f 12 ff a2 bf b0 e3 20 c0
       1.6468515 1.5088154 -1.2734091 -2.513897
000010 84 1f e7 3f 92 ad 2d bf e1 07 1a bf 23 66 78 3f
       1.8056493 -0.6784297 -0.6016827 0.9703085
000020 65 2b ef bf 9b 99 f1 bf c8 06 68 be 95 ae d1 bf
       -1.8685118 -1.8875002 -0.22658837 -1.6381403
000030 bb c5 55 3f ae 6a 2a 40 61 30 8d bf
       0.8350484 2.6627612 -1.1030389
