cem_cartpole.pth (torch_old, 8024 bytes, 4 tensors)

fc1.weight f4 [64, 12]
-0.33876318 -0.04301708 -0.50491667 -0.41372684 0.06200641 0.4089065 -0.35055262 0.18809894
-0.08655078 -0.13901089 -0.7530769 -0.034475114 0.32581174 0.70596427 0.18196641 0.57873136
-0.27305785 0.44342262 -0.58408713 -0.8416878 0.35259816 0.07759777 0.25559872 0.6105313
-0.28158665 -0.17198704 0.301723 0.26515198 -0.46205294 0.03390518 -0.0634141 0.32588208
0.50623447 -0.7297917 0.06482585 0.10587904 -0.7791656 0.31933454 0.044531275 0.20678978
-0.1366496 0.62161607 -0.24316384 -0.08442741 0.059496373 0.16402996 -0.08493828 -0.13940516
0.16151941 -0.114967704 0.3813912 -0.66502553 -0.18161373 0.8471464 0.2546642 -0.85645586
-0.40321425 0.24782284 0.036038887 -0.40667415 0.3223077 0.5808948 0.15228178 -0.6030324
-0.31967995 -0.22273524 -0.18080305 -0.07003341 -0.18511535 0.093636185 -0.5894904 -0.44306824
-0.082468905 0.5098332 0.51598823 0.12567066 0.6407386 -0.8412918 0.11454774 0.15652956
0.6816167 -0.25444725 0.11565828 1.1665528 0.61037976 0.35254982 0.37092432 -0.2047926
-0.55385417 0.0153841 0.28645384 0.22643587 -0.39754942 0.49205494 -0.3123497 -0.00090410566
-0.08774971 0.41764945 0.042232595 -0.30303535 0.297296 -0.12812385 0.35391816 0.00011100826
0.039252006 0.30805203 0.38005605 -0.38826782 0.8369557 -0.6064414 -0.04514401 -0.48020414
0.06627938 -0.19226961 -0.37800783 0.40824154 0.3203537 0.24260347 -1.2181039 -0.4869802
0.12695183 0.45174196 -0.8103448 0.040431138 0.59423757 0.18564048 -0.20520933 0.34056464
-0.40653974 0.056736033 0.094725996 -0.23718627 -0.5942872 -0.23413403 -0.1560324 0.5639511
-0.5052183 -0.24654278 0.47104195 0.0070224903 -0.5382928 -0.788692 -0.33201364 -0.6198678
0.3663945 0.27595606 -0.37744904 0.17818087 -0.11817275 -0.113263026 0.44379225 -0.60317683
0.13610908 -0.39819962 -0.34200254 0.4172646 0.550469 -0.25558373 -0.22394137 0.39265323
0.28696877 0.8803022 0.108943135 0.061280098 -0.21481745 0.3161264 0.49849674 0.05798616
-0.40365058 0.51602626 0.28239658 -0.15846094 -0.00802597 0.21381058 -0.84765524 -0.097775504
0.44735217 -0.17484431 0.13494423 -0.25827807 -0.091802344 0.106483676 -0.13563652 -0.24293017
1.2239738 -0.1498207 0.380151 -0.18358009 0.39831883 -0.3130603 -0.52782357 -0.83126515
0.3101539 -0.30318204 0.01389536 0.21103074 -0.26826295 0.08033201 -0.4469958 -0.55956316
-0.29697344 0.05553708 0.21341838 0.25130948 -0.15846045 -0.23061281 -0.69206804 0.3778081
0.51725715 0.13292496 0.8095146 0.12785876 -0.21417472 0.44781533 0.3699011 -0.08585383
-0.49688265 -0.30551556 0.111779206 -0.19269039 -0.51993334 -0.55831575 -0.54161495 0.028502546
-0.09927845 0.18019333 0.19361311 0.10249384 -0.27814755 -0.2583364 0.13199015 -0.078917235
0.5117386 0.19694725 -0.42575097 -0.42011905 -0.08408555 -0.080498554 0.44640684 -0.39714321
-0.13969758 -0.051863246 -0.43038148 0.40972766 0.499636 0.13719307 -0.27633262 -0.10753933
-0.21354401 0.07410792 -0.5460459 -0.0068112523 0.112834215 0.50430715 -0.08510169 0.29175997
00000000: 5e72 adbe ad32 30bd 3842 01bf 01d4 d3be
00000010: 6ffa 7d3d 315c d13e a27b b3be 029d 403e
00000020: 8941 b1bd df58 0ebe a6c9 40bf c735 0dbd
00000030: ccd0 a63e 13ba 343f 6755 3a3e bd27 143f
00000040: 3dce 8bbe 4a08 e33e bc86 15bf da78 57bf
00000050: bf87 b43e 94eb 9e3d d6dd 823e c74b 1c3f
00000060: 202c 90be 5f1d 30be 707b 9a3e 00c2 873e
00000070: 3492 ecbe 28e0 0a3d 40df 81bd 04da a63e
00000080: 9598 013f a1d3 3abf 6ac3 843d 1cd7 d83d
00000090: 6677 47bf d17f a33e 6d66 363d b3c0 533e
000000a0: dfed 0bbe 3b22 1f3f f1ff 78be 47e8 acbd
000000b0: 78b2 733d 78f7 273e 1ff4 adbd 3ac0 0ebe
000000c0: 5865 253e 3074 ebbd b545 c33e 1d3f 2abf
000000d0: f3f8 39be 96de 583f 5963 823e b140 5bbf
000000e0: 1972 cebe 45c5 7d3e 839d 133d 9837 d0be
000000f0: 8405 a53e 86b5 143f c1ef 1b3e 5560 1abf
00000100: 17ad a3be b514 64be 6f24 39be ad6d 8fbd
00000110: e18e 3dbe 54c4 bf3d d8e8 16bf d7d9 e2be
00000120: 75e5 a8bd 6e84 023f ce17 043f cfaf 003e
00000130: 7207 243f e65e 57bf 0198 ea3d 4949 203e
00000140: 6f7e 2e3f e946 82be 40de ec3d 9a51 953f
00000150: d941 1c3f 6981 b43e cbe9 bd3e 27b5 51be
00000160: 63c9 0dbf 980d 7c3c 14aa 923e cede 673e
00000170: 998b cbbe a0ee fb3e 4dec 9fbe 8101 6dba
00000180: 1fb6 b3bd 26d6 d53e 16fc 2c3d 7327 9bbe
00000190: 2e37 983e e632 03be c334 b53e 1bcd e838
000001a0: b6c6 203d ffb8 9d3e b596 c23e 0acb c6be
000001b0: bb42 563f be3f 1bbf ede8 38bd 51dd f5be
000001c0: 7cbd 873d 53e2 44be 3e8a c1be 0905 d13e
000001d0: 6605 a43e 0b6d 783e d4ea 9bbf 7855 f9be
000001e0: a9ff 013e b94a e73e c272 4fbf 1f9b 253d
000001f0: f41f 183f 8a18 3e3e 6522 52be 7d5e ae3e
00000200: fa25 d0be 0b64 683d b4ff c13d f5e0 72be
00000210: 3523 18bf d5c0 6fbe f5c6 1fbe 195f 103f
00000220: fd55 01bf b675 7cbe 692c f13e eb1c e63b
00000230: 8fcd 09bf b8e7 49bf b1fd a9be a8af 1ebf
00000240: 0f98 bb3e 1d4a 8d3e 0041 c1be 0c75 363e
00000250: 8e04 f2bd 72f6 e7bd bd38 e33e cc69 1abf
00000260: 2e60 0b3e d2e0 cbbe f51a afbe b5a3 d53e
00000270: 89eb 0c3f dfdb 82be e350 65be d809 c93e
00000280: 92ed 923e 7c5b 613f 941d df3d d700 7b3d
00000290: 1bf9 5bbe 52db a13e f73a ff3e e582 6d3d
000002a0: 4aab cebe 4c1a 043f 4996 903e 9643 22be
000002b0: 5c7f 03bc 29f1 5a3e efff 58bf 863e c8bd
000002c0: 580b e53e 630a 33be d22e 0a3e 063d 84be
000002d0: de02 bcbd 1d14 da3d 4de4 0abe b0c2 78be
000002e0: 2cab 9c3f 996a 19be 27a3 c23e 6bfc 3bbe
000002f0: 72f0 cb3e 7149 a0be 721f 07bf cbcd 54bf
00000300: 7ecc 9e3e ad3a 9bbe 5da9 633c 7118 583e
00000310: c359 89be 1c85 a43d a2dc e4be 883f 0fbf
00000320: e70c 98be d97a 633d 598a 5a3e a3ab 803e
00000330: 7543 22be c425 6cbe 5f2b 31bf 1070 c13e
00000340: f76a 043f 7b1d 083e 593c 4f3f 68ed 023e
00000350: 9e50 5bbe 0d48 e53e ad63 bd3e 22d4 afbd
00000360: 6767 febe 896c 9cbe 7fec e43d a150 45be
00000370: 5a1a 05bf c8ed 0ebf 47a7 0abf 2c7e e93c
00000380: 8052 cbbd 9a84 383e 8442 463e 4ae8 d13d
00000390: 5b69 8ebe ab44 84be 6d28 073e 5c9f a1bd
000003a0: 4d01 033f 8aac 493e 08fc d9be d819 d7be
000003b0: 0b35 acbd 6ddc a4bd 708f e43e 5b56 cbbe
000003c0: e20c 0fbe 8e6e 54bd f65a dcbe d3c7 d13e
000003d0: 4ad0 ff3e 577c 0c3e 787b 8dbe 953d dcbd
000003e0: 48ab 5abe e5c5 973d aac9 0bbf ed30 dfbb
000003f0: a015 e73d 461a 013f cb49 aebd 9061 953e

fc1.bias f4 [64]
-0.22482903 0.41098082 -0.29127213 -0.3342975 0.0778424 0.08710058 -0.070403166 -0.5804268
-0.021264225 0.3228133 -0.04601539 -0.23368847 -0.9807701 0.13573016 0.07617429 -0.024840726
-0.19678977 -0.11233404 -0.57265395 0.062628776 0.34421596 -0.17377521 0.12150207 -0.23518611
0.04455949 -0.2518752 0.2723713 0.21047986 0.18106201 0.23974484 0.34082377 -0.35503808
-0.22482768 -0.05973997 -0.19113648 0.27740088 -0.102575235 -0.35128158 -0.44977188 -0.24596219
-0.007301402 -0.72986984 0.14887157 0.65485173 0.19677661 0.24932547 -0.3299939 0.07396647
0.02251719 0.06932501 0.11664528 0.09485675 0.080032736 0.2232101 -0.13654955 0.7778292
-0.18834187 -0.8691651 0.18963411 0.6473183 -0.17315948 0.54863816 0.11529054 -0.20417958
00000000: 9539 66be 146c d23e 9f21 95be 0b29 abbe
00000010: d66b 9f3d ca61 b23d 892f 90bd da96 14bf
00000020: 5032 aebc c947 a53e a27a 3cbd 084c 6fbe
00000030: c013 7bbf d9fc 0a3e 4401 9c3d c77e cbbc
00000040: 4283 49be 640f e6bd 7399 12bf 8443 803d
00000050: 133d b03e 21f2 31be 14d6 f83d a1d4 70be
00000060: 0384 363d c9f5 80be 4074 8b3e 0888 573e
00000070: 5268 393e ac7f 753e 7480 ae3e 8dc7 b5be
00000080: 3a39 66be e6b1 74bd 48b9 43be 7d07 8e3e
00000090: f712 d2bd 2edb b3be 8048 e6be 83dd 7bbe
000000a0: 9940 efbb c0d8 3abf ca71 183e 5da4 273f
000000b0: cf7f 493e 2d4f 7f3e f6f4 a8be bc7b 973d
000000c0: f875 b83c 45fa 8d3d b8e3 ee3d 4144 c23d
000000d0: 34e8 a33d 3091 643e a5d3 0bbe d01f 473f
000000e0: b1dc 40be 9b81 5ebf 722f 423e a7b6 253f
000000f0: b850 31be 8d73 0c3f 721d ec3d 7414 51be

fc2.weight f4 [15, 64]
0.3331992 -0.251779 0.20874313 1.4259121 -0.09201986 -0.102340385 0.24780498 -0.27714175
-0.2496974 0.21085839 -0.67757404 0.5837095 0.4880577 0.40234798 -0.3448767 -0.041910425
0.6140508 -0.32100126 0.2611028 -0.12079799 -0.46786514 0.40800807 0.34658808 0.38275227
-0.4842731 0.03248261 0.31721684 0.23072761 -0.17469887 0.27031937 -0.05980725 -0.19883731
-0.08152489 -0.56885195 -0.42027903 0.26358727 0.43704233 0.4192722 0.021838648 0.42558393
0.45756346 -0.21378778 -0.5875284 0.345493 -0.17469792 -0.31369814 -0.44379577 -0.17929251
0.36685044 0.03878471 0.79792976 0.05224264 -0.6045392 -0.1694826 -0.0445597 -0.07279312
-0.5352328 0.08762399 -0.028548641 0.36816633 -0.42622238 -0.049289312 0.121895716 0.19116373
0.2927321 -0.30439925 -0.0016168567 -0.16199802 0.7576796 0.48877138 -1.0845715 0.0013225429
0.43597525 -0.35608378 -0.21469742 -0.458456 0.070251234 0.17510407 0.014849393 0.4256274
1.0344616 0.17056979 -0.007091666 0.025400441 0.026890505 0.27119833 -0.72935396 -0.54974484
-0.26546505 0.48919404 0.26097077 -0.4929237 -0.29830077 -0.8510798 -0.75585717 -0.54756606
-0.6611072 0.2329658 0.390354 0.15456934 0.0061626094 0.29282284 -0.4073635 -0.78342676
-0.06039884 0.28084114 -0.10927104 0.56761605 -0.032263726 0.2806767 -0.4026751 -0.11807734
-0.50301737 0.3601116 -0.039372314 0.15885393 -0.48445523 0.1378566 -0.36175105 0.3111881
0.13514525 0.4830227 0.7276492 -0.122039646 0.26367322 0.40921256 0.7912467 0.40533856
-0.15125364 -0.5552815 0.08719316 0.15862808 -0.046618618 0.30475488 -0.12025574 -0.06037881
-0.27619243 -0.1288436 0.24927808 0.6226898 0.076867625 0.04614258 0.089090176 -0.56976676
-0.062231157 -0.7352514 0.07141256 0.14659078 -0.9252726 0.29501793 -0.16912019 0.2189679
0.4543259 0.5824161 0.43542904 -0.12007629 -0.50526196 0.7723412 0.10709562 -0.28648195
0.18805878 0.09636465 -0.048426848 0.09488333 0.99811494 -0.49332213 -0.6535349 0.16928639
-0.8280554 0.21333879 0.16645989 -0.15917218 -0.53969556 -0.3150573 -0.054652758 -0.5711347
-0.1791551 0.19680104 0.12203858 0.12422527 -0.49290654 0.07024583 -0.046488974 -0.09378681
0.27604982 -0.77962244 0.34057042 -0.27253538 -0.22628024 0.1457586 -0.3669998 -0.22169228
0.49945617 0.85927373 -0.23167299 0.10796289 -0.36986506 0.060339797 0.006471641 0.20051797
0.3389091 0.24495983 -0.21284597 -0.39971662 -0.13091597 0.5203191 0.079154395 -0.14273752
-0.06894366 0.030833943 0.62553763 0.07018714 -0.45114246 0.32801196 -0.25237066 -0.24936262
-0.26083082 -0.5496012 -0.44743714 -0.5949255 -0.61455417 -0.024598947 -1.0279458 0.4322897
-0.9688263 -0.0068185865 -0.8010043 0.26090336 0.51280725 0.13621423 -0.28904545 -0.29351953
-0.39868662 0.021616532 0.7395717 -0.008179464 0.054916054 0.23010407 -0.27152163 -0.041407865
-0.12976947 -0.09157256 -0.1737873 0.32610396 0.36485407 0.1851524 0.32125163 -0.12838404
-0.13695452 0.12446715 0.30005231 0.22598602 0.0405839 0.34760594 -0.00830821 -0.32701433
00000000: 1699 aa3e 2de9 80be c2c0 553e 4a84 b63f
00000010: e974 bcbd d697 d1bd 97c0 7d3e 86e5 8dbe
00000020: adb0 7fbe 43eb 573e 7e75 2dbf fc6d 153f
00000030: b3e2 f93e 8e00 ce3e ae93 b0be 44aa 2bbd
00000040: 6f32 1d3f 475a a4be 44af 853e f064 f7bd
00000050: 058c efbe 6fe6 d03e fe73 b13e 1bf8 c33e
00000060: a5f2 f7be 7c0c 053d 3f6a a23e dc43 6c3e
00000070: 43e4 32be 4d67 8a3e 72f8 74bd 029c 4bbe
00000080: 86f6 a6bd 48a0 11bf d02e d7be e9f4 863e
00000090: 03c4 df3e d9aa d63e f7e6 b23c 23e6 d93e
000000a0: c245 ea3e 2feb 5abe 4368 16bf 75e4 b03e
000000b0: 03e4 32be 0b9d a0be 3339 e3be 7598 37be
000000c0: d2d3 bb3e b7dc 1e3d 2045 4c3f 61fc 553d
000000d0: 15c3 1abf d98c 2dbe 3b84 36bd 8f14 95bd
000000e0: 0405 09bf 3574 b33d d7de e9bc 4c80 bc3e
000000f0: d239 dabe 97e3 49bd 76a4 f93d 6dc0 433e
00000100: fbe0 953e 38da 9bbe b5ec d3ba cfe2 25be
00000110: 4af7 413f 3e40 fa3e 3dd3 8abf 2d59 ad3a
00000120: 2638 df3e 9d50 b6be a4d9 5bbe bfba eabe
00000130: e1df 8f3d 7b4e 333e de4a 733c d6eb d93e
00000140: 3d69 843f d9a9 2e3e 3561 e8bb 9614 d03c
00000150: 7a49 dc3c 82da 8a3e f1b6 3abf 14bc 0cbf
00000160: 09eb 87be a477 fa3e f69d 853e 7f60 fcbe
00000170: e1ba 98be 5ee0 59bf db7f 41bf 4a2d 0cbf
00000180: 523e 29bf 968e 6e3e 7bdc c73e 6d47 1e3e
00000190: b7ef c93b e0ec 953e f391 d0be a88e 48bf
000001a0: c664 77bd 69ca 8f3e 7fc9 dfbd 494f 113f
000001b0: f826 04bd dbb4 8f3e 6e2b cebe 88d2 f1bd
000001c0: bfc5 00bf 8c60 b83e dd44 21bd 9baa 223e
000001d0: 840a f8be 482a 0d3e 6f37 b9be 0c54 9f3e
000001e0: 8463 0a3e c04e f73e 3847 3a3f ecef f9bd
000001f0: 2d00 873e 4f84 d13e 258f 4a3f 8988 cf3e
00000200: 3ce2 1abe ee26 0ebf 5492 b23d 666f 223e
00000210: 2af3 3ebd d508 9c3e a448 f6bd c54f 77bd
00000220: 1869 8dbe 94ef 03be c142 7f3e 9968 1f3f
00000230: c66c 9d3d 0100 3d3d e974 b63d 3cdc 11bf
00000240: 19e6 7ebd 7039 3cbf c040 923d e51b 163e
00000250: aade 6cbf 970c 973e d82d 2dbe 1f39 603e
00000260: 689d e83e 3919 153f 8ef0 de3e 8fea f5bd
00000270: d958 01bf 27b8 453f f354 db3d c3ad 92be
00000280: 7b92 403e d45a c53d 3b5b 46bd 3152 c23d
00000290: 7684 7f3f b894 fcbe 104e 27bf 6959 2d3e
000002a0: 70fb 53bf 7c75 5a3e 7674 2a3e 08fe 22be
000002b0: 7d29 0abf 314f a1be 92db 5fbd e235 12bf
000002c0: 6f74 37be 3686 493e 5def f93d d169 fe3d
000002d0: 3f5e fcbe 0cdd 8f3d 396b 3ebd 4d13 c0bd
000002e0: 6756 8d3e 5695 47bf 3f5f ae3e c289 8bbe
000002f0: 02b6 67be be41 153e 66e7 bbbe 4d03 63be
00000300: b8b8 ff3e 5df9 5b3f af3b 6dbe a61b dd3d
00000310: f45e bdbe dd26 773d 0f10 d43b 9554 4d3e
00000320: 7e85 ad3e c0d6 7a3e 4bf4 59be a8a7 ccbe
00000330: d60e 06be a233 053f b31b a23d c929 12be
00000340: 5532 8dbd 7797 fc3c 3c23 203f 46be 8f3d
00000350: 25fc e6be 2ff1 a73e ba36 81be ea58 7fbe
00000360: 9e8b 85be aab2 0cbf 7b16 e5be 0a4d 18bf
00000370: 6c53 1dbf bb83 c9bc ba93 83bf 1355 dd3e
00000380: 0005 78bf 736e dfbb 9e0e 4dbf 2095 853e
00000390: 5647 033f be7b 0b3e c4fd 93be 3148 96be
000003a0: a720 ccbe 2715 b13c 9254 3d3f 2903 06bc
000003b0: a8ef 603d 67a0 6b3e e204 8bbe 4b9b 29bd
000003c0: 4ae2 04be 658a bbbd 4cf5 31be 19f7 a63e
000003d0: 27ce ba3e 9798 3d3e 187b a43e 1b77 03be
000003e0: ce3d 0cbe a2e8 fe3d 75a0 993e e168 673e
000003f0: 4e3b 263d 68f9 b13e 291f 08bc 6c6e a7be

fc2.bias f4 [15]
-0.2750392 0.2279086 -0.121988766 -0.35042998 0.12272515 0.06373536 0.03860198 0.04078915
-0.58698714 0.6392542 -0.38074824 -0.020129092 0.024450146 0.010828494 0.39340806
00000000: f0d1 8cbe df60 693e 3fd5 f9bd 8f6b b3be
00000010: 5357 fb3d af87 823d 1c1d 1e3d 8612 273d
00000020: ca44 16bf 2aa6 233f 6ff1 c2be c4e5 a4bc
00000030: ac4b c83c ff69 313c c86c c93e
