cem_cartpole_ep498_100.pth (torch_old, 8024 bytes, 4 tensors)

fc1.weight f4 [64, 12]
0	0x3f13a1e6	0.5766891
1	0x3fcc4097	1.5957211
2	0xc04d1a26	-3.204721
3	0xbf1998a8	-0.5999856
4	0xc03a2cff	-2.9089963
5	0xbe407511	-0.18794657
6	0x3f32dbea	0.6986681
7	0xbfe34b0d	-1.7757279
8	0x3f61967a	0.88120234
9	0x3f6db0bf	0.9284782
10	0xbf134874	-0.5753243
11	0xbf775cd1	-0.96626
12	0xbfcb187c	-1.5866847
13	0x40232517	2.5491388
14	0x3eab4718	0.33452678
15	0xbfc5592e	-1.541784
16	0xc0226a90	-2.537754
17	0xbe53cb53	-0.20683031
18	0x3ffd381b	1.9782747
19	0x406a680e	3.662601
20	0x3fc2199b	1.5164064
21	0xc00ba8b6	-2.1821723
22	0xc029ba40	-2.6519928
23	0xc02ee8e6	-2.732965
24	0xbf22bf32	-0.6357299
25	0xbf20c427	-0.62799305
26	0x4044efc7	3.0771348
27	0x3fe5f23c	1.7964549
28	0xbff4aa86	-1.911454
29	0xbfab48d5	-1.3381602
30	0xbea76980	-0.32697678
31	0xbedced47	-0.43149778
32	0xbfc3ea18	-1.5305815
33	0xbd893f12	-0.06701483
34	0x3f392785	0.72325927
35	0x3eac4f27	0.33654138
36	0xbffab0b0	-1.9585171
37	0x40286b61	2.631554
38	0xbf193551	-0.5984698
39	0xbf5c30ba	-0.8601185
40	0xc0793b1e	-3.8942332
41	0xbfce4842	-1.6115801
42	0xbda4f61a	-0.08054753
43	0x3fe0a087	1.7548989
44	0xbf61f52c	-0.8826473
45	0xbe483d38	-0.19554603
46	0xc0617014	-3.5224657
47	0xbfac521a	-1.3462555
48	0x3f70229a	0.938028
49	0x3f138045	0.576176
50	0x3fe544f8	1.7911673
51	0xbf82cef7	-1.0219411
52	0xc001cabd	-2.0279992
53	0xbfd4be35	-1.6620547
54	0xbfc66b2e	-1.5501459
55	0x3ddefa8c	0.10887632
56	0x3ff4572d	1.9089104
57	0xbf827a3c	-1.0193553
58	0xbedcbdcf	-0.43113562
59	0xbe91a76d	-0.28448048
60	0x406c5948	3.6929493
61	0x3df7bdec	0.120967716
62	0x3f1b482f	0.6065702
63	0x3ff0e216	1.8818996
64	0xbf6bb7ec	-0.9207752
65	0xc05dcccf	-3.4656255
66	0xbf661bc5	-0.8988612
67	0x409523a2	4.6605997
68	0xbfd9c0e1	-1.7011987
69	0x3fdae39c	1.7100711
70	0xc06c5c5b	-3.693137
71	0xbf380d7d	-0.7189558
72	0x405e691e	3.4751658
73	0x3d8c8ac0	0.06862402
74	0x3fb2b684	1.3961949
75	0xbf55a7a3	-0.8345892
76	0xbfcd2f92	-1.6030142
77	0xbec53c78	-0.38522696
78	0x4064617d	3.5684502
79	0x3fba4a5d	1.4553944
80	0x3fcf1f28	1.6181383
81	0xc001c9d4	-2.0279436
82	0xbf2f72e6	-0.68534696
83	0x3f3c5fe8	0.7358384
84	0x3fe670dd	1.8003193
85	0x40a5d934	5.182764
86	0xbf67c8ea	-0.90540946
87	0x400d884d	2.2114441
88	0x3f39e3d7	0.7261328
89	0x400e8732	2.2270017
90	0x40095704	2.145936
91	0x3ef794b9	0.48355654
92	0x3d4401cc	0.047853276
93	0x3f98dab1	1.1941739
94	0xc0664e7e	-3.5985408
95	0x3da4da89	0.08049495
96	0xbf8d56f5	-1.1042162
97	0xbf37072b	-0.7149531
98	0xc010ced3	-2.2626235
99	0xc0f12151	-7.535317
100	0x40699e50	3.6502876
101	0x3ea32ffe	0.31872553
102	0xbf380d76	-0.7189554
103	0x40029347	2.040239
104	0xbf3ae8ec	-0.7301166
105	0x3e9bb7dd	0.30413714
106	0xc0ac2089	-5.3789716
107	0x3f981816	1.188235
108	0xc00cf254	-2.2022905
109	0x402ce56e	2.7015033
110	0xbf3cd16a	-0.7375704
111	0x40287606	2.6322036
112	0x3ef10edd	0.47081652
113	0xbef91f54	-0.48656714
114	0xc08ea526	-4.4576597
115	0x3f3016b9	0.6878467
116	0xc056db0f	-3.3571203
117	0xbf10757d	-0.5642927
118	0xbf15e747	-0.58556026
119	0x3fd8b2bf	1.6929549
120	0xbe9d0f9c	-0.30675972
121	0xbe946750	-0.2898507
122	0xbd3ccb39	-0.046092246
123	0x4035fe3f	2.843643
124	0x3f58e51e	0.84724605
125	0xc0688bfa	-3.6335435
126	0xc038b75b	-2.8861911
127	0xbf6570b8	-0.8962512
128	0xbf1d0444	-0.61334634
129	0x3e9437c3	0.28948793
130	0x3fa95a30	1.3230648
131	0xc0515557	-3.2708337
132	0x3fb93fca	1.4472592
133	0x3fb1e66f	1.3898448
134	0x3e37ab52	0.17936447
135	0x4058082a	3.3754983
136	0xc076d104	-3.8565073
137	0xc0011594	-2.016942
138	0xbeb07a2c	-0.3446821
139	0xc011b1e3	-2.2764823
140	0x3f24dc25	0.64398414
141	0xc08ccb92	-4.39985
142	0x3f5b47a1	0.8565617
143	0xbfa641a2	-1.298878
144	0x3dc0a10b	0.094057165
145	0x3eb2d4be	0.34927934
146	0x4009c5db	2.1527011
147	0x3e23331a	0.15937462
148	0x3f31a887	0.6939778
149	0xbf967dbf	-1.1757125
150	0x3f2b8018	0.6699233
151	0x408c73e3	4.3891463
152	0xbeb59d73	-0.35471687
153	0xc0cf92f8	-6.4866905
154	0xc06e095b	-3.719321
155	0x4080aa57	4.0207934
156	0x4085bd8c	4.179388
157	0xc0349290	-2.8214455
158	0xbebf2318	-0.37331462
159	0xbff09be2	-1.8797572
160	0x3fae554f	1.3619784
161	0xc046a569	-3.1038458
162	0xbf63e65b	-0.8902337
163	0x3e54fd16	0.2079967
164	0xbfa82485	-1.3136145
165	0xc0544936	-3.3169684
166	0x3f05980c	0.5218513
167	0x3fe9ef32	1.8276122
168	0xbe8491b9	-0.25892428
169	0xbfa0b3e2	-1.2554896
170	0xbf829265	-1.0200926
171	0x3fe25e79	1.7685081
172	0x3e66f428	0.22554076
173	0xbf08b5cc	-0.534024
174	0xc018780c	-2.382327
175	0xbde91179	-0.11380286
176	0x400d6a2b	2.209605
177	0x3ff15ed9	1.885707
178	0xbfcedb10	-1.6160603
179	0x4041d3e4	3.0285578
180	0x40315a1d	2.771125
181	0x3f73400a	0.9501959
182	0x3f12d2c1	0.57352835
183	0x402e2474	2.720975
184	0x4050fea2	3.2655416
185	0xc0cdce89	-6.431462
186	0x408a0d0d	4.314093
187	0xbf6d2a5b	-0.92642754
188	0x408075e3	4.0143905
189	0xc07e0f63	-3.9696891
190	0xbfc4d199	-1.5376464
191	0xbefe8631	-0.49711755
192	0x3fd00866	1.6252563
193	0x3e056c4c	0.13029593
194	0x4059f101	3.4053347
195	0x400b2da3	2.1746604
196	0xbf9efbdd	-1.2420613
197	0xc07c7f94	-3.9452868
198	0xbfd6f9d3	-1.679499
199	0x3f28aa9f	0.6588535
200	0xbf1ebed0	-0.62009907
201	0x3ef12ac5	0.47102943
202	0x3fb1fab8	1.3904638
203	0xbf35ab2e	-0.70964324
204	0x3f8c8fd8	1.0981398
205	0x401f7ce2	2.4919972
206	0x3f425dd8	0.75924444
207	0x3dac8687	0.084240966
208	0x405c019e	3.4375987
209	0xc054175b	-3.3139255
210	0xbdabfb4d	-0.08397541
211	0x3f9422f2	1.1573164
212	0x3ee082e8	0.43849874
213	0xbf8c0d13	-1.094149
214	0x3f21d0b4	0.6320908
215	0x405c8f1f	3.4462354
216	0xbfe4f1d2	-1.7886298
217	0x408ca2c4	4.394869
218	0xbf878673	-1.0587906
219	0xbf06ae3a	-0.526096
220	0x3fddf296	1.7339656
221	0xbf9521b2	-1.1650908
222	0x4060bea7	3.5116365
223	0xbfaa8ef6	-1.3324878
224	0xc001a2b3	-2.0255554
225	0xc0475154	-3.1143389
226	0xc06f9df1	-3.744015
227	0x405856d2	3.380299
228	0xbf153f0c	-0.58299327
229	0xbcae85bc	-0.021304004
230	0xc0958a2c	-4.6731167
231	0xbfb470cd	-1.4096924
232	0xbfacf08e	-1.3510911
233	0xbf431f4c	-0.7621963
234	0xc01bcb85	-2.4342968
235	0xbfb19f1f	-1.3876685
236	0xbf004788	-0.5010915
237	0xbf5249e9	-0.8214403
238	0x3eef4fca	0.46740562
239	0xbf2213bf	-0.6331138
240	0x4013ae3b	2.3075092
241	0xc037cbc2	-2.8718114
242	0xbfca6d4f	-1.5814608
243	0xbf0fbcad	-0.5614727
244	0xc087e22c	-4.246359
245	0x3f984a33	1.1897644
246	0xbfe29fbb	-1.7704996
247	0xbe953fae	-0.29150146
248	0x40a01cc4	5.0035114
249	0xbf8a776b	-1.0817693
250	0xbfcd7a25	-1.60529
251	0x4000f58f	2.0149877
252	0x3ea60d9c	0.32432258
253	0x3ef984b6	0.48734063
254	0xbf9b1db9	-1.2118446
255	0x408014bb	4.0025306

fc1.bias f4 [64]
0	0xc00decf9	-2.2175887
1	0x40068cfa	2.1023545
2	0x40539337	3.3058603
3	0xbf3d64a4	-0.7398169
4	0x3f4774fe	0.7791289
5	0x3f2143c5	0.62994033
6	0x3da644f3	0.0811862
7	0x3ebe4ba8	0.37167096
8	0xbff7e36d	-1.936628
9	0x3f0e4211	0.5556956
10	0xbec5d125	-0.38636127
11	0x402f00c8	2.7344227
12	0xbf5df117	-0.86696
13	0x401bb4e0	2.4329147
14	0xc01f5e85	-2.490144
15	0x40c24c77	6.071834
16	0xc08b51a8	-4.353718
17	0x4067313d	3.6123803
18	0xc00139e3	-2.0191581
19	0x40604403	3.504151
20	0xc0330e0a	-2.7977319
21	0xbf888741	-1.0666276
22	0x3fb8e5f1	1.4445173
23	0x3ef97ce2	0.4872809
24	0x3f4c914b	0.799092
25	0x405d06b1	3.4535334
26	0xc0156997	-2.3345697
27	0xc084d5a3	-4.1510787
28	0x3fef7ac1	1.8709337
29	0x3fde7891	1.7380544
30	0x3fd46c6e	1.659559
31	0x40306fe0	2.7568283
32	0xc08cc9b1	-4.3996205
33	0xc03e1510	-2.9700356
34	0xbff3b4b1	-1.9039518
35	0x3eef9e70	0.46800566
36	0xbe5ac69b	-0.21364824
37	0x3fd20114	1.6406579
38	0x3de75eb3	0.11297359
39	0xc046e6e7	-3.1078432
40	0x3e10598c	0.1409666
41	0x407c9283	3.9464424
42	0x3f8b1f24	1.0868878
43	0xbf0b6bec	-0.5446155
44	0x3f41d900	0.7572174
45	0x3f43731a	0.76347506
46	0xbe68f6a2	-0.22750333
47	0xc06ca45d	-3.697532
48	0x3f3efd44	0.746052
49	0xbfe71ea9	-1.8056232
50	0x3f540327	0.8281731
51	0xbf968359	-1.1758834
52	0x3f26f02d	0.6521023
53	0x3fecb43d	1.8492504
54	0xbdea8f25	-0.11453084
55	0xc0687a4c	-3.6324644
56	0x3f9ed5ca	1.2408993
57	0x3f8ed1a0	1.1157722
58	0x403fff3c	2.9999533
59	0xbdf11cf1	-0.11773098
60	0xbf8666d4	-1.0500131
61	0x408d816d	4.422049
62	0xc0688608	-3.6331806
63	0x3e84382c	0.25824106

fc2.weight f4 [15, 64]
0	0x3f20ad24	0.6276419
1	0xbe1a1e89	-0.1505071
2	0x3e8d4733	0.27593383
3	0xbffe4608	-1.9865122
4	0xc08bb70a	-4.3660936
5	0x3f497e93	0.7870876
6	0xbfa15f17	-1.2607144
7	0x3f7628e1	0.96156126
8	0x3f4ba347	0.79546016
9	0x3f6246c9	0.8838926
10	0xbfaf0b7f	-1.3675383
11	0xbf44b909	-0.7684484
12	0xbff86567	-1.9405946
13	0x3f82d865	1.0222288
14	0xc0669a8d	-3.603183
15	0xc097b616	-4.7409773
16	0x4020ff95	2.5155995
17	0xbfe9f8d4	-1.8279061
18	0xc09a95b6	-4.8307753
19	0xc06afbed	-3.6716263
20	0xbf8df644	-1.1090779
21	0x3ff97a99	1.9490539
22	0x3f5da327	0.86577076
23	0x401073b2	2.2570615
24	0x3f121426	0.57061994
25	0x3ed41556	0.41422528
26	0xc0371b75	-2.8610508
27	0x3fbec8a9	1.4904987
28	0xbf92f582	-1.1481173
29	0x3e58781d	0.2113957
30	0x4089809f	4.296951
31	0x3eab9153	0.3350931
32	0x3fcdb3c3	1.6070484
33	0x3ef86359	0.48513296
34	0xbf6812a1	-0.90653425
35	0x3da5ae7b	0.0808992
36	0x3f93ed73	1.1556839
37	0x3fee9094	1.8637872
38	0xc07c07e1	-3.937981
39	0xc00faab0	-2.244793
40	0xbfd43d06	-1.6581123
41	0x4020882e	2.5083117
42	0x4016998d	2.353122
43	0x405f674d	3.49068
44	0xc057d686	-3.3724685
45	0xbe2dc4fa	-0.16969672
46	0x40f471c5	7.638888
47	0xbe97b506	-0.29630297
48	0xc03a2c8a	-2.9089684
49	0x3f90fccc	1.1327147
50	0xbf80d56d	-1.0065132
51	0x409187dc	4.5478344
52	0xc08dade7	-4.4274783
53	0x3f82940f	1.0201434
54	0x3f3b7292	0.73221695
55	0xc03ba85d	-2.932151
56	0x3e80035f	0.25002572
57	0x3fe1a3af	1.7628077
58	0xbfc03b2a	-1.5018055
59	0xc084c5c5	-4.149142
60	0x4038b9af	2.8863332
61	0x3fc37c3c	1.5272288
62	0xbe200bdc	-0.15629524
63	0xc0100e49	-2.250872
64	0x3f80433b	1.0020517
65	0xbfc36358	-1.5264692
66	0x3fdb53b4	1.7134919
67	0x3fa34a17	1.2756985
68	0x3faeac8e	1.364641
69	0xbee3d808	-0.44500756
70	0xc092ef4f	-4.5917125
71	0xc00a912f	-2.1651113
72	0x400e5a86	2.224275
73	0xc0253033	-2.5810668
74	0x4099c12d	4.804831
75	0x3edf1e14	0.43577635
76	0xc0e87989	-7.264836
77	0xc07d3b18	-3.9567318
78	0x3ee9b24b	0.4564384
79	0x3f36396e	0.7118138
80	0xc05ab6cc	-3.417407
81	0x3f4dce01	0.8039246
82	0x3f96ebb6	1.1790683
83	0x3f9bff13	1.2187217
84	0x3ff79cee	1.9344766
85	0x40301257	2.7511194
86	0x3c9f65ac	0.01945766
87	0x3f864970	1.0491161
88	0x3fdba184	1.7158666
89	0x3f44bf5d	0.768545
90	0x3f70a2dd	0.9399851
91	0x405f961e	3.4935374
92	0xbe02253b	-0.12709515
93	0x402301a3	2.546975
94	0x3f2a3881	0.6649247
95	0x40291ef2	2.6425138
96	0xc0153bf2	-2.3317838
97	0xbde147e9	-0.11000044
98	0xc0532f79	-3.2997725
99	0xc01fd5f6	-2.4974341
100	0x40262548	2.5960255
101	0xc04034e5	-3.0032284
102	0x3f9f1a8f	1.242998
103	0x3f7f0ecf	0.9963197
104	0xc088ce10	-4.275154
105	0xbf39ecf8	-0.7262721
106	0xc0617ff2	-3.5234342
107	0xbfb893b0	-1.4420071
108	0xc0369f61	-2.8534777
109	0x3fe09b75	1.7547442
110	0xbfddd845	-1.7331625
111	0xbf0ba23f	-0.5454444
112	0x3f14ac62	0.58075535
113	0xbef86992	-0.48518044
114	0x3f9feecb	1.2494749
115	0x3f44efb3	0.7692825
116	0xbfa386e3	-1.2775539
117	0x4098ab97	4.770946
118	0xbf58afc7	-0.84643215
119	0x3fcba9f1	1.5911237
120	0xbf0ae547	-0.542561
121	0x3f67d8c1	0.90565115
122	0x405a9fb3	3.4159973
123	0x40279b4a	2.618853
124	0x3f281459	0.6565605
125	0xbf779ce9	-0.967238
126	0x3fa797f4	1.3093247
127	0x40314dc0	2.7703705
128	0xbfb9845b	-1.4493517
129	0xbfd8a80d	-1.6926285
130	0x4005e5e1	2.0921557
131	0x3fb025d7	1.3761548
132	0x40471253	3.1104934
133	0x3ffa814e	1.9570711
134	0xbf14f1d0	-0.58181477
135	0x3ef2fff5	0.47460905
136	0xbfc50aea	-1.5393956
137	0xbf22a00b	-0.63525456
138	0xbfb833c0	-1.4390793
139	0xc057d6d4	-3.372487
140	0x3f75802d	0.95898706
141	0x40310d31	2.7664301
142	0x3fefe29d	1.8741032
143	0x3fa04ba6	1.2523086
144	0xc015a913	-2.3384445
145	0xbffc5e2d	-1.971624
146	0x3f4ba809	0.79553276
147	0xbeffc78f	-0.4995694
148	0xbf0fec0e	-0.56219566
149	0xbec775b4	-0.38956988
150	0xbfad55df	-1.3541831
151	0x409f9b45	4.987704
152	0xbe94aedf	-0.29039666
153	0x3e8d742a	0.2762769
154	0xc03f2773	-2.9867828
155	0x3e3674b9	0.17817964
156	0xc0441e94	-3.0643663
157	0x3e47ba41	0.19504644
158	0x402a029c	2.6564093
159	0x3e063652	0.13106659
160	0xbf26669b	-0.65000314
161	0xc0c74bf7	-6.228023
162	0xc0810fae	-4.033164
163	0x3f204f7a	0.6262127
164	0x3fe043fc	1.7520747
165	0xbeab41cd	-0.3344864
166	0x3f32e2a7	0.69877094
167	0xc00c2f7c	-2.1903982
168	0xc03cfc42	-2.9528966
169	0x3e810d1a	0.25205308
170	0xbf074766	-0.5284332
171	0xbf6126c6	-0.8794979
172	0xbfaedef2	-1.3661788
173	0x3fbf40d8	1.4941664
174	0xc0523b67	-3.2848756
175	0x4038a65c	2.8851538
176	0x405c20fd	3.4395134
177	0xc04bfac4	-3.1871805
178	0xc083b1d4	-4.1154575
179	0xc02e4907	-2.7232072
180	0x405b9358	3.4308681
181	0x401f2628	2.4867039
182	0x3ec780d4	0.38965476
183	0xc07837e3	-3.878411
184	0xc00efb89	-2.2341025
185	0x401a4dc2	2.410996
186	0xbeca8efe	-0.3956222
187	0xbf82393a	-1.0173714
188	0x3fe63618	1.7985258
189	0xc07630fb	-3.8467395
190	0x3f9020c8	1.1260004
191	0x404b98ec	3.1812086
192	0xc035fbb9	-2.843489
193	0xc0998bfd	-4.7983384
194	0x3f2c70c8	0.6735959
195	0xc0204ad5	-2.5045674
196	0x3fe16b6d	1.7610909
197	0x3f1f56c5	0.62241775
198	0xc042f6d7	-3.046316
199	0x3f7887a4	0.9708197
200	0x3f81fd20	1.0155373
201	0xc00a85ea	-2.1644235
202	0xbd9f3953	-0.077746056
203	0xbf331c0a	-0.6996466
204	0xbfd387c1	-1.6525804
205	0xbf7d713d	-0.9900091
206	0x408080ff	4.0157466
207	0x3fa8abcd	1.317743
208	0x401b6290	2.4278908
209	0x3f15d023	0.58520716
210	0x3d8e7383	0.06955626
211	0xbe8a4ae0	-0.2701025
212	0x402da449	2.7131522
213	0x3fa964c7	1.323388
214	0x4065d684	3.591218
215	0x40906297	4.512035
216	0xbee19e38	-0.44066024
217	0xbf0e9338	-0.5569339
218	0xc0a26c36	-5.0757093
219	0x3e9b27c0	0.30303764
220	0xbd988eea	-0.07449134
221	0xbfd47316	-1.6597621
222	0x3f62841a	0.8848282
223	0x40956268	4.6682625
224	0xbe65fc80	-0.22459602
225	0xbe471781	-0.1944256
226	0x3fea2341	1.8292009
227	0xc06a8208	-3.6641865
228	0x3fc45e80	1.5341339
229	0xbfc921b7	-1.5713414
230	0xbe2d762e	-0.16939613
231	0xbfae6884	-1.3625646
232	0xc08c50f7	-4.3848834
233	0xbf2a4f12	-0.665269
234	0x3ff08a9a	1.8792298
235	0xc04b9a51	-3.1812937
236	0xc00ac1ec	-2.168086
237	0x3fbbd81e	1.4675329
238	0xc0101948	-2.251543
239	0x4033ed4a	2.811358
240	0x4086ff08	4.2186317
241	0xbf83a82b	-1.0285696
242	0xbfe1c0fa	-1.7637017
243	0x3f7c051b	0.9844529
244	0xbe7c0a34	-0.24613267
245	0x409b368f	4.85041
246	0xbf935c58	-1.1512556
247	0xbeb4b8cb	-0.35297236
248	0x40093669	2.143946
249	0xbfbd9b67	-1.481305
250	0xc06c799c	-3.6949224
251	0xbedd2e18	-0.4319923
252	0xbf60a966	-0.8775848
253	0x3fbd3440	1.478157
254	0xbe8f148d	-0.27945367
255	0xbec7f1bf	-0.39051625

fc2.bias f4 [15]
0	0x3fbb092e	1.4612176
1	0x408c8d3e	4.3922415
2	0x3f88fd2e	1.0702264
3	0xc0533d10	-3.300602
4	0x406818ff	3.6265256
5	0xbf8fc3b0	-1.1231594
6	0x4003934e	2.0558658
7	0x3f5a0672	0.85166085
8	0xbe3ea235	-0.18616565
9	0xbfca7e88	-1.5819864
10	0xbed0e868	-0.40802312
11	0x3f7a9c1a	0.9789444
12	0x406fb357	3.745321
13	0x40b004cc	5.5005856
14	0xc0a6e489	-5.2153974
