cem_cartpole.pth (torch_old, 10328 bytes, 4 tensors)

fc1.weight f4 [64, 21]
00000000: 1569 1fbd 3b0f 5fbe 4dac 773e 17e7 22bf
00000010: 7646 61be 8a28 ecbe 1606 32be ce60 433e
00000020: f004 1a3e 818e dfbe 3ead 373d da49 863e
00000030: 5fd2 4cbd 56b3 b0bd 6fb7 0f3d 7d9d 1abf
00000040: 3b98 cebd 53e6 023e 050b 1a3d 98b0 c53d
00000050: 8062 b5bd 1c42 cebe 0e0b 593e 8595 2b3e
00000060: a580 84be fe1e ec3e 9413 f9bd 3c5d be3e
00000070: 6e10 1c3f 74cb 953a 1595 31bf c9ec 66be
00000080: 71cf 21be 48a9 fb3d d2e8 2f3e 8a76 98be
00000090: 6ed2 21be 926d 93be 236b ec3d fcf8 9b3c
000000a0: db47 05bf 7e9e 293f dcba e3bc e885 d83e
000000b0: 46ff 6b3d a939 2abf 5212 7fbd eca6 da3e
000000c0: 3f45 533d f64e 94bd 40cf a43d 4787 e73d
000000d0: 81de 933e d917 103d c877 52bf 123f 8bbe
000000e0: c3f0 c23e d17a d53c 44c5 75be f175 173e
000000f0: eb87 c03d 1725 bfbe 31d4 1ebf 87ff 213e
00000100: fa3d 093f 1dc5 9d3e c59d 98bd 373d e33d
00000110: 2472 e5bd eac8 963b 08c0 b2be a183 48bf
00000120: 7ff7 363e cfa0 83be 948d 19be 8a25 053e
00000130: 0ef8 1bbe b788 b73e 547c 22bf ff77 a7bd
00000140: 90e1 b43d d277 fe3d cf69 833d 1a36 ba3d
00000150: a0d5 ec3e 111b 003f a920 033f 2f34 0e3f
00000160: 2c6d aebe 6ee2 873d f2ad fdbe bf98 a0be
00000170: 3c44 293e 6382 3fbf 3007 fabe b2e8 633d
00000180: eecb e63d 4980 4d3d a524 c03d 0cc9 053e
00000190: ce6d 423e f8c3 4e3e 9091 29bf 3923 5fbe
000001a0: c5d4 80be 2edf a53e 107a 2ebf 3f04 f9be
000001b0: a941 29be 912e da3e 30d0 213e 4870 1fbe
000001c0: aebb 0abe 67ac e83e b896 283e 7ee8 3c3e
000001d0: e7b5 c4be 3950 98be 848d 19be 65f1 adbe
000001e0: 5ab8 853e 96e8 1a3f fba0 64be fc9f 6d3e
000001f0: 9ec1 a4be aabd 413f 51ab 293e f53d c7bc
00000200: 4243 9ebe 4a9b 123e b5ba 313e c95f 86be
00000210: 87e5 703e 3e26 1d3f 3e8d 93bd c432 0fbe
00000220: dc37 97bd e108 b23d 6bb6 2c3e cce0 0fbe
00000230: 0edc adbe 5bd3 08bf a9a5 643e 1d9a b2be
00000240: 83e2 273e 5a27 38be 3647 8e3e 1028 3ebf
00000250: f37d bebe c2f8 0c3e 2b25 7d3f af64 cc3d
00000260: 8999 c6be b2f6 703d 4c98 3c3e 5a96 213d
00000270: a5de 98be efbc 863d 97c2 d13e 6bd8 2dbf
00000280: 8261 583e 120e 71be 6a4e 753e 60bd 093e
00000290: 52a3 15bf 93c5 d3bd cdcc fe3e acd1 963e
000002a0: 8b63 cbbc 927c 42bc 7a92 3d3d 21c8 983e
000002b0: c2a2 c03d 1a01 34bc a481 02bf 5060 b5bc
000002c0: e935 943d c114 bdbe 6593 14bf 8686 843c
000002d0: 8c42 34be 6359 28bf 5f80 0e3e fdfc 83bc
000002e0: 1d74 20be 2555 12be 3aa9 81be a27b 74be
000002f0: 9574 403e 3435 e23c c7da 4a3e b879 f9be
00000300: c620 793e b679 d3be 233f cbbe 1dde 0fbf
00000310: 466d ac3d e65f 243e 8302 b43e 62c7 3fbf
00000320: 7cc5 993e 961c d23d c728 4f3e 802d af3e
00000330: 9bd8 ac3e 84de bf3e d214 cd3d f440 35bf
00000340: 7e43 293f c507 a3bd 99d4 983e f84f 1b3e
00000350: 7f45 d9be 20e3 87be 1026 693d 92d6 173b
00000360: ac64 e5be 2fe9 653e fdcb 42be 571e 49bd
00000370: d105 60be 93c4 91bd ac5f c4be 46fa 0e3f
00000380: f1c2 8fbe f8c3 f5be 6bb0 75be cc16 233e
00000390: 0bd6 1f3f b1c5 8abe c9ae 47bf b43d 483f
000003a0: d96d 073f af5a cabc 039e 8bbe 6502 a93e
000003b0: 760a 303f 1236 3cbf f2a9 3abd a456 87bd
000003c0: 6815 cb3d 8c58 883e 142f 933e cabc b2be
000003d0: a509 c4be e1f3 fbbe 8d3c 8c3e 794c 183e
000003e0: 3bf5 aa3e de0a 91be 9a3e debd 5c02 38bf
000003f0: a814 30be 9259 c03e b818 8d3e 97cc db3e
-0.038918573 -0.21783154 0.24186821 -0.63633865 -0.21999535 -0.4612468 -0.17385134 0.19079897
0.15040946 -0.4366341 0.04484295 0.2622822 -0.050005313 -0.086279556 0.035087045 -0.6039656
-0.100876294 0.12783174 0.037608165 0.09652823 -0.08856678 -0.40284812 0.21195623 0.16756256
-0.25879398 0.46117395 -0.12161937 0.37180507 0.6096257 0.0011428432 -0.69368106 -0.22551264
-0.15801789 0.12288147 0.17178658 -0.29777938 -0.15802929 -0.28794533 0.11543872 0.019039623
-0.5206277 0.66257465 -0.027799062 0.42289662 0.057616495 -0.6649423 -0.06227333 0.42705476
0.05157971 -0.07241623 0.08047342 0.11305099 0.28880695 0.035178993 -0.8221402 -0.27196556
0.38074312 0.02605954 -0.24001032 0.14791085 0.09400924 -0.37332985 -0.6204253 0.15820132
0.53610194 0.30814448 -0.07451967 0.1109566 -0.11203411 0.0046015875 -0.34912133 -0.7832585
0.1786785 -0.25708625 -0.14995414 0.13002601 -0.15231344 0.35846493 -0.6347096 -0.08177184
0.08832085 0.12425198 0.06416666 0.0909235 0.46256733 0.500413 0.5122171 0.55548376
-0.34067667 0.06634985 -0.49546772 -0.31366536 0.16529936 -0.7480833 -0.4883361 0.055641837
0.11269365 0.05017117 0.093819894 0.13064975 0.189872 0.20191944 -0.66237736 -0.2179078
-0.2516233 0.32396835 -0.68155 -0.48636052 -0.16528954 0.42613652 0.15802073 -0.15570176
-0.13548157 0.45444033 0.16463745 0.18448064 -0.3842003 -0.29748705 -0.1499539 -0.33973232
0.26117212 0.6051115 -0.22327034 0.2320556 -0.32178968 0.7568003 0.16569258 -0.024321536
-0.3091069 0.1431705 0.1735638 -0.26244953 0.23525058 0.6138648 -0.07204674 -0.1398421
-0.07383701 0.086931 0.16866462 -0.14050597 -0.3395695 -0.534475 0.2232882 -0.34883204
0.16395001 -0.17983761 0.27788705 -0.7427988 -0.37205467 0.13766769 0.9888484 0.09980141
-0.38789013 0.058829017 0.18417472 0.039450027 -0.29857364 0.06579005 0.40968773 -0.6790835
0.21130946 -0.23540524 0.23955694 0.13451147 -0.5845233 -0.10340419 0.49765626 0.29456842
-0.02482774 -0.01187052 0.04628227 0.29840186 0.094060436 -0.010986591 -0.50979066 -0.022140652
0.07236845 -0.36929896 -0.58037406 0.016177427 -0.1760351 -0.65761393 0.13916157 -0.016111845
-0.15669294 -0.14290293 -0.25324422 -0.23875287 0.18794473 0.02761326 0.1981002 -0.48725677
0.24328908 -0.41303796 -0.39696607 -0.5619829 0.0841928 0.16052207 0.35158166 -0.7491361
0.3003348 0.102593586 0.20230399 0.342144 0.33759007 0.37474453 0.10013737 -0.70802236
0.6611861 -0.07960466 0.298497 0.15167224 -0.42435834 -0.2654047 0.056921065 0.0023168665
-0.4480337 0.22452234 -0.19023128 -0.0491012 -0.21877219 -0.07117572 -0.38354242 0.55850637
-0.28078416 -0.48001075 -0.2399308 0.15926665 0.6243598 -0.27103952 -0.78001076 0.7821915
0.5290199 -0.024701444 -0.2726899 0.3300964 0.6876596 -0.73520005 -0.04557223 -0.06608322
0.09916192 0.26630056 0.28746855 -0.3490966 -0.38288608 -0.49209502 0.27389947 0.14872922
0.3339022 -0.28328604 -0.10851784 -0.718786 -0.1719538 0.37568337 0.2755792 0.42929527

fc1.bias f4 [64]
00000000: e4c5 d4be b5a5 023e 9475 213c adf6 0fbf
00000010: 266c 0a3f b4ac eabd dc67 9abe f1cf 15bd
00000020: d83e 953e 589a 88be d10a 3b3f 5d50 983f
00000030: a6f2 cfbe 292d bfbc 1d50 02bd ee7c 1f3c
00000040: a3d4 903e 15f8 3b3e 51b6 f1be a363 3d3e
00000050: 1d39 56be 5b79 61be 3ad1 d93e 8988 9b3d
00000060: a449 89be 8ff1 c8be f1a3 45be cedb 3e3f
00000070: dcab 273d dbc4 9abe d9e1 d03e cc27 683d
00000080: 5fb7 643e f9d7 a83d 19a7 39be a1b8 563e
00000090: f945 04be 1114 c0be 9fbb 82be 38dd cd3e
000000a0: c209 eebd 845f 1dbf def5 b6bd d220 be3e
000000b0: fe7d f73e 3a55 183f b0a5 9abd 3017 11be
000000c0: 7ca7 fb3d ca15 f9be 3d04 56be a9d4 1fbc
000000d0: 7fa0 2a3e 0ca2 efbc 5a28 c5be d6c9 9e3e
000000e0: 28c4 ea3e 8c0f 3c3e ce2e afbe fade 30be
000000f0: cdb5 29bc 1c01 4fbe fc0c 803e 25a9 75be
-0.4155723 0.12758525 0.009854693 -0.5623577 0.5407127 -0.11458722 -0.30157363 -0.03657526
0.29149508 -0.26680255 0.7306338 1.1899525 -0.40614814 -0.023336964 -0.031814683 0.009734375
0.2828723 0.18356355 -0.4720941 0.1849504 -0.20920224 -0.2201895 0.4254244 0.075944014
-0.26813996 -0.39246795 -0.1930082 0.74554145 0.040935382 -0.30228314 0.40797308 0.05667858
0.22335576 0.082443185 -0.18130149 0.20968868 -0.12917317 -0.3751531 -0.2553377 0.4020784
-0.11622955 -0.6147387 -0.08933614 0.37134415 0.48338312 0.59505045 -0.07551134 -0.14169002
0.122878045 -0.48649436 -0.20900054 -0.009755292 0.16662787 -0.029252075 -0.38507348 0.31013364
0.4585278 0.18365306 -0.34215397 -0.17272559 -0.010358286 -0.20215267 0.25009906 -0.23990305

fc2.weight f4 [15, 64]
00000000: 12b2 8b3d cbef 693e c80e b3be 7aab 98be
00000010: 0a34 bfbd 9f00 debd da66 263e cf1e 6bbe
00000020: 79fa ecbe 01a4 a53e cfbe ebbe fc7e a2be
00000030: fc8f 523d 2703 5b3e 8fe6 11be 36df e33e
00000040: f075 22bf 21da ccbe c998 3e3d 4ef9 363e
00000050: 5f8b 283e ef96 b43d dbe0 d13e bb40 143f
00000060: 950d 063f a576 43be 41a0 213f a482 29be
00000070: 4d13 00be 2b75 1b3f 3d32 3cbd 15a8 65bd
00000080: 03fd 27be d508 5cbe ad1f 113e caea 003f
00000090: c8ad 82be f84e 17bf 0c3b a23e b1ec 513e
000000a0: 4e14 823e ba46 a93b d26e 7bbe 3b1d 82be
000000b0: 85ec 08bc 486b 553e 25cd 323e cac7 033e
000000c0: 97cd 16be 0115 00bf c4b0 923e efdf b3be
000000d0: b207 82be 0c09 24bf b6ed 04bd 7a62 433c
000000e0: 71cd 82bd b259 75bf 22f2 38be 9ace 4c3e
000000f0: 3b0a 503e 2758 5ebf e058 b4bb 778c a73e
00000100: 2db0 a33e fa88 e03e 793f 05be fb71 bb3d
00000110: d7f0 223e 269c 7fbe 97e2 9fbd 828f d13c
00000120: e125 123f b44a 513e cccc b13e e13a f3bc
00000130: f273 9abe b707 0f3e e944 49be 503e 5d3e
00000140: 4f8f d8be cbb3 94bd e9ee c0be ff61 bcbe
00000150: a61b a1bb 649f 393e 6bee c03e c448 80bd
00000160: 227a 2abe 58de 85be 1e83 eb3d 6cbf d93e
00000170: 24f4 8d3c abe7 5b3e 76bd cb3c e495 44be
00000180: 93a2 783f 5504 d93d ab71 be3e 76bf ad3e
00000190: f2b6 eb3e 7ca3 d1be a9a4 4ebf 764e e13e
000001a0: 60f0 4dbe b12d 923c 3d3d f23d 3cce f53c
000001b0: b13c 323e d7b3 4b3c b5c0 653e a2c3 edbd
000001c0: 5a89 12bf 3e35 06bf 9231 ccbe 5577 78be
000001d0: 833d 8ebd 6b47 fd3e 3565 43be 4691 2c3d
000001e0: d13e 623f 0bfa 033e f1ec 9bbe 06a3 2cbe
000001f0: 6052 cf3b 0621 bbbe 684d d8be 5657 d53e
00000200: d3dc 6dbf 9bce 3cbf f0f5 73bd d231 ae3e
00000210: 1f9d 1e3f 006f a8bd 796e 24bd f9b9 87be
00000220: b3d0 0c3f 0cdf 8f3e 8ee8 bbbe a28d 55be
00000230: 47bd 5d3e 783a d3be ff2a 3a3f 2a2e 033f
00000240: b7c4 aebe 6e88 d83e 9597 cabe a172 a2be
00000250: 3bff 1ebe 73ff d13e 5966 80be 7d2c 34bf
00000260: 3582 34bf 7bbb 18bf feae 14be 6ff3 bb3b
00000270: dddd c4be a369 183e 653d c23d 505a 52bf
00000280: 7510 23bf 7dc0 de3e 619b a3be e942 1f3e
00000290: 4714 983c b455 6ebe aa8b 7cbe 84d2 96bd
000002a0: 8453 fcbb d8a4 35be f771 87be 9335 2c3e
000002b0: 6343 3e3c 0733 373d 0ed9 a73e 7772 bebd
000002c0: cbd5 e9be 89be d63d 5855 b83d 0e4b 58bd
000002d0: 1333 87be 6c08 95bc 25e8 9ebd 815c 913d
000002e0: 246e 093f 9a0b 1cbe 9c85 42be f075 1d3f
000002f0: 03b6 87be 4a42 b7be 89e3 ad3d fafd 6cbe
00000300: 5d04 0abf 3fcf 18be ea76 913e 0185 073e
00000310: 783c f23d e9ec 4f3e 078a 8d3e d756 ecbe
00000320: c92b d73e 2652 bf3e f769 923e e314 f2bd
00000330: 5a3f 30bf bb3e e8be 8696 12be 5f4d 833d
00000340: 25c8 dd3e 86b2 c13e dbb2 343f e096 c93e
00000350: dfda 253e c487 ddbe 82e9 15bd 01e3 b03d
00000360: 4c9f 59bd c444 d5be bf47 183f 58ee f73d
00000370: b0af 99be 5c2e 46be 895d 963e 593e c2be
00000380: bb66 5e3e 5b3f 45bd 845f 6bbe 025f e5be
00000390: f303 da3e 102f 73be 34ac d93e 7920 733d
000003a0: e1c8 343e c1c9 a13c d6d5 173f 1a7f 20be
000003b0: db51 a1be 6b6c aabe d8c3 673e 2ad2 c2bc
000003c0: 9d51 003e 6ec8 87be 5ca2 d63e 40ca e5be
000003d0: 9d4d 48be c0b2 0abf 42db 293e 62cd d63d
000003e0: 1266 11bf 395b 63be e74d 883c a8aa acbe
000003f0: 406d e8be 0a51 31bf 6dd2 433e 9e96 16bf
0.068210736 0.2284538 -0.34972215 -0.29818326 -0.093360975 -0.10839962 0.16250172 -0.22960971
-0.46284845 0.32351688 -0.46044013 -0.31737506 0.051406845 0.21387921 -0.14248107 0.44506234
-0.6346121 -0.4001017 0.046532426 0.1786854 0.16459416 0.08817851 0.40991864 0.5791127
0.52364475 -0.19088228 0.63135153 -0.16553742 -0.12507363 0.6072566 -0.04594635 -0.0560685
-0.1640511 -0.21487744 0.1417224 0.5035826 -0.2552321 -0.5910487 0.31685674 0.20500447
0.25406116 0.005165902 -0.24553993 -0.25412926 -0.008357172 0.20841706 0.17461069 0.12869182
-0.14726864 -0.5003205 0.28650486 -0.35131785 -0.25396496 -0.64076304 -0.03245326 0.011925334
-0.06386841 -0.9583999 -0.18061116 0.20000687 0.20316403 -0.8685326 -0.005503759 0.32724354
0.3197035 0.43854505 -0.13012494 0.091525994 0.15912186 -0.2496191 -0.078068905 0.025581125
0.5708905 0.20438653 0.3472656 -0.029691162 -0.30166584 0.13967787 -0.19655193 0.21605802
-0.42296836 -0.07260855 -0.37682274 -0.36793515 -0.004916626 0.18127209 0.37681898 -0.06263879
-0.16648152 -0.26146197 0.11499618 0.42528856 0.01732833 0.21475093 0.024870615 -0.19197804
0.9712307 0.105965294 0.37196097 0.33935136 0.46038014 -0.4094504 -0.8072 0.44005173
-0.20111227 0.017844053 0.118280865 0.030005567 0.17405964 0.012433014 0.22436793 -0.116095796
-0.5724083 -0.5242499 -0.3988157 -0.24264272 -0.06945326 0.4946855 -0.19081576 0.04213073
0.883771 0.12888353 -0.3045421 -0.16859064 0.0063269585 -0.36548632 -0.42246556 0.41668195
-0.92915076 -0.73752755 -0.059560716 0.34022385 0.619585 -0.082242966 -0.040144417 -0.26509073
0.5500595 0.2809986 -0.36700863 -0.2085481 0.21654235 -0.41255546 0.72721857 0.51242316
-0.34134457 0.42291588 -0.39568773 -0.3172808 -0.1552705 0.41015205 -0.25078085 -0.70380384
-0.7051118 -0.5966107 -0.14519879 0.0057358067 -0.38450518 0.14884047 0.09484366 -0.82169056
-0.63696986 0.43506232 -0.31954482 0.15552868 0.018564356 -0.2327488 -0.24662653 -0.073643714
-0.0077003855 -0.17738664 -0.26454136 0.16817312 0.011612746 0.044726398 0.32782787 -0.09299176
-0.45670924 0.104855604 0.09000653 -0.052805953 -0.26406154 -0.018192492 -0.07759122 0.07097722
0.53683686 -0.152388 -0.1899628 0.61508083 -0.2650605 -0.35792762 0.084906645 -0.2314376
-0.5391291 -0.14922808 0.28411037 0.1323433 0.1182794 0.20305218 0.2764437 -0.46160004
0.42025593 0.37367362 0.2859647 -0.1182039 -0.68846667 -0.4536036 -0.14315233 0.06411242
0.4331676 0.37831515 0.7058541 0.3937292 0.16196774 -0.43267643 -0.036599644 0.086370476
-0.053130433 -0.41654027 0.59484476 0.12106007 -0.3001685 -0.19353622 0.29368237 -0.37938192
0.21718876 -0.048156124 -0.22985655 -0.44799048 0.42581138 -0.23748422 0.42514193 0.05935714
0.17654754 0.019749524 0.5931066 -0.15673485 -0.31507763 -0.3328584 0.22633302 -0.023781855
0.12531133 -0.26520103 0.41920745 -0.44880867 -0.19560857 -0.54179 0.16587546 0.104883924
-0.5679637 -0.22202767 0.01663871 -0.3372395 -0.4539585 -0.6926428 0.1912324 -0.58823574

fc2.bias f4 [15]
00000000: eff9 683f c300 fd3e c853 9dbd 5556 55be
00000010: 7c08 c4bc 1f89 f0be dc2a 193e 2df3 9abd
00000020: 7a5e 9bbe 1115 0cbf 233d c0be 9aca 4f3f
00000030: 74d4 d1be f468 e83e 1205 293f
0.9100637 0.49414644 -0.07681996 -0.20833714 -0.023929827 -0.46979615 0.14957756 -0.07565913
-0.30345517 -0.54719645 -0.37546644 0.8116852 -0.409824 0.45392573 0.6602336
