cem_cartpole_BEST.pth (torch_old, 10328 bytes, 4 tensors)

fc1.weight f4 [64, 21]
1.2411927 -3.2928236 -3.0893378 2.5042999 0.079419576 -1.2462189 -2.673901 -0.5298446
0.83626807 0.5777411 -2.9276109 0.51143193 0.39171383 -1.6544201 0.40240067 -1.8501809
0.44549203 -2.299027 -0.12810594 3.6643238 -2.3247447 -1.5561724 3.0160499 0.7025769
-0.84589314 0.9232902 2.5305488 0.3587384 -0.7763898 -2.1567132 2.7388086 0.49930224
-1.9283189 -0.06846122 1.5779452 0.20470844 1.7663149 -0.442021 -2.3660913 0.8558427
-0.3095153 2.0194836 -1.8065974 -2.4292707 -0.023074854 1.2198627 -1.0014136 1.0096494
-0.45749056 -0.20512821 -0.64308757 -1.3850762 -3.1943147 -1.1498264 1.9841508 0.15717685
-1.3962632 -2.3719432 -3.028061 4.15239 -2.2816188 2.8302677 -0.74224573 1.0148251
0.94070214 -0.61417294 0.037913308 -1.7711345 -0.56454563 -0.14072183 -0.41851464 1.9193807
-0.49727234 -0.11766636 -0.011097081 1.0900536 -1.6016425 0.88241756 1.5882449 0.48016834
-2.8299406 1.3707345 -1.0030406 0.23701192 -0.26132354 2.7741525 0.47755367 0.16533189
0.4761062 1.8900173 0.36692354 -2.829142 -0.5018138 1.0241607 0.9221537 0.4239885
-3.3995996 -1.4835778 0.7725672 2.1005597 -1.8326236 -3.445788 0.44625464 0.34910116
-0.7005674 -2.043681 1.5391078 -2.5387907 -0.093531996 -0.016919956 0.64212996 -1.7539331
-1.7367975 1.7317075 0.44284096 1.0125175 -1.9505974 -0.61377174 1.8902849 0.026709922
0.34697187 -0.22775906 -2.036362 2.2703538 -2.6868536 -3.0268462 1.4206793 0.9675406
-1.5844125 -1.3374376 -0.11469086 0.14608201 1.2250521 1.6841166 -0.65130335 -0.7627631
-0.5399677 1.5727056 0.0582837 0.6107696 1.1379714 1.7669308 4.5829716 -1.5329465
-2.465295 -0.092247285 -0.3031273 -0.6187165 -0.07517831 0.27747843 0.22199664 0.79537886
-1.6209931 -1.4193535 -0.1475205 -0.54923034 0.12533994 -1.1666858 -1.1302701 2.1247046
-0.4992903 1.2325495 1.2942581 -0.29445148 2.1137712 -1.5853014 -0.5145586 2.5757256
3.0375354 4.123781 1.4756649 2.5425785 -1.0652047 -0.5480661 1.121074 1.4901654
-0.67708397 -0.5451606 2.4261978 -0.874669 -0.97848994 1.191597 2.4984899 0.5382366
3.32646 -0.42832538 -1.9883673 -0.5742109 -3.2304518 -0.37335882 -0.45631868 -0.17417729
-1.3866501 1.7930938 -0.89278394 -2.056103 -0.95833516 1.1786703 1.0802141 -0.63999766
0.5648818 0.8435831 1.153025 1.1411847 -1.676106 -1.8929983 2.2303169 -3.7784789
-1.3268653 0.9383802 0.43366194 0.32051232 3.0864806 1.8156332 0.62534225 0.9590181
2.11389 0.3276319 0.985955 -2.0693755 -1.6262476 -1.3841723 1.8166715 0.8298484
-1.3349465 2.3428175 0.7114151 -0.9130884 -1.1239152 -0.103626914 0.87477136 0.2216628
0.4398144 -2.1985638 -0.99629223 1.7548733 -1.6513784 -1.4468042 0.16920157 0.13035221
-1.3767624 -0.95377326 2.4289553 0.35666153 1.4344782 0.47139484 1.8404328 -0.09751591
0.8213899 0.341123 -0.66587883 0.47052702 0.52347815 -1.1586332 2.354516 2.8394668
00000000: 67df 9e3f 9fbd 52c0 b6b7 45c0 7346 2040
00000010: bba6 a23d 1a84 9fbf 3221 2bc0 e5a3 07bf
00000020: aa15 563f d7e6 133f fa5d 3bc0 34ed 023f
00000030: b78e c83e 0ac4 d3bf 7607 ce3e bad2 ecbf
00000040: 8817 e43e 4223 13c0 342e 03be 4884 6a40
00000050: 9ec8 14c0 a830 c7bf f606 4140 14dc 333f
00000060: 748c 58bf bf5c 6c3f 83f4 2140 8fac b73e
00000070: 7bc1 46bf 9707 0ac0 a448 2f40 8ba4 ff3e
00000080: 27d3 f6bf 6535 8cbd 1cfa c93f 179f 513e
00000090: 9b16 e23f 9450 e2be 0a6e 17c0 8218 5b3f
000000a0: ca78 9ebe 383f 0140 953e e7bf 2c79 1bc0
000000b0: 7a07 bdbc 7624 9c3f 522e 80bf 313c 813f
000000c0: 343c eabe 210d 52be 63a1 24bf 2d4a b1bf
000000d0: a76f 4cc0 832d 93bf a7f8 fd3f f8f2 203e
000000e0: c1b8 b2bf ebcd 17c0 c0cb 41c0 61e0 8440
000000f0: 0b06 12c0 1b23 3540 d103 3ebf cae5 813f
00000100: dbd1 703f 703a 1dbf fc4a 1b3d 89b4 e2bf
00000110: 1086 10bf 6219 10be 8d47 d6be 44ae f53f
00000120: 7b9a febe 10fb f0bd 88d0 35bc e086 8b3f
00000130: 9f02 cdbf 1ee6 613f 9c4b cb3f a0d8 f53e
00000140: bf1d 35c0 3a74 af3f a263 80bf 41b3 723e
00000150: 33cc 85be b78b 3140 ea81 f43e c34c 293e
00000160: 31c4 f33e 16ec f13f 67dd bb3e aa10 35c0
00000170: df76 00bf b317 833f 4412 6c3f 0515 d93e
00000180: 0a93 59c0 e1e5 bdbf f7c6 453f 926f 0640
00000190: 6993 eabf ca87 5cc0 7d7b e43e 63bd b23e
000001a0: 6358 33bf abcb 02c0 7c01 c53f 8c7b 22c0
000001b0: b48d bfbd b89b 8abc a162 243f e180 e0bf
000001c0: 614f debf 97a8 dd3f 0dbc e23e 2c9a 813f
000001d0: 2dad f9bf 2520 1dbf dbf4 f13f c4ce da3c
000001e0: 4ca6 b13e ac39 69be c153 02c0 7a4d 1140
000001f0: 69f5 2bc0 d9b7 41c0 d2d8 b53f beb0 773f
00000200: 07ce cabf 2831 abbf 0be3 eabd 8696 153e
00000210: 82ce 9c3f 2291 d73f d1bb 26bf 7144 43bf
00000220: 533b 0abf 6b4e c93f e4ba 6e3d 665b 1c3f
00000230: 0ca9 913f ca2a e23f b4a7 9240 9737 c4bf
00000240: 65c7 1dc0 25ec bcbd 8033 9bbe 3464 1ebf
00000250: 16f7 99bd a711 8e3e 1653 633e f39d 4b3f
00000260: b47c cfbf 60ad b5bf 9d0f 17be 5c9a 0cbf
00000270: 1d59 003e f655 95bf b1ac 90bf 29fb 0740
00000280: faa2 ffbe 2fc4 9d3f 40aa a53f 58c2 96be
00000290: 0748 0740 28eb cabf 1dba 03bf b0d8 2440
000002a0: fb66 4240 04f6 8340 96e2 bc3f 9bb9 2240
000002b0: a158 88bf 0f4e 0cbf 5a7f 8f3f bdbd be3f
000002c0: 6055 2dbf a58f 0bbf d346 1b40 4fea 5fbf
000002d0: 517e 7abf 4086 983f 42e7 1f40 e0c9 093f
000002e0: b8e4 5440 774d dbbe d282 febf 7cff 12bf
000002f0: b9bf 4ec0 e328 bfbe 9aa2 e9be 885b 32be
00000300: c07d b1bf 1984 e53f 7d8d 64bf 3197 03c0
00000310: 7455 75bf abde 963f 7544 8a3f e3d6 23bf
00000320: 189c 103f 10f5 573f 5396 933f 5712 923f
00000330: a48a d6bf c54d f2bf 83bd 0e40 99d2 71c0
00000340: b9d6 a9bf af39 703f f008 de3e 311a a43e
00000350: e688 4540 ab66 e83f 6e16 203f 3682 753f
00000360: f949 0740 5ebf a73e 8c67 7c3f a670 04c0
00000370: e228 d0bf 8f2c b1bf b188 e83f f270 543f
00000380: 87df aabf b9f0 1540 4d1f 363f 29c0 69bf
00000390: 74dc 8fbf 593a d4bd 04f1 5f3f 93fb 623e
000003a0: 5a2f e13e 45b5 0cc0 020d 7fbf b09f e03f
000003b0: 5e60 d3bf e130 b9bf 2d43 2d3e 0d7b 053e
000003c0: c039 b0bf 7c2a 74bf 0174 1b40 579c b63e
000003d0: fb9c b73f aa5a f13e 4d93 eb3f 6cb6 c7bd
000003e0: 9c46 523f ada7 ae3e 0977 2abf ebe8 f03e
000003f0: aa02 063f 184e 94bf 64b0 1640 d3b9 3540

fc1.bias f4 [64]
-0.43337905 -3.5448105 -1.0870004 2.6026847 -0.3886607 0.4877443 0.743058 -2.3831928
1.6610968 -0.014131 -0.232135 -0.16182546 0.0009071704 -0.31151107 0.7555902 0.9337226
-1.4608096 1.1483597 1.107944 -1.7627989 0.105275854 -1.8352821 0.61366194 1.9103707
0.7948092 0.31376743 1.4575169 -0.56176984 0.36445862 -1.7323744 -0.61162037 0.642737
-0.46963295 0.05169361 -1.4470764 1.5699978 -1.4870374 0.49639556 2.3523679 1.3586917
-1.1023146 -0.6361662 -0.27972734 -0.769428 -1.8054509 -0.19057937 -0.25880656 -0.03658895
-0.29113916 -3.076799 -0.10246559 -1.0131685 -2.986356 0.8177028 -1.0818735 3.922304
2.05809 0.006400274 -0.08331227 -1.3347027 0.98077345 2.5983562 1.2817684 0.09911378
00000000: dce3 ddbe 2dde 62c0 d422 8bbf 6392 2640
00000010: 89fe c6be 9fb9 f93e 0d39 3e3f 3b86 18c0
00000020: d29e d43f b685 67bc ccb4 6dbe 93b5 25be
00000030: 2dcf 6d3a 617e 9fbe 5c6e 413f 7208 6f3f
00000040: cffb babf 73fd 923f 1cd1 8d3f 65a3 e1bf
00000050: de9a d73d 86ea eabf f318 1d3f 0787 f43f
00000060: 9e78 4b3f 20a6 a03e ea8f ba3f 26d0 0fbf
00000070: 529a ba3e 72be ddbf 2793 1cbf 698a 243f
00000080: bb73 f0be aebc 533d cd39 b9bf b0f5 c83f
00000090: 3e57 bebf 8f27 fe3e 328d 1640 9ce9 ad3f
000000a0: a518 8dbf cadb 22bf 6c38 8fbe 3cf9 44bf
000000b0: 0419 e7bf 3d27 43be 4b82 84be 4bde 15bd
000000c0: 3110 95be 46ea 44c0 7bd9 d1bd 81af 81bf
000000d0: 7520 3fc0 f854 513f d57a 8abf 0707 7b40
000000e0: bfb7 0340 64b9 d13b a09f aabd 8ad7 aabf
000000f0: f813 7b3f 784b 2640 fd10 a43f 2afc ca3d

fc2.weight f4 [15, 64]
1.647891 -0.118775606 1.6389986 1.2157078 1.5674933 -0.42913318 1.9259539 -0.33033854
0.035402093 -0.10845481 0.1495851 -3.2129958 -1.5679169 -0.7506318 1.0661789 -0.38676712
0.4198956 -1.9508843 1.1993521 -2.2976742 0.4891704 2.309128 -1.1143304 -2.2027626
2.8151634 0.14894357 -1.0616485 0.33550036 -3.8053715 0.76141757 0.5214479 1.4081641
-0.7866394 -0.8255522 2.5201287 -0.9362002 -2.0879178 -0.74783146 -0.9716496 -1.4256423
-0.8344986 -0.5212912 2.1759713 2.152716 -1.2427346 -1.6428709 -2.0112326 0.42782405
1.7339522 -1.111462 -0.9822765 0.8725335 -0.84034306 0.6918348 1.7198396 -0.46405882
-1.4436979 2.001084 -1.6810117 -0.62013245 -1.6492908 2.365659 -0.29827386 0.8462217
-1.2146097 -1.4915075 0.5783471 -0.33749148 -1.0279417 -0.7663271 0.15810603 -1.843529
-1.1339378 0.62397337 -0.47941282 1.8466991 -1.4018704 -0.28934297 -0.120375864 -1.1561536
-0.19566382 -0.91239846 -0.24198876 -2.0160618 -0.14262387 -1.7955025 -1.4221323 1.7530351
-1.3303816 1.180992 -0.24449393 -0.14498292 -0.021300528 -0.13525186 -0.54870486 -2.3839006
-1.278709 -1.950775 -1.0155792 -0.74614114 2.7420132 1.0059427 -0.43932492 -1.1953467
0.22520788 2.540888 -1.0348672 0.78807676 1.0545988 -0.22647421 1.5362927 -1.6612843
-2.1122823 3.4270008 -1.689094 -0.6131969 -1.362601 -2.0203035 -0.38364986 1.3605462
-3.2043488 1.654379 -0.2621245 1.4053236 -0.05706492 0.8411996 2.5077698 -0.9300451
-0.7421038 -0.14940032 0.3744986 1.7045978 1.1956376 -1.1816103 0.4333693 1.1834756
0.746402 -1.5692441 0.040873416 0.026034936 1.9370469 -0.040816378 -0.17432961 0.42403856
-0.92905515 1.4875872 1.7923585 0.815967 2.029267 -0.065204866 -2.6736507 -1.4978151
2.7857816 -0.14252615 -0.67434573 -1.0113952 1.3221962 -0.2332727 1.1887627 -1.0567315
1.1085584 2.6007967 1.1013093 0.45204952 3.734198 -2.108709 -0.7493113 -3.6778562
1.3961482 -0.76323444 0.5458418 -0.82755405 1.0029582 5.5025206 -0.60077256 0.9249029
-2.0792239 1.6750033 0.5596211 0.06764316 -1.4466141 -1.1057645 -1.3352091 1.0794119
-1.8070173 -0.7157911 0.31112322 -1.1959313 -1.0884609 1.9058862 -0.16377394 -0.9572789
-1.8069798 -0.26856261 0.9907208 -0.56063694 0.42606544 0.3680728 -2.0140471 2.349188
-1.6946143 0.77203554 1.6277102 -3.0352528 0.5781244 -2.5445077 1.7761762 -1.3829238
1.8211511 0.85169125 -3.0424159 -0.83301026 -1.1461164 0.07871913 0.97041786 0.07327871
0.74562484 -1.034018 -0.6661002 -2.404192 -0.18813242 1.4226681 1.6716471 1.6400288
-0.68428487 1.5155522 -0.8177288 -0.82610065 -0.47641304 -2.2449584 1.4644916 -0.14479998
1.634069 -0.67142874 1.4753704 -3.1030777 0.6505315 -1.4469442 -0.21742891 1.1365466
-0.32616997 -0.00086275843 -1.3497235 0.97010607 4.2926044 1.2932365 2.2371087 -1.9912343
0.1499851 0.5728421 -0.5046165 -1.0452358 -0.5468305 1.9196035 1.4694399 -1.6191041
00000000: 18ee d23f a040 f3bd b5ca d13f 509c 9b3f
00000010: 9fa3 c83f 58b7 dbbe a885 f63f 2222 a9be
00000020: c901 113d 8e1d debd d62c 193e b9a1 4dc0
00000030: 80b1 c8bf 6829 40bf 8d78 883f 5706 c6be
00000040: 8efc d63e 94b6 f9bf 5f84 993f 180d 13c0
00000050: 8b74 fa3e c1c8 1340 61a2 8ebf 10fa 0cc0
00000060: a32b 3440 aa84 183e 19e4 87bf b4c6 ab3e
00000070: 358b 73c0 43ec 423f 9c7d 053f b93e b43f
00000080: 3361 49bf 6457 53bf ca49 2140 d1aa 6fbf
00000090: 72a0 05c0 e271 3fbf 07be 78bf 727b b6bf
000000a0: b3a1 55bf 5773 05bf 1d43 0b40 19c6 0940
000000b0: ed11 9fbf 9849 d2bf 09b8 00c0 c10b db3e
000000c0: 25f2 dd3f 6344 8ebf 7976 7bbf 5b5e 5f3f
000000d0: b920 57bf 161c 313f b423 dc3f 1e99 edbe
000000e0: 18cb b8bf c311 0040 642b d7bf 00c1 1ebf
000000f0: f61b d3bf f566 1740 5ab7 98be fca1 583f
00000100: 5578 9bbf b8e9 bebf 8e0e 143f afcb acbe
00000110: 9893 83bf 032e 44bf 8ce6 213e c2f8 ebbf
00000120: e024 91bf b8bc 1f3f 9975 f5be a360 ec3f
00000130: 7d70 b3bf c324 94be 9f87 f6bd d7fc 93bf
00000140: 195c 48be f292 69bf e7cb 77be 2807 01c0
00000150: fe0b 12be 07d3 e5bf 6e08 b6bf 7463 e03f
00000160: f249 aabf bf2a 973f 9e5c 7abe 6776 14be
00000170: 727e aebc 777f 0abe ec77 0cbf d491 18c0
00000180: bdac a3bf ffb2 f9bf 80fe 81bf 1b03 3fbf
00000190: 257d 2f40 bbc2 803f 32ef e0be 1f01 99bf
000001a0: e59c 663e e99d 2240 8776 84bf 66bf 493f
000001b0: 18fd 863f dbe8 67be 3da5 c43f f7a4 d4bf
000001c0: a22f 07c0 fb53 5b40 3b34 d8bf 79fa 1cbf
000001d0: b669 aebf a74c 01c0 c16d c4be 6126 ae3f
000001e0: 0d14 4dc0 b1c2 d33f 2f35 86be a5e1 b33f
000001f0: e8bc 69bd db58 573f 4d7f 2040 7017 6ebf
00000200: 84fa 3dbf 66fc 18be 48be bf3e 4330 da3f
00000210: a70a 993f 023f 97bf 95e2 dd3e 217c 973f
00000220: 3414 3f3f fedc c8bf e26a 273d 3847 d53c
00000230: 27f1 f73f 132f 27bd 7683 32be 951b d93e
00000240: 8fd6 6dbf 4269 be3f 016c e53f 37e3 503f
00000250: 83df 0140 218a 85bd 181d 2bc0 68b8 bfbf
00000260: 3f4a 3240 60f2 11be eca1 2cbf 6675 81bf
00000270: ba3d a93f 0adf 6ebe 6029 983f fa42 87bf
00000280: 3ee5 8d3f 7473 2640 b4f7 8c3f 0973 e73e
00000290: 1afd 6e40 17f5 06c0 ded2 3fbf ff61 6bc0
000002a0: fcb4 b23f 5563 43bf 4abc 0b3f 95da 53bf
000002b0: ef60 803f a614 b040 3bcc 19bf 70c6 6c3f
000002c0: 0112 05c0 8266 d63f 5443 0f3f 7f88 8a3d
000002d0: a72a b9bf b189 8dbf 22e8 aabf 2b2a 8a3f
000002e0: 584c e7bf 163e 37bf 8b4b 9f3e 4714 99bf
000002f0: b052 8bbf 14f4 f33f 5bb4 27be 3b10 75bf
00000300: 1d4b e7bf 0a81 89be e19f 7d3f e785 0fbf
00000310: 4025 da3e 0a74 bc3e 26e6 00c0 1959 1640
00000320: 1fe9 d8bf 1fa4 453f cf58 d03f 9541 42c0
00000330: f6ff 133f 37d9 22c0 be59 e33f a603 b1bf
00000340: 7b1b e93f 7008 5a3f f1b6 42c0 2940 55bf
00000350: f1b3 92bf 7f37 a13d 4e6d 783f 2613 963d
00000360: 45e1 3e3f b45a 84bf 8b85 2abf 48de 19c0
00000370: c9a5 40be fd19 b63f 88f8 d53f 77ec d13f
00000380: 4b2d 2fbf 9dfd c13f ad56 51bf 557b 53bf
00000390: 69ec f3be 66ad 0fc0 7674 bb3f 7246 14be
000003a0: 2c29 d13f c1e2 2bbf f0d8 bc3f d398 46c0
000003b0: 3b89 263f 7835 b9bf afa5 5ebe 5c7a 913f
000003c0: c0ff a6be bd2a 62ba bdc3 acbf df58 783f
000003d0: 045d 8940 c688 a53f ca2c 0f40 c4e0 febf
000003e0: b295 193e c8a5 123f 8c2e 01bf 49ca 85bf
000003f0: 15fd 0bbf 91b5 f53f 9b16 bc3f ce3e cfbf

fc2.bias f4 [15]
1.8700138 0.8163166 -0.2691556 2.4953897 1.6806443 0.79239815 -1.2345185 0.9245076
-1.2612541 -2.919524 -1.5616407 1.2594631 0.86781454 -2.0852215 -0.43679994
00000000: 9d5c ef3f 20fa 503f c3ce 89be 77b4 1f40
00000010: 5a1f d73f 9bda 4a3f b404 9ebf 88ac 6c3f
00000020: c670 a1bf 7bd9 3ac0 d8e3 c7bf 1636 a13f
00000030: 1829 5e3f 4574 05c0 3ea4 dfbe
