cem_cartpole.pth (torch_old, 8024 bytes, 4 tensors)

fc1.weight f4 [64, 12]
00000000: f1cf aabe feee 3d3e 4608 d43d b411 493e
00000010: 9707 623e ee6e 353e f93b 3ebf a092 b2bd
00000020: 8d3a 8e3d ced8 9c3e 7773 0dbf 0f46 23be
00000030: 282a b2bb 71aa 81be d3a2 27be 72d9 43be
00000040: c148 a33e 7b22 45bf 354f 82be 443a 81be
00000050: 847c c33e 25e2 533e af5b 3c3f 113c babe
00000060: 17ba b2bd ae07 11bf f83c 56bd d1af d1be
00000070: 4aea 93bc 0310 d1bd a816 17be 8c14 35bf
00000080: 6877 1f3f 58d3 793e 005d 883e 64eb d3bc
00000090: c5f9 2a3e 3520 15be f026 933e 9901 e4bd
000000a0: 0e7b 0f3e 279d bc3e fcf2 513c 2f3f 2d3f
000000b0: a591 4bbd da47 773f 8bfe 273c 02b5 bbbe
000000c0: 88e9 76bd 9f9e bebc c21c 823e d0f3 4ebf
000000d0: bf35 d33e c6ef 973d fdc0 01bf 01cb b03e
000000e0: f695 8fbe 7b75 103f 0b45 223f 6545 323e
000000f0: e1f6 81be 6596 32be 43a2 95be a299 7b3d
00000100: 35e1 893e 0378 1abf a171 7f3d b7d7 b43e
00000110: dc33 eb3d 9b7f cbbe 489e 1c3f b47b 5ebc
00000120: af9e c33d e375 333e 4752 ea3c 9436 5dbf
00000130: 82c5 afbd 8623 0cbf fc6a 7f3f 1457 4abf
00000140: 468f a73e a680 973e d19f f4be 71e4 59bf
00000150: b0f8 40bf 65ad 343f 3017 f8be 2e6c bcbe
00000160: 9e5a 763a b82e 09bd 1135 1cbe 1c97 abbd
00000170: 1641 bf3e 7893 a03e 0150 253e 4501 87bd
00000180: 1821 12bf abc4 08bf 30ab 0d3e 625e 203f
00000190: 3fe8 fc3e c5f9 9b3e e51b 603d 125c 493b
000001a0: bdda ecbe a3b7 d53c 000b 243f d651 cc3c
000001b0: ae0f d43e d2f7 ec3d d012 9dbc 092d 95be
000001c0: 2ed6 05be de3e 1bbc 2bd9 cd3e 5039 e6be
000001d0: a9d5 39bf 862a cabd dc27 07bf 9510 e5be
000001e0: 8876 b13e 57e2 313f 433b 5ebb f237 163b
000001f0: a302 193f 1922 f4bd 8b2d 043f 8d4e 8dbf
00000200: 54ad 1c3f 6dd1 0d3d b68a a13e 1f63 0b3f
00000210: beb4 a2bb e781 853e e86e 9cbe e771 b93d
00000220: aab1 843e 359e 563e 593a 3cbe 017e a3bd
00000230: 2adc 2abe e723 b3be e6ff 71be c136 fb3e
00000240: 6771 4cbc 6ac6 923d ec70 27bf 666a 3c3d
00000250: 29c2 30bf e8d8 943e f5a9 993f fadc 4a3e
00000260: f534 d63b 97f7 82be d7f0 b8be 4520 f83d
00000270: f1e6 55bf 2304 113e 43dc 0fbf f335 2abf
00000280: dbd8 ba3e 2cad 013f 510a a33e 0632 9abe
00000290: 574b 42bf d830 33bd 4616 84bf 10a6 a4be
000002a0: 783f 933e ec14 dd3e 713a 653d aa3b ccbe
000002b0: 64e9 033e c075 013e d66a ffbd de13 c8be
000002c0: a1b6 2f3e f13f 103e f8ce a93c c1a1 953e
000002d0: 4533 6abd 020f ab3e fa51 4b3d 35f7 c2bd
000002e0: 55df 253f e3b2 213e 1e2d 5a3e 0d79 803d
000002f0: eef6 adbe 7b18 d0be 63e2 f7bd 94a8 b63d
00000300: 37cb 11be 748d 42bb 112d aa3c ad10 223f
00000310: 7e21 803e d9cc a03d 18c1 4abe 37f8 e73e
00000320: ba55 e6be bc3e 08be 715d ca3e 540e 89be
00000330: 68b6 143f 8b61 03bf 2413 a0be 3180 2ebf
00000340: ee1a aabe b9c2 353e cb90 0bbf 4795 9dbd
00000350: 0baa 2bbf ff4c ef3c 987c 4fbf 71a1 833f
00000360: a2b1 1c3e 3efa 00bf 18ee c43d 4989 de3e
00000370: f785 573e 18d6 9a3f 54b4 863e 1f40 863e
00000380: 2a08 f13e 186e 5ebe d44b bebe 4f60 dd3e
00000390: 3074 dbbd 3aaa 24bf 4dbb 703e bfa6 77bb
000003a0: 1baa cc3e 3c1c 2dbb 169e cf3e 4d23 19bf
000003b0: 687b 32bf 2511 be3e d957 17bc ef2a c0be
000003c0: 9711 753e 28c6 bebd 302c 0c3f ea04 f0be
000003d0: f3f8 c8be 8079 2abe 9a87 513e 1f64 ccbc
000003e0: 94a7 4dbe d37c e23e b118 4bbe ee09 cbbd
000003f0: c9cb ac3e ae71 aabe 9ff5 37bd e0f7 ffbe
-0.33361772 0.185482 0.103531405 0.1963566 0.22073208 0.17718098 -0.7431026 -0.08719373
0.069447614 0.3063416 -0.5525431 -0.15944694 -0.0054371543 -0.2532535 -0.16370706 -0.19125918
0.31891444 -0.7700574 -0.25451055 -0.25239766 0.38180935 0.20691736 0.735774 -0.36373952
-0.087269 -0.56652343 -0.052304238 -0.4095445 -0.018056054 -0.10208132 -0.14754736 -0.7073448
0.62291574 0.24397027 0.26633453 -0.025869079 0.16696842 -0.14563067 0.28740644 -0.11133117
0.14011785 0.36838648 0.01281428 0.67674536 -0.049699444 0.9659401 0.010253559 -0.36661536
-0.060281307 -0.023268996 0.25412565 -0.8084078 0.41251943 0.0741878 -0.506851 0.3452988
-0.280441 0.5642926 0.633866 0.17409284 -0.25383666 -0.17440183 -0.29225358 0.061425813
0.26929632 -0.60339373 0.062364224 0.35320827 0.11484501 -0.39745793 0.6117902 -0.013579298
0.09551751 0.17525439 0.028603686 -0.86411405 -0.085825935 -0.54741704 0.9977262 -0.7903912
0.32726496 0.29590338 -0.4777818 -0.851142 -0.75379467 0.7057708 -0.4845519 -0.36801285
0.0009397658 -0.03349182 -0.15254618 -0.08378431 0.37354344 0.3136251 0.161438 -0.06592039
-0.5708175 -0.5342509 0.13834834 0.62644017 0.4939594 0.30463997 0.054714102 0.0030725044
-0.46260634 0.026088541 0.64079285 0.024941366 0.41418213 0.115707055 -0.01917401 -0.29135922
-0.13069984 -0.009475438 0.4020475 -0.449656 -0.72591645 -0.09871392 -0.52795196 -0.44739214
0.34660745 0.6948599 -0.0033909834 0.002292153 0.5976965 -0.11920566 0.51631993 -1.1039597
0.6120198 0.034623552 0.3155114 0.5444812 -0.004965394 0.2607567 -0.30553365 0.09054928
0.25916797 0.20958789 -0.18381633 -0.07983018 -0.16685548 -0.3498833 -0.23632774 0.4906521
-0.012478209 0.07166751 -0.6540668 0.045999907 -0.69046265 0.29071736 1.2004992 0.19810858
0.0065370747 -0.2557952 -0.36121246 0.1211553 -0.83555514 0.14161734 -0.5619547 -0.6648857
0.36493573 0.50654864 0.31843808 -0.3011629 -0.7589621 -0.043747753 -1.0319297 -0.32157946
0.2875936 0.43180025 0.055963937 -0.3988927 0.12882 0.12642574 -0.12471549 -0.39077657
0.17159511 0.14086892 0.020728573 0.2922497 -0.0571778 0.33409888 0.049638726 -0.09519807
0.647939 0.15790896 0.21306273 0.062730886 -0.33977455 -0.40643677 -0.12103727 0.089188725
-0.14237677 -0.0029686363 0.020773442 0.63306695 0.25025553 0.078515716 -0.19800222 0.4530656
-0.4498728 -0.13305181 0.39524415 -0.26768744 0.5809083 -0.51320714 -0.31264603 -0.68164355
-0.3322367 0.17750062 -0.5451781 -0.07694488 -0.6705634 0.02921152 -0.8104949 1.0283643
0.15302137 -0.5038184 0.09615725 0.43464115 0.21047197 1.2096586 0.26309454 0.26220796
0.4707654 -0.21721685 -0.37167227 0.4323754 -0.107155204 -0.64322245 0.2350895 -0.0037788597
0.3997353 -0.0026414534 0.40550297 -0.5981949 -0.69719553 0.37122455 -0.009237253 -0.37532756
0.23932491 -0.09315139 0.54754925 -0.4687875 -0.39252433 -0.16647911 0.20461884 -0.024950085
-0.20083457 0.44235858 -0.19833638 -0.09914003 0.33749226 -0.33289856 -0.044911977 -0.499938

fc1.bias f4 [64]
00000000: 3b67 1dbf 2d4d 0dbf 3290 48be 5175 023d
00000010: a0dc 893f 603f a03c b769 14bf fe5c 523f
00000020: 10d3 d13d 4861 ca3e 0d8d e83e 0877 53be
00000030: b25d 0a3e e866 a63e daa9 203f a0b9 90bf
00000040: 2251 44bf 783b 153f 4ecb 063f 8762 1a3f
00000050: 699d 113e 6328 463e 6564 953e 7d17 883b
00000060: 0d0d 29bf 2f49 303f cfe0 423d 42ec db3d
00000070: 138a 74be f24c 15bf 362d 923e eb99 fdbe
00000080: 5555 d7be b22e 78bd 1251 483e e4bc 663f
00000090: 4ca6 333d d668 4b3e a954 2abe 379c d43e
000000a0: b844 c93e 10dc 08be 746f ac3e 32e5 53bb
000000b0: dabc 2e3f 4422 47bd a044 55bf 8ca7 96be
000000c0: dee2 09bf fbce 693e 8c94 1fbf 2920 d7be
000000d0: 20ef 5bbf db1d 9f3e f438 2d3f 45da 97bd
000000e0: 9d24 103e 7e27 b23e da1d 8e3e 203b e53d
000000f0: 7ca4 893f 8a8c af3e dc41 003f 3548 1f3f
-0.6148564 -0.55195886 -0.19586256 0.031850163 1.0770454 0.01956147 -0.5797381 0.82173145
0.10245335 0.39527345 0.45420113 -0.20650876 0.13512304 0.32500386 0.6275917 -1.1306648
-0.766863 0.5829387 0.5265397 0.6030659 0.14220203 0.19351344 0.29178157 0.0041531906
-0.6603554 0.6886167 0.047577675 0.10738422 -0.23880796 -0.58320534 0.28550118 -0.49531493
-0.4205729 -0.060591407 0.19562176 0.90131974 0.043859765 0.1986421 -0.16633858 0.41525432
0.3931024 -0.13365197 0.33678782 -0.0032332656 0.68256915 -0.048616663 -0.8330784 -0.29424703
-0.53861797 0.22832863 -0.6233604 -0.42016724 -0.8591175 0.31077465 0.6766503 -0.074146785
0.14076467 0.34795755 0.2775715 0.11192918 1.0753322 0.3428691 0.50100493 0.62219554

fc2.weight f4 [15, 64]
00000000: da6a c4be 338b 123e a4fb 0ebf 8d1d 043e
00000010: e094 b23d 26fb 70bf c2e2 643f 680c 42bf
00000020: ae58 d43e d847 47bf d8f8 62be e540 18be
00000030: 5bc9 4abf 3797 103b e0fd 9d3c 704e a73e
00000040: b51a f6be 43a7 39bf 95cb 4fbf 584e e5be
00000050: 5495 243f 4c50 023f 60ea acbe 435a 5a3d
00000060: a560 86be 4db7 343e 1adb c93e 4174 0d3e
00000070: 292f e63e c765 023f e3d0 26bf 0f76 e0be
00000080: 4478 e1be 43b7 7abe 76b0 2cbe f9d1 d63d
00000090: 7bed 753e 23e3 eabd 233c 9abf 7148 1c3e
000000a0: c2d5 ce3d 8ddb 04bf 6652 3f3e cbb8 0bbf
000000b0: a61f e53d 67fc c1be 50c1 9d3d ce96 a53e
000000c0: a72c 14bd 384b 6ebc 7498 1a3f d0f0 0fbe
000000d0: 3cd4 cbbe 5e33 c8be c200 5bbd d274 ba3e
000000e0: 0bf8 913e cd0c 30bf 7acf 72bf ddb1 25bf
000000f0: f40f 5ebe 2ca1 433d 92a7 e1be e2bd cbbe
00000100: 8745 27bd 153c 72bd 42ba 6abc 9d3e 5d3f
00000110: d2c3 0d3e 8f0e 16bf 121b c6bd 345d 083f
00000120: 8048 6fbe 8dd3 67be cd41 7d3e 6313 c03d
00000130: 5e6f 703f 5f2f 70be 1740 74bd e283 823e
00000140: 3e2a f6be 7918 97bd 45ec 53bf 3ee9 1ebf
00000150: 525a 90be c6e2 1f3e cf3f 7dbe f429 07bf
00000160: 6993 293d 306c 59be e597 2c3e 5265 edbb
00000170: e061 1b3f ebf6 adbe fc89 2c3f eb82 893d
00000180: 6664 8fbe 0d06 92be dde8 173e abf6 d2be
00000190: 955a 11be 73e6 433f c908 98be 8863 0a3f
000001a0: c32a 0cbf d83c e9be f8df b93e 5ff5 fe3d
000001b0: b168 20bf 7d38 6e3e 0dc1 0cbe 3262 d7be
000001c0: 29ea da3e 596b 1c3d 565f 303f dddd 4a3c
000001d0: 5687 b43d d7f6 43be 6b2b 253e cb71 f93c
000001e0: e761 8fbe bda9 f23e ddd0 123f 9a63 88bc
000001f0: df54 1fbe 143f aebe d49f ecbd aecb f83e
00000200: 3ca9 bebd a9ca a53e 4922 9abe 7fce cc3e
00000210: ed56 cd3e a7b5 0d3f 4499 103e 6bac b23d
00000220: 102e 043f 64cd 94bc b3ce 87bd a390 cabd
00000230: a1ed 3f3e a5e9 753e 422c 83be 9748 183e
00000240: b5ba cebe e2d1 883e db8a c83e 006b 90be
00000250: b184 5d3f acfd a33e e7d3 b239 ea78 e1be
00000260: cec6 993e ccbb b6bd a9a2 5a3d 768a 34be
00000270: aa37 343f 1cdd 363e 08d2 6e3e 0948 2ebe
00000280: d3c2 5c3e 8356 22bf 5214 643f 86bb 1d3f
00000290: 1d4f 1ebe 81d4 d43e dea8 2bbe 4c0b 9abe
000002a0: 9782 a33e 635c ac3c 5cef e23d 222e 813f
000002b0: a5f4 6b3e 96ab 6abf 2d7b 36be 1ea1 073f
000002c0: 76e6 6b3f b7e9 17bd b0dc 26be 0336 02be
000002d0: 8b0f 1dbf e723 873f f50d 4dbf e35f 88be
000002e0: f8e4 223f 03b5 6bbf 13be 553e 29f3 dabd
000002f0: 2c25 44bf 56f6 84be aea9 98be c856 77be
00000300: 92c7 02bf 4c66 a13e 5eb6 c93e be5d bebe
00000310: 24ef ba3e 38e9 2ebf 1fb1 603f 2290 fa3e
00000320: 4104 903e 9be7 4a3f 9260 1fbf a1b9 e8bd
00000330: 41d3 11bf 5850 52be d1ea 883e 441c 0fbf
00000340: 35d2 ba3e 6f01 6abc df95 0a3e e742 4f3f
00000350: d9b8 58bc dc54 12bf b5b9 8a3f bb39 053f
00000360: fab6 013e 623c d6bd fb57 78be 11a3 72be
00000370: c997 85be 2f55 15bf 565d da3d 9416 fb3e
00000380: abd4 75bd 3307 54bb 2523 22bf b6bb 09bd
00000390: 1123 9bbf 4e3a 9abe 0511 24be 6771 bdbe
000003a0: 64e4 9f3d 35ab 16be a60f 523e 5d6a 4cbd
000003b0: 1971 2fbf 4795 aabe 8041 56bf e9e4 cb3e
000003c0: 4d58 953e e70e eb3e 9734 90be 1bd6 6ebd
000003d0: f934 49bf 24f6 ea3e fad3 253c 6810 353f
000003e0: 4c8f b3be 7199 8b3c b1e2 74be 7699 b23e
000003f0: 9ea9 1ebe 177b 09bf ac69 5abf 31b8 963e
-0.3836277 0.14310913 -0.55852723 0.12901898 0.08719802 -0.9413322 0.89408505 -0.7580018
0.41473907 -0.77844 -0.22165239 -0.14868505 -0.79213494 0.0022062787 0.019286096 0.3267703
-0.4806725 -0.72520846 -0.81170017 -0.44786334 0.64290357 0.50903773 -0.33772564 0.053308737
-0.2624561 0.17648049 0.39424974 0.13813879 0.44957855 0.5093655 -0.65162486 -0.43840072
-0.44037068 -0.24483971 -0.1686419 0.10489268 0.24016373 -0.11469104 -1.2049602 0.15262009
0.10099365 -0.5189751 0.18683776 -0.54578847 0.11187677 -0.3788788 0.07702887 0.32341617
-0.036175396 -0.014544301 0.60388875 -0.14056706 -0.3981036 -0.3910169 -0.05346752 0.36417252
0.28509554 -0.6876953 -0.94847834 -0.6472452 -0.21685773 0.047761127 -0.44073159 -0.39793307
-0.04083779 -0.05913933 -0.014326634 0.86423665 0.13844231 -0.58615965 -0.09673132 0.53267217
-0.233675 -0.22639294 0.24732132 0.09378698 0.9391993 -0.2345557 -0.059631433 0.25491244
-0.48079103 -0.07377715 -0.82782394 -0.6207465 -0.2819391 0.15613851 -0.24731372 -0.5279839
0.041400347 -0.21232677 0.16854818 -0.0072447443 0.6069622 -0.33977446 0.6739805 0.06714424
-0.28006285 -0.2852024 0.14834924 -0.41203818 -0.1419471 0.7652351 -0.29694203 0.5405812
-0.5475275 -0.45554233 0.36303687 0.124491446 -0.62659746 0.23263736 -0.13745518 -0.42067105
0.42756775 0.038188312 0.6889547 0.012381998 0.08814876 -0.1913713 0.16129844 0.030449769
-0.2800438 0.47395125 0.5734995 -0.016649056 -0.1555972 -0.340325 -0.11553922 0.48592895
-0.09309623 0.3238118 -0.30104282 0.40001294 0.40105382 0.55355304 0.14120966 0.08724292
0.51632786 -0.018164344 -0.066312216 -0.098908685 0.18742992 0.2401491 -0.25619704 0.14871441
-0.4037682 0.26722628 0.39168438 -0.28206635 0.86530596 0.32029474 0.00034108685 -0.44037563
0.30034488 -0.08922538 0.05337778 -0.17630944 0.70397437 0.17857784 0.23322308 -0.17019667
0.21558695 -0.63413256 0.89093506 0.61614263 -0.15459867 0.41568378 -0.16763636 -0.30086744
0.3193557 0.021040147 0.110808104 1.0092204 0.23042543 -0.9166807 -0.17820425 0.5298022
0.9214853 -0.037088122 -0.16295123 -0.12715916 -0.6135184 1.0557832 -0.8009942 -0.26635656
0.6363063 -0.92073077 0.20873289 -0.1069091 -0.7661922 -0.2596919 -0.29816955 -0.24154198
-0.5108577 0.3152336 0.39396948 -0.37180895 0.36510575 -0.68324614 0.87770265 0.4893809
0.28128245 0.7925965 -0.6225673 -0.11363531 -0.5696297 -0.20538461 0.2674165 -0.55902505
0.364885 -0.014282568 0.13533734 0.8096146 -0.013227665 -0.57160735 1.0837923 0.52041215
0.12667456 -0.10460736 -0.24252312 -0.23695017 -0.26092365 -0.58333105 0.10662334 0.49040663
-0.06001727 -0.0032352924 -0.63334876 -0.03362628 -1.2120076 -0.30122608 -0.16022117 -0.37000582
0.07807234 -0.14713748 0.20513782 -0.049906123 -0.6853195 -0.33317015 -0.83693695 0.39823082
0.2916893 0.45909807 -0.28165123 -0.058309656 -0.78596455 0.45890915 0.01012134 0.7072816
-0.35070264 0.01704094 -0.23914601 0.34882706 -0.15494391 -0.53703445 -0.8531749 0.29437402

fc2.bias f4 [15]
00000000: cb79 4a3f b228 be3b 9a6b a9bd 8ae9 fa3d
00000010: 546d ec3e ddbf 803e 958f 1d3d a860 603e
00000020: 1b86 e6be 6353 423e 8bbf 543e 0dc6 a9be
00000030: 278e 99bd 5494 0cbe c8d4 f2be
0.7909209 0.005803191 -0.082724765 0.12251575 0.4617716 0.2514638 0.03846701 0.21911871
-0.4502419 0.18977122 0.20776193 -0.33158913 -0.074978165 -0.13728458 -0.47427964
