cem_cartpole.pth (torch_old, 10328 bytes, 4 tensors)

fc1.weight f4 [64, 21]
00000000: 79b2 07bd 6a59 e93e c701 cfbe b7c8 1fbf
00000010: c7af 323b 5e20 1b3f f9f3 a13f efaf 3a3f
00000020: 27ea 09bd 2a0f ad3d f822 edbe a84c 69bf
00000030: ea42 ae3e 4256 1f3d a150 c4be 6979 28bf
00000040: 7604 03bf 613d c4be 5cc4 153f 52ee fabe
00000050: 18fb b0be a606 84be d102 bf3d d16a 753e
00000060: cc6b bf3d b2c4 0c3e d760 28bf 1cd1 093e
00000070: dfbd 16bf fb89 973d e718 b73e 5674 e6be
00000080: 191f a8bd e919 85bd 46ad 553e 9c20 8ebe
00000090: 150a 53be ea70 5c3f 2326 d03e 68d6 9ebc
000000a0: 2d82 90be 0ca1 883f c2c6 d23e a18a 0bbf
000000b0: 680e 83be 5924 943e f0e3 443f 4a19 21be
000000c0: b8da 94be e5b6 0cbf 4b57 c6be 908f 47bf
000000d0: 4c4c b1be a02e 90be 26ad b33e cdd0 0e3f
000000e0: 7c29 523f a0a9 533c 3152 fc3e 3c41 b6bd
000000f0: a9f7 943e 8037 c23e 7778 23bf 0246 c03e
00000100: 0571 f4bd 065a 4c3e 897d 153f 045a 2b3c
00000110: 7217 203f eda7 97bf 63b9 8abe 18d7 e9bd
00000120: ecaa 973e f000 613e 8135 8ebe 52a4 fb3e
00000130: fd9b 6abf 78b2 ac3c 9ecb 123f 8baf 173f
00000140: b253 c23e a619 283e 7c8d 3b3d 504d f3be
00000150: f5e5 1d3f b90a 1f3f 4c17 69bd cbc3 0c3e
00000160: 61ad bb3d 69b9 b9bd 28e6 b8bc 221d 2ebf
00000170: 2d69 37bf b024 993f d5e1 d83e c157 b83e
00000180: 2ff6 733f e373 26bf 50bc 72bd 05ed 9fbe
00000190: c0be e0be e86f c03b 3146 7d3f f651 60bf
000001a0: 5991 1b3f 7316 563e 4ff8 fa3d aa7c a93d
000001b0: 1b5e 453e 419f b6bd badb 29bf f901 7ebe
000001c0: c02c d0bc 53e1 613e fc57 afbe c1d0 e9bd
000001d0: f386 2cbf d7cf 9abe ad92 d2bf 1254 a4be
000001e0: 59b4 d23e 9f5a abbe d0ca 9abe 2287 be3d
000001f0: 6b13 4dbe 1185 d73e 9ccd 02bf 2d53 1cbf
00000200: 9255 003f e770 9abe bf65 fabe a1c9 403f
00000210: 5c62 c03e 64db a6be 0367 f7be a26f 0f3f
00000220: 7dd2 913d ad42 ad3d adc6 e83e 053e a8be
00000230: 8c52 eebd 7524 88bf 7314 803e 2ed2 a1be
00000240: e1b8 9ebe 94ff 863f 09fb b4bc 0cf1 e93e
00000250: 074f 073f cea1 c3bd 3b67 fcbe 5d46 27bf
00000260: bf52 be3e 8ab1 ff3e 791f 86bf 63d1 8dbe
00000270: dfe2 1a3e e95f bc3d 289e f3be 7a91 afbe
00000280: 2a6e 2e3f 04fc aebe f591 493f 49fb 843f
00000290: 85a5 dfbd 97e1 f23e a014 53bf ce0f dfbe
000002a0: 042f e43d 47a3 203f 113f acbe 4cfd 31bf
000002b0: f662 fc3d 5ebf acbe e942 96bd 8491 7b3e
000002c0: 6445 1dbf 4b32 a63e 9a6e a53e 2587 843e
000002d0: 1860 453e 80c5 2abf c751 26bf 755a 3a3e
000002e0: b40f 05bf e8ec 143f c289 893e a3df 07be
000002f0: a024 17bf 5209 393f 5e3c 35be 2354 cebe
00000300: 8ee9 093f 57b0 7bbe 4f48 a03d fa46 8e3c
00000310: 44ac 783f 58cc f83e 2f5c 36bd c10e f8be
00000320: 29b0 8f3c 7b75 adbe 6a21 f73e 458f a7be
00000330: 07ad 5f3f 1379 15be 02b6 68be 0b3b 3c3f
00000340: bbe7 9f3e 352b 1dbf 3766 b6be c352 393f
00000350: 40d3 34be 569a 3b3f 360f 02bf 0781 c03e
00000360: 1681 bcbd 057a 95bd 464b 61be 2934 773d
00000370: e27a de3e feba bdbc 0c08 f33e f717 033f
00000380: 89a3 debe a6a8 bbbe 328f e3bd 242b 32bf
00000390: a343 febd 1101 133e 57a8 f0bc 6762 3dbf
000003a0: 5012 82be 4ea3 95be ba19 303d 1f6b 93be
000003b0: 6e75 c33c 8cfe c33e e182 66be d9b3 783d
000003c0: ca99 eabe ff12 fc3e 962a 293e ac85 c3bd
000003d0: 808f 44be e3da 353f 0053 e8be 80c5 733e
000003e0: 9c13 cd3e 104e 083f a0d3 84bd 1a93 9cbe
000003f0: 4e43 f6be 8552 d4be 0b0a 11bf ea47 a7be
-0.03312919 0.4557603 -0.40431044 -0.6241564 0.0027265416 0.60596263 1.265258 0.72924703
-0.03367057 0.08450158 -0.46315742 -0.91132593 0.34035426 0.03890062 -0.38342765 -0.6581026
-0.5117868 -0.38328078 0.58502746 -0.4900995 -0.3456657 -0.25786322 0.09326709 0.23966528
0.093467325 0.13746908 -0.65772766 0.13458675 -0.5888347 0.073993646 0.35761186 -0.45010632
-0.082090564 -0.064990826 0.2086688 -0.27759254 -0.20609315 0.86109793 0.40654096 -0.019389346
-0.28224316 1.0674148 0.41167265 -0.54508406 -0.2559693 0.2893398 0.76910305 -0.15732303
-0.2907312 -0.54966575 -0.38738474 -0.77953434 -0.34628522 -0.28160572 0.3509304 0.55787355
0.8209455 0.01291886 0.49281457 -0.08899161 0.290952 0.37932968 -0.6385569 0.37553412
-0.11935619 0.19956216 0.58394676 0.010458473 0.62535775 -1.1848122 -0.27094564 -0.11417979
0.2962259 0.21973014 -0.27775195 0.49148804 -0.9164427 0.021081194 0.57341945 0.5925223
0.3795448 0.16416034 0.045789227 -0.47519922 0.6167901 0.62125736 -0.056906983 0.13746564
0.09163929 -0.09068567 -0.022570685 -0.68013203 -0.7164486 1.1964321 0.42359796 0.3600445
0.9529752 -0.6502058 -0.05926162 -0.3123552 -0.4389553 0.0058727153 0.9893523 -0.8762506
0.6076866 0.20907001 0.12254392 0.08275731 0.1927418 -0.08917094 -0.663509 -0.2480544
-0.025411963 0.2205861 -0.34246814 -0.1141677 -0.67393416 -0.30236694 -1.6451012 -0.3209539
0.4115322 -0.33467576 -0.3023286 0.09303118 -0.20026939 0.4209371 -0.51094985 -0.61064416
0.5013057 -0.30164263 -0.4890575 0.7530766 0.37575042 -0.32589257 -0.4832078 0.56029713
0.071202256 0.08459983 0.45464078 -0.32859817 -0.11636838 -1.0636126 0.25015602 -0.31605667
-0.31000426 1.0546746 -0.02209236 0.45691717 0.5285496 -0.09552346 -0.4929751 -0.6534174
0.37172505 0.4994014 -1.0478355 -0.27698812 0.15125607 0.09197981 -0.475816 -0.34290677
0.68136847 -0.34176648 0.7873834 1.0389186 -0.10920242 0.47437736 -0.82453346 -0.43566746
0.1114178 0.6274914 -0.33641866 -0.69527125 0.12323563 -0.33739752 -0.07336981 0.24567229
-0.61434007 0.32460245 0.32310945 0.25884357 0.19274938 -0.6670761 -0.6496853 0.18198569
-0.51977086 0.5817399 0.26862913 -0.13268904 -0.5904026 0.72279847 -0.1769881 -0.40298566
0.53872 -0.24578987 0.07826292 0.017367829 0.97137856 0.48593402 -0.044521507 -0.48448756
0.017540054 -0.33878693 0.4826768 -0.32726493 0.87373394 -0.14596967 -0.2272568 0.7352759
0.31231484 -0.61394054 -0.3562486 0.7239191 -0.1765871 0.7328237 -0.5080446 0.3759844
-0.09204309 -0.07298664 -0.22001371 0.06035248 0.43453127 -0.023160454 0.47467077 0.5120844
-0.43484142 -0.36652106 -0.11111297 -0.6959708 -0.124152444 0.14355876 -0.029377146 -0.73978275
-0.25404596 -0.29226154 0.042993285 -0.28792664 0.023859706 0.3828014 -0.22510864 0.06071839
-0.45820457 0.49233243 0.16520151 -0.0954698 -0.19195366 0.7103712 -0.45375824 0.23805809
0.40054023 0.53244114 -0.06485677 -0.3058098 -0.48098224 -0.41469207 -0.5665595 -0.32672054

fc1.bias f4 [64]
00000000: 3b43 afbd 5682 ad3f 7b0b acbd 0ffc d5be
00000010: 6d92 de3e 233e 01be d188 c33e 62e9 853d
00000020: 4558 e9bc bf7b 80bf ef53 873f 59ec 253e
00000030: e723 1cbd 95df be3c 8b62 6bbf a3c0 28be
00000040: 880a ed3e 68a7 29be 173c c6be c330 b0bf
00000050: 776e 00bf f41a 28be c2e9 ca3e a555 e73e
00000060: c519 86bb 57d8 d0be 7e72 09bf 124d 9c3f
00000070: 5c4d ec3e cd0d ea3e 499d 533e ab3c 2a3e
00000080: 6bed 863e 5256 6d3f 0415 f0be 6643 9bbf
00000090: 329e 07bd 7341 93bd ab70 6a3e 7e28 f23e
000000a0: 8a12 983d b078 f83e c439 92be 98b7 00bf
000000b0: 9bcf 0dbf 7ad9 1c3f 4928 2b3e 5e64 143e
000000c0: e590 093f 6251 a1be 8332 6bbe 2879 b4bd
000000d0: cb72 49bf 99c7 36be a4d2 463e 75dd edbe
000000e0: b7f2 1bbe d501 8fbf 2532 d6be 62d9 703c
000000f0: 76a4 8cbd b44e 3d3e b81e 81bf ae5c 7e3e
-0.08557745 1.35554 -0.08400627 -0.41793868 0.4347109 -0.1262136 0.3819032 0.06538655
-0.028484473 -1.0037764 1.057249 0.1620344 -0.038120177 0.023299972 -0.9194724 -0.16479735
0.46297097 -0.16567767 -0.3871772 -1.3764881 -0.50168556 -0.16416532 0.39631468 0.4518253
-0.0040924274 -0.40790054 -0.53690326 1.221102 0.4615277 0.45713654 0.20665468 0.16624705
0.2635301 0.9270984 -0.46891034 -1.2129943 -0.03310985 -0.07190218 0.22894542 0.47296518
0.07425411 0.48529577 -0.28559697 -0.5028014 -0.55394906 0.6126934 0.16714586 0.14491412
0.53736717 -0.31507403 -0.22968487 -0.08812171 -0.78690785 -0.17849578 0.1941629 -0.4645802
-0.15229307 -1.1172434 -0.41835132 0.014700266 -0.06867306 0.18487054 -1.00875 0.24840042

fc2.weight f4 [15, 64]
00000000: 2147 9e3f 318e 31bf 3a6f b3be e023 46be
00000010: f1d2 eebe 511c 03be 768b a8be 1de1 e0bd
00000020: 9dd2 903e a83b 543f cc2a 9cbe 1189 ddbe
00000030: a32d ec3e 55cb d9bf 9d8f c63e 6377 f8be
00000040: e277 af3c 493f ccbd 114c 7abc 59f4 90be
00000050: 8ed1 923d 6abb 003f 2855 82be ca20 873f
00000060: 399d 753f 6f63 143e 8ce8 5c3d 5e10 f0bd
00000070: 519c 483e cfae be3e a0cc 5f3f d050 36bf
00000080: c4c0 fc3d fb44 5ebe 8d72 03bf 04db e0be
00000090: 1298 f73b a95b 36bd 8039 2a3f 2b10 8d3d
000000a0: 55a7 253f 4d6d 413d aff0 81bd 73c4 8abd
000000b0: 861d b73e a0ad b6be 7f9f f33e 2b04 f93d
000000c0: f204 aa3d 0fde 16be 78ab babe cbd6 61be
000000d0: 77c9 3ebe 49e6 05bf 9321 4b3e c9f1 49bf
000000e0: 4b63 083f ac03 c93e 6f9f 36bf e9f3 c4be
000000f0: bc39 b2bf ffcb 793e 97d3 d13e f20e 873e
00000100: f41a 8dbd 67e8 233e 7009 c33e 6397 5dbe
00000110: 8ba6 b23d 575c a8bd b270 6a3e 1b3b acbd
00000120: 8068 6fbe cb14 81bf 92c1 05bf a53e 5a3e
00000130: 26fe 6bbd aa6d 15be 66c2 88be 9d20 1bbf
00000140: 9198 833e 3c05 78bf fa4a 32be 66df 03be
00000150: 898b 163e 31a4 313e e763 423f 8a4a 15bf
00000160: 547f 583d 6d56 893e 4797 cebe 3d8b 393c
00000170: 8ed5 4dbf b1f1 173e 5239 203e 4968 cbbb
00000180: 3445 74bf 81a1 0b3f 8797 4cbf fcc8 79be
00000190: cdab 8d3e 4930 233f d482 d63e f2f0 e43e
000001a0: a19b 1fbf 0531 79be c7c3 2b3e 5f11 4c3e
000001b0: e313 94be 5cd4 8dbe c251 fcbe 2d36 9dbe
000001c0: 1520 95bf aaad 15bf c62b 053e 13b3 6c3f
000001d0: e39e abbd 1de4 36bf c755 df3e 8bc8 90be
000001e0: fc29 f53d 20e5 e7bd eeba 103f f37e 5cbe
000001f0: f0cb 81bf 25c3 583c 3b7f 103f 6d2c 98be
00000200: d78c 853f c16c 4dbe 394e aa3e 987f c13e
00000210: ae5a e2bd 8c86 253f 8132 613f b4cf 9fbe
00000220: 9d98 11bf 8108 71be ff19 3abf c780 c9be
00000230: 9693 22be d0be 50bf 2323 26be c56d 53bf
00000240: 693c 16be ed31 8dbe 3ae8 3fbe 6362 18bf
00000250: f196 9b3e fedc 373f 7a1a b2be 5329 a43e
00000260: 55eb 0f3d e106 c43e 07ff a53e 6783 803e
00000270: 6a12 f5bd 7429 85bf 91e5 c9be 0aa0 073f
00000280: 060a 503f fe9b cabe acda 323f 32f2 de3e
00000290: dd39 713d 7cb7 7c3f c9d3 c0be 9ffe 62bd
000002a0: 4c42 0fbf 8d2f 8dbe be06 1f3e 9e7a 5d3f
000002b0: ab38 463e f6b2 d9be f904 343f 356f 6f3e
000002c0: 0572 49bf 1078 7cbd 14af 0e3e 448f f93c
000002d0: 9cc7 87be 6a50 6abf 597a 703e 2aa9 063f
000002e0: 2d92 a73d 5b73 4cbf 658e a63d 2e50 acbe
000002f0: c1e5 eabd 4e5d f8be 7fd8 2dbf 00d8 813e
00000300: fcea e23e 25be 063d 7a80 563e e7a5 903f
00000310: ade0 fd3d 2e2a 6bbf 7500 e63e 1fc5 5cbf
00000320: 7c88 eabb b7af 2fbe 2dc2 8b3e b6da 21bf
00000330: eced cd3c 80f8 f2be 2db0 5abf 6b13 1bbf
00000340: a676 1a3f e58a 9a3e eb72 48bf 3830 bdbe
00000350: 3e1b 60be cfc4 f23e 9e69 c7be ef6a 213e
00000360: 83db a8be b2cf 083f 4dee 6cbc b904 18bf
00000370: 5011 dd3c e73f 083f 3423 fc3e fa4e 6cbe
00000380: ceee e7be a791 5f3e 6ae1 2bbf 9cca 953e
00000390: ca54 343f 33c5 83bf 7006 bb3e c202 12bc
000003a0: aced 96be 1a0a 1c3d d100 2abf be18 6cbd
000003b0: 2bba 363f 66f3 a13e 9b20 813e 94f1 4d3d
000003c0: 7009 58bf f0ff 84be a172 c73d b84c 153e
000003d0: e470 e9bd caf6 44bf af74 873f 4c41 93be
000003e0: e8a6 3abd 40ef e8be fd26 06bf b1a1 40bf
000003f0: 814a 503d 9729 a0be 8b3c 19bf 285d f8bd
1.2365457 -0.6935759 -0.35045797 -0.19349623 -0.4664531 -0.1280377 -0.329189 -0.10980437
0.28285685 0.8290353 -0.305014 -0.43268636 0.46128568 -1.7015177 0.38781443 -0.48528585
0.02141947 -0.09973008 -0.015276925 -0.28311422 0.07168876 0.5028597 -0.25455594 1.0556881
0.9594303 0.14491056 0.05393271 -0.11721872 0.1959088 0.37242743 0.8742161 -0.7121706
0.123414546 -0.21706001 -0.51346666 -0.43917096 0.00755597 -0.044521008 0.6649399 0.068878494
0.64708453 0.047223378 -0.06344735 -0.06775751 0.35764712 -0.3567934 0.47582623 0.12158998
0.083017245 -0.14733146 -0.36458945 -0.22054593 -0.1863154 -0.5230451 0.19837026 -0.7888456
0.5327651 0.39260614 -0.71337026 -0.3846734 -1.3923869 0.24394225 0.40981743 0.2637859
-0.068899065 0.16006623 0.38093138 -0.2163978 0.08723172 -0.082207374 0.22894552 -0.08409711
-0.23379707 -1.008447 -0.5224849 0.2131296 -0.05761542 -0.14592615 -0.26710814 -0.6059664
0.25702336 -0.9688299 -0.17411414 -0.12878188 0.14701666 0.1734779 0.7593369 -0.5831686
0.052855805 0.2682375 -0.4034979 0.011324701 -0.80403984 0.14838292 0.15646866 -0.0062075
-0.95418096 0.5454331 -0.7991871 -0.24393076 0.27670136 0.6374555 0.4189669 0.44715077
-0.62346846 -0.24335106 0.16773902 0.19928502 -0.28921422 -0.2770108 -0.49281126 -0.30705395
-1.1650416 -0.58468115 0.1300498 0.92460746 -0.083799146 -0.71441823 0.4362013 -0.28278002
0.119708985 -0.11322999 0.5653523 -0.21532802 -1.0140362 0.01323012 0.5644414 -0.29721394
1.0433606 -0.20061018 0.33262804 0.3779266 -0.11052452 0.6465843 0.8796769 -0.31213152
-0.56873494 -0.235384 -0.72695917 -0.39356062 -0.15876612 -0.81541157 -0.16224341 -0.8258937
-0.14671482 -0.27577153 -0.18740931 -0.59525126 0.30388597 0.7182158 -0.34785825 0.32062778
0.03513654 0.38286498 0.32421133 0.25100252 -0.11966403 -1.0403275 -0.39432958 0.52978575
0.81265295 -0.39572138 0.69864917 0.43544155 0.058893073 0.98717475 -0.3766158 -0.055418607
-0.55960536 -0.2757534 0.15529916 0.86515224 0.19357555 -0.4251935 0.7032009 0.23382266
-0.78689605 -0.061637938 0.13933975 0.030463822 -0.26519477 -0.9152895 0.23484172 0.52601874
0.08182178 -0.7986352 0.08132628 -0.33654922 -0.11469603 -0.48508686 -0.6790847 0.25360107
0.44319904 0.03289618 0.20947447 1.1300629 0.12396369 -0.91861236 0.44922224 -0.8623828
-0.0071573835 -0.17156874 0.27296582 -0.6322435 0.025137864 -0.47455215 -0.8542507 -0.60576504
0.60337293 0.30184093 -0.7830035 -0.3695085 -0.21885392 0.47415778 -0.38947767 0.15763448
-0.32979974 0.5344192 -0.014461112 -0.59382206 0.026985794 0.5322251 0.49245608 -0.23077002
-0.4529938 0.21832906 -0.6714083 0.2925614 0.7044188 -1.0294555 0.3652835 -0.00891179
-0.29478204 0.03809557 -0.66407496 -0.057640783 0.7137782 0.3163101 0.25220188 0.050279215
-0.843894 -0.25976515 0.097386606 0.14580047 -0.11398485 -0.7693907 1.0582484 -0.28760755
-0.04556933 -0.45495033 -0.5240324 -0.7524672 0.050852302 -0.3128173 -0.59858006 -0.12127143

fc2.bias f4 [15]
00000000: 1e3a 963e c563 25be 745c 6dbf 3bf3 9bbe
00000010: cf07 23be 5d58 af3d 184a c23f 1662 333e
00000020: f984 1c3e 5157 84be e042 30bf 0ec0 813e
00000030: 20ab 9e3c 9656 243e f52e 81bf
0.29341215 -0.1615134 -0.927192 -0.30459008 -0.15920947 0.08561776 1.5178862 0.17517886
0.152851 -0.25847867 -0.68852043 0.2534184 0.019368708 0.16048655 -1.0092455
