cem_cartpole_3_5.pth (torch_old, 20312 bytes, 4 tensors)

fc1.weight f4 [64, 60]
-0.6063647 3.5561888 3.590679 -1.0464318 -0.778929 2.9132726 2.861937 0.4087614
-0.37557915 2.788076 0.85380435 -1.3712138 -0.22209044 3.681258 0.12050291 2.3558934
0.786958 -1.1957449 1.6311135 2.516567 1.3498985 1.2164314 -0.52164 -1.8475815
-0.2444992 2.0882623 -0.7679245 1.3290364 0.7312867 -0.9524551 -1.4404263 1.6916373
1.1762915 1.7707462 -0.2757816 2.6119378 1.9684674 -0.43510148 1.3323859 0.60237116
-0.35200882 -1.9853722 -1.3532404 -2.9958434 1.7442443 0.6164823 -0.45380962 3.2676194
-1.9430286 0.60458654 1.3514415 0.34746662 -2.8865378 0.30078965 0.50980765 0.8363451
0.11762348 0.76061225 0.9598254 2.00233 1.0956174 -0.31593513 -0.3700154 -2.0018816
-3.8850794 -1.8918734 1.8210074 2.6901364 -0.15716252 1.7731899 0.79365283 0.06184259
0.8193141 -1.4565309 -0.6424449 0.6988139 0.29178628 -0.55054766 -2.9734528 -1.5180835
1.1965467 -0.19693844 1.771816 0.9583683 -0.5993542 4.7374654 0.33424908 -1.1754984
1.7988297 -0.5770499 -1.2453353 0.33850178 0.2228521 -1.462161 -0.7361657 1.3807362
-1.5520383 -0.091853164 1.0394459 0.68728733 0.43319055 0.8604039 1.7383184 -0.67983735
0.15257752 -0.19760999 0.43129018 0.585139 -1.9481106 1.8115227 0.75281936 1.0193675
-0.078283355 2.6276627 -2.6719427 0.2939584 -1.8259134 -0.22064821 0.039736714 2.0326078
0.39116767 0.9342634 0.83227485 -0.07201073 0.91773295 -1.5143982 4.6143165 -2.816648
1.1327055 1.4829811 -0.29345006 0.8715307 2.8020995 0.015985997 -1.2947679 0.702791
-1.1384573 -1.0711207 1.6771699 -0.6253524 2.7341683 1.5214711 0.13494697 -1.7093066
-3.1540146 1.0185336 -0.45034048 -1.9630109 -5.0091543 -0.20510626 -1.9866965 1.352438
-0.74711007 1.4430751 2.1937587 0.40236595 -0.59570503 3.1719792 -1.1266967 0.9783124
0.81442446 -1.9965372 0.39096436 -1.2460535 2.5525985 2.4600935 -0.023814794 -1.6910326
-1.8524803 0.39597613 2.1661851 -1.0522034 0.07297711 0.6165482 1.0561943 1.6382809
-1.8127972 1.7095094 -1.2864785 0.17816715 0.31735283 -0.0565006 -0.082802735 0.41007918
0.5991806 0.65130687 -1.5224062 -1.7011943 -0.7107046 0.99539435 -1.8831726 -0.18920693
0.08535666 0.9758251 1.2501689 0.0361477 -1.4054259 -1.6438994 -0.19725075 -0.28984138
-1.7631702 2.4030092 1.797234 -0.2650208 -1.5236509 2.128768 -0.57728404 -0.16338976
-1.453787 0.7773707 0.0111313965 3.129201 2.0473387 0.5523114 -1.4797729 -0.5205085
-1.7952946 -1.8245485 0.21392617 1.2296379 0.20954672 1.6629952 0.7557084 -1.778952
-1.0668132 -0.47026244 1.5641495 -1.2237357 2.395634 1.3889909 0.9001539 -0.010817615
-1.1688794 -1.1314951 -1.5557722 0.06860477 -1.8866917 -0.8348386 -0.8195262 0.2611425
-4.5651116 -0.9788264 -0.2087674 -2.2301023 -0.045037575 0.6848667 -2.3469326 -0.14507991
-1.3454337 1.3303641 0.4945302 -1.5576386 2.5805926 1.7898647 1.5742538 0.7087767
00000000: b83a 1bbf 9998 6340 afcd 6540 7af1 85bf
00000010: e467 47bf 0f73 3a40 fa29 3740 2d49 d13e
00000020: e94b c0be d66f 3240 ec92 5a3f ef83 afbf
00000030: ad6b 63be bb99 6b40 3bca f63d f5c6 1640
00000040: 1476 493f 2b0e 99bf 54c8 d03f 6f0f 2140
00000050: 79c9 ac3f 06b4 9b3f 338a 05bf 8d7d ecbf
00000060: 005e 7abe 17a6 0540 b396 44bf dd1d aa3f
00000070: 9b35 3b3f 19d4 73bf e45f b8bf 9287 d83f
00000080: b890 963f d0a7 e23f 3f33 8dbe fd29 2740
00000090: bdf6 fb3f 9fc5 debe 9f8b aa3f ff34 1a3f
000000a0: 803a b4be ad20 febf fb36 adbf e6bb 3fc0
000000b0: 6643 df3f c9d1 1d3f bc59 e8be ad20 5140
000000c0: 29b5 f8bf 2fc6 1a3f 09fc ac3f 25e7 b13e
000000d0: 09bd 38c0 1a01 9a3e c182 023f b61a 563f
000000e0: 94e4 f03d 7cb7 423f 1eb7 753f 2d26 0040
000000f0: 313d 8c3f 40c2 a1be a972 bdbe d41e 00c0
00000100: 24a5 78c0 e828 f2bf c516 e93f 322b 2c40
00000110: 36ef 20be e3f7 e23f d52c 4b3f a84e 7d3d
00000120: 92be 513f 9b6f babf 4577 24bf 78e5 323f
00000130: 0365 953e b1f0 0cbf 0d4d 3ec0 8f50 c2bf
00000140: 7128 993f 3baa 49be deca e23f a057 753f
00000150: 476f 19bf 5199 9740 b222 ab3e bb76 96bf
00000160: 0d40 e63f 8bb9 13bf 2667 9fbf 1b50 ad3e
00000170: 5733 643e 1728 bbbf 5b75 3cbf f7bb b03f
00000180: 31a9 c6bf 831d bcbd 900c 853f 10f2 2f3f
00000190: 27cb dd3e 6e43 5c3f 3881 de3f d209 2ebf
000001a0: 483d 1c3e 465a 4abe 11d2 dc3e abcb 153f
000001b0: b05b f9bf fadf e73f c5b8 403f a27a 823f
000001c0: 0653 a0bd a02b 2840 1c01 2bc0 b781 963e
000001d0: 88b7 e9bf 9bf1 61be f7c2 223d 3f16 0240
000001e0: 2147 c83e e32b 6f3f f70f 553f 5d7a 93bd
000001f0: 8cf0 6a3f cdd7 c1bf 7ba8 9340 f643 34c0
00000200: 7efc 903f 53d2 bd3f 163f 96be a31c 5f3f
00000210: 9955 3340 11f5 823c f4ba a5bf 1cea 333f
00000220: f8b8 91bf 7c1a 89bf 81ad d63f 1817 20bf
00000230: 9dfc 2e40 91bf c23f 8a2f 0a3e 8fca dabf
00000240: 60db 49c0 4f5f 823f 0793 e6be f143 fbbf
00000250: fe4a a0c0 6007 52be 124c febf b01c ad3f
00000260: 9b42 3fbf afb6 b83f 8b66 0c40 e902 ce3e
00000270: 2080 18bf b501 4b40 9937 90bf ae72 7a3f
00000280: 1f7e 503f 888e ffbf 7b2c c83e ae7e 9fbf
00000290: c65d 2340 2c72 1d40 3e17 c3bc c273 d8bf
000002a0: 131e edbf 62bd ca3e c7a2 0a40 9aae 86bf
000002b0: 0675 953d 1ad6 1d3f 6031 873f 30b3 d13f
000002c0: bd09 e8bf 34d1 da3f 54ab a4bf 7371 363e
000002d0: 127c a23e 2c6d 67bd 7b94 a9bd e6f5 d13e
000002e0: e663 193f 0cbc 263f 35de c2bf bcc0 d9bf
000002f0: bdf0 35bf 2ad2 7e3f cd0b f1bf 76bf 41be
00000300: 79cf ae3d accf 793f 8905 a03f 9c0f 143d
00000310: ffe4 b3bf 4c6b d2bf 1afc 49be 1766 94be
00000320: 90af e1bf e7ca 1940 c40b e63f ceb0 87be
00000330: fe06 c3bf bc3d 0840 e3c8 13bf a54f 27be
00000340: b115 babf c401 473f 7660 363c d444 4840
00000350: 9907 0340 4864 0d3f 3369 bdbf 0c40 05bf
00000360: 37cc e5bf ce8a e9bf 760f 5b3e c664 9d3f
00000370: 6a93 563e 07dd d43f 1b76 413f b3b4 e3bf
00000380: 568d 88bf 3dc6 f0be 0d36 c83f 5fa3 9cbf
00000390: 1152 1940 74ca b13f 7c70 663f 5e3c 31bc
000003a0: d79d 95bf d5d4 90bf 8b23 c7bf a880 8c3d
000003b0: 1d7f f1bf fcb7 55bf 78cc 51bf 78b4 853e
000003c0: 6515 92c0 5e94 7abf 1fc7 55be ffb9 0ec0
000003d0: 5279 38bd 6d53 2f3f 2534 16c0 d48f 14be
000003e0: 2c37 acbf 5f49 aa3f 1033 fd3e b460 c7bf
000003f0: 6e28 2540 491a e53f 2681 c93f 6472 353f

fc1.bias f4 [64]
-0.106363684 -1.4231915 -1.1630043 0.55451983 -0.12225999 -2.8076 1.295952 -0.14049442
1.0911621 0.38746482 -0.843364 0.77692086 -1.7874702 1.2668546 -0.20971034 0.26718873
1.289063 1.709705 0.18046162 2.8317797 0.0951387 -0.653971 1.2523377 -1.8996536
-0.6398624 0.5250065 1.6216627 -0.1145832 -2.162352 -0.8419123 2.054532 -0.89492184
-2.002889 0.80418766 -1.1602031 0.18404561 4.1823153 -1.0454646 -1.9144136 0.5869206
1.715723 -1.9939839 3.2282314 1.5703565 -2.9360552 0.6344395 -0.6057061 -0.045040984
-0.78061277 1.666687 1.5009288 0.30848885 1.6461844 -0.68026286 -1.9681494 -2.6565137
0.4573184 -1.0713279 0.51338506 -0.37690294 -0.47068292 1.5161568 0.1485157 -3.7481768
00000000: 34d5 d9bd 242b b6bf 53dd 94bf 03f5 0d3f
00000010: 7263 fabd b8af 33c0 c1e1 a53f c5dd 0fbe
00000020: 33ab 8b3f ca61 c63e b4e6 57bf 49e4 463f
00000030: d3cb e4bf 4b28 a23f 4fbe 56be f6cc 883e
00000040: 0400 a53f 9dd7 da3f eeca 383e e13b 3540
00000050: 14d8 c23d a56a 27bf 9a4c a03f d927 f3bf
00000060: 06ce 23bf d366 063f a592 cf3f 99aa eabd
00000070: fa63 0ac0 9187 57bf 747d 0340 9919 65bf
00000080: 552f 00c0 3edf 4d3f 8981 94bf 7476 3c3e
00000090: 87d5 8540 c9d1 85bf 810b f5bf 6e40 163f
000000a0: d09c db3f dd3a ffbf 589b 4e40 7101 c93f
000000b0: 54e8 3bc0 a16a 223f 8e0f 1bbf e57c 38bd
000000c0: 3dd6 47bf 0056 d53f 6f1e c03f 40f2 9d3e
000000d0: 2cb6 d23f b525 2ebf 52ec fbbf 5204 2ac0
000000e0: a325 ea3e 4621 89bf 346d 033f 6cf9 c0be
000000f0: 5afd f0be 6d11 c23f 8014 183e 21e2 6fc0

fc2.weight f4 [15, 64]
-0.47740197 1.1427261 0.32699257 1.6529543 1.6981721 0.25042418 -1.4336151 -1.3234222
0.9075915 -0.8160968 -0.59616727 -0.4909433 -2.8168674 -0.52557313 0.9231443 -1.9976617
-1.278137 -0.27622783 -0.5783287 -4.7173433 1.7340106 1.4853628 -1.8148398 -0.68773896
0.26181823 1.2803009 1.4332495 -2.4078753 -0.9322111 1.3202119 0.9659199 -2.3245745
-0.72334266 1.4704176 -3.1400306 1.104683 0.3997068 -0.7945821 0.5849151 1.3894746
-0.7044358 -1.6568812 -3.3229067 -0.56131244 0.12469378 0.5027898 0.31803197 2.9315846
-2.528886 0.498526 -3.3189368 -2.3598797 -0.98109746 -1.1817981 -1.5210049 -1.8182029
1.4815085 -1.4498624 -1.6669834 -1.99879 1.8749444 -1.3020288 -2.1446548 -1.1142724
1.3622862 -1.2053057 2.0489674 1.6800895 -0.0799751 2.642875 -1.737624 3.8336947
-2.642403 0.81541 -0.9322192 1.9052467 0.32063916 1.4693183 0.21476163 2.2012405
-0.6229274 -2.3955226 -1.8826058 1.2957172 2.6445332 -0.7142828 -1.2041227 0.53424025
2.8645158 -2.4300492 -2.7021139 -0.4071983 0.42182776 -3.014243 3.695638 2.1521084
2.0849855 0.19272776 0.5887168 0.15447408 -1.4639059 0.43011644 1.1201987 -1.5745523
3.075352 0.42095086 -0.8487483 -2.475131 0.39241534 -0.15535516 2.7696307 -0.3159821
-2.252634 -2.1185224 0.8359405 -2.0315828 1.4711185 -0.69460636 -0.8066783 5.648337
0.55353826 -0.5616888 2.3194954 -0.24684712 1.0269732 0.7665447 -1.0856396 -1.0742992
0.0054592397 0.576803 1.7242657 -0.041142687 -1.5780843 -0.31159315 -3.0982978 3.1822646
-1.3554881 2.6154077 -3.1248953 1.3039567 -0.13044006 -0.93145233 -1.8177177 -3.1420488
-0.07935516 -1.1522838 -3.0293467 -5.65441 -5.9451513 1.4569438 -0.91407603 -1.031558
0.4890021 -1.9357489 -2.2019274 -2.7457442 -0.7995955 -0.5356498 0.8127394 -0.8931012
-2.2217035 0.67587405 0.12398662 1.3360162 -0.3891662 0.385789 0.49917138 -1.9953852
-1.2040854 2.7604723 -1.1938158 -2.8534474 2.541571 -0.8616578 0.11231125 -2.6567843
-1.2208952 -3.0701745 0.4535673 -1.3053942 -2.0729563 -1.8622996 -2.323438 0.43402457
-0.13812557 -0.3519924 -2.7021766 0.9685518 1.8900331 -1.5399793 -1.41912 1.6832331
-0.43935534 2.0478148 -1.479743 0.011877521 0.5043054 2.6098146 -2.3281434 1.0451851
2.2490618 -3.0597901 0.080940075 -0.15165941 1.0851513 -3.2766461 0.480516 2.4504836
0.5460602 -0.91714513 1.8835646 0.4899395 2.231844 1.2460074 -0.9958213 0.69413793
0.056751158 -0.50047415 -0.79947245 1.6499211 0.57262886 -0.74062055 0.2857073 0.1669868
-2.021253 -2.86491 -0.044220228 0.28364372 -0.20541319 1.2294176 -0.8060277 1.5146421
-1.225547 1.4638546 -0.5161782 0.3348738 1.1598159 -3.5657485 -3.015456 -2.8144393
-1.1444013 -4.394865 -0.038609568 -2.0625145 0.11049771 0.034609392 -0.2753444 -1.8165683
-0.2948404 1.2123576 0.6556012 -1.1591333 -0.503284 -2.4659338 -0.44440562 0.727712
00000000: 086e f4be d944 923f 926b a73e 0294 d33f
00000010: b45d d93f 9937 803e b380 b7bf e665 a9bf
00000020: eb57 683f b8eb 50bf 6b9e 18bf ec5c fbbe
00000030: 8e47 34c0 f68b 06bf 2f53 6c3f 61b3 ffbf
00000040: fe99 a3bf bc6d 8dbe 5a0d 14bf 7af4 96c0
00000050: 0ff4 dd3f 5e20 be3f ac4c e8bf a90f 30bf
00000060: 0a0d 863e e6e0 a33f b874 b73f a11a 1ac0
00000070: 63a5 6ebf b4fc a83f 8746 773f d4c5 14c0
00000080: fc2c 39bf a536 bc3f 43f6 48c0 4166 8d3f
00000090: 5fa6 cc3e bc69 4bbf ffbc 153f 4eda b13f
000000a0: e855 34bf af14 d4bf 81aa 54c0 2cb2 0fbf
000000b0: 745f ff3d d5b6 003f 16d5 a23e 159f 3b40
000000c0: 45d9 21c0 cd3e ff3e 7669 54c0 4508 17c0
000000d0: 3429 7bbf 2945 97bf 4ab0 c2bf dfba e8bf
000000e0: 12a2 bd3f 1795 b9bf b65f d5bf 5ad8 ffbf
000000f0: 2efe ef3f e1a8 a6bf 0642 09c0 7aa0 8ebf
00000100: 655f ae3f 7547 9abf 4822 0340 2c0d d73f
00000110: fcc9 a3bd dd24 2940 776a debf 415b 7540
00000120: 211d 29c0 b6be 503f eba5 6ebf 20df f33f
00000130: d12a a43e 9f12 bc3f 79ea 5b3e 20e1 0c40
00000140: 2c78 1fbf 3e50 19c0 3af9 f0bf 10da a53f
00000150: 0840 2940 3ddb 36bf b120 9abf f8c3 083f
00000160: 3a54 3740 ed85 1bc0 6fef 2cc0 4c7c d0be
00000170: cff9 d73e 5be9 40c0 5585 6c40 25bc 0940
00000180: 6770 0540 6d5a 453e 25b6 163f 742e 1e3e
00000190: 4561 bbbf 3938 dc3e ac62 8f3f ee8a c9bf
000001a0: 91d2 4440 df86 d73e 9247 59bf 8c68 1ec0
000001b0: aaea c83e 6c15 1fbe a141 3140 68c8 a1be
000001c0: 282b 10c0 df95 07c0 3200 563f 7405 02c0
000001d0: 9c4d bc3f b9d1 31bf 7882 4ebf 2dbf b440
000001e0: afb4 0d3f d6ca 0fbf 9d72 1440 7ec5 7cbe
000001f0: dc73 833f 463c 443f 3df6 8abf a382 89bf
00000200: 6ce3 b23b 5da9 133f bdb4 dc3f 3c85 28bd
00000210: abfe c9bf 2389 9fbe 834a 46c0 39aa 4b40
00000220: a280 adbf d762 2740 49fe 47c0 0ee8 a63f
00000230: 1492 05be a973 6ebf f9aa e8bf 5417 49c0
00000240: f584 a2bd 097e 93bf d1e0 41c0 edf0 b4c0
00000250: ae3e bec0 227d ba3f e300 6abf 180a 84bf
00000260: 7c5e fa3e 9fc6 f7bf 61ec 0cc0 46ba 2fc0
00000270: 4ab2 4cbf 5820 09bf b00f 503f 48a2 64bf
00000280: 6430 0ec0 1506 2d3f b2ec fd3d 9402 ab3f
00000290: cb40 c7be 2386 c53e 6493 ff3e c868 ffbf
000002a0: 781f 9abf 94ab 3040 f5ce 98bf e29e 36c0
000002b0: 19a9 2240 9b95 5cbf 7103 e63d c108 2ac0
000002c0: 4b46 9cbf bd7d 44c0 f939 e83e 2817 a7bf
000002d0: 51ab 04c0 d55f eebf 35b3 14c0 7838 de3e
000002e0: ca70 0dbe 5938 b4be 76f0 2cc0 03f3 773f
000002f0: 9bec f13f 0b1e c5bf b9a5 b5bf 2f74 d73f
00000300: 2ff3 e0be 660f 0340 3868 bdbf ef99 423c
00000310: 291a 013f 3407 2740 4d00 15c0 a0c8 853f
00000320: a1f0 0f40 9ad3 43c0 e9c3 a53d 9b4c 1bbe
00000330: 3de6 8a3f 92b4 51c0 3106 f63e b9d4 1c40
00000340: 9aca 0b3f 06ca 6abf a518 f13f 5ad9 fa3e
00000350: 88d6 0e40 2c7d 9f3f 25ee 7ebf 06b3 313f
00000360: e773 683d 131f 00bf 3aaa 4cbf 9d30 d33f
00000370: ce97 123f 4f99 3dbf 3a48 923e 96fe 2a3e
00000380: 365c 01c0 af5a 37c0 4520 35bd c039 913e
00000390: d657 52be 8e5d 9d3f d557 4ebf cbdf c13f
000003a0: b9de 9cbf 965f bb3f 4124 04bf 9474 ab3e
000003b0: d974 943f 3935 64c0 3bfd 40c0 c61f 34c0
000003c0: be7b 92bf bca2 8cc0 1125 1ebd 3d00 04c0
000003d0: a04c e23d 94c2 0d3d f1f9 8cbe 4f85 e8bf
000003e0: 52f5 96be 892e 9b3f 7bd5 273f 7b5e 94bf
000003f0: 38d7 00bf dcd1 1dc0 2289 e3be 554b 3a3f

fc2.bias f4 [15]
-1.5069577 1.534127 1.9439051 1.1207719 1.2046722 -1.4957083 0.9522709 -3.3287923
-0.7719729 -2.6027095 1.9223249 0.87645894 -0.9275811 4.1507325 -2.1568208
00000000: fde3 c0bf 465e c43f e2d1 f83f 7475 8f3f
00000010: b332 9a3f 5f73 bfbf 07c8 733f ef0a 55c0
00000020: 04a0 45bf cb92 26c0 be0e f63f 9d5f 603f
00000030: f475 6dbf cdd2 8440 5a09 0ac0
