cem_cartpole_ep117.pth (torch_old, 8024 bytes, 4 tensors)

fc1.weight f4 [64, 12]
000000 16 03 ff 3e a0 dd 97 bf 8c 10 35 3e 65 e6 74 3f
       0.49807042 -1.186451 0.17682093 0.95664054
000010 6e 04 dd 3f ec 63 d2 bf 29 7b 4f 3f 10 7a 9c 3c
       1.7266977 -1.6436744 0.810473 0.019101173
000020 e8 db 51 3f 53 5e b1 3e d5 a6 3b bf 6e 56 21 bf
       0.81976175 0.34642276 -0.7330144 -0.63022506
000030 61 60 92 3d fb 94 1a be c8 53 ca be 43 1f 36 3f
       0.07147289 -0.15095894 -0.39517045 0.7114145
000040 e8 7e 70 bf 64 60 d7 bf 8f f9 ce 3e 03 0d 91 bf
       -0.93943644 -1.6826291 0.40424773 -1.1332096
000050 d1 0c cb 3e a9 f7 d3 bf cb f7 92 3f cf 7f 49 3c
       0.39658216 -1.6559955 1.148187 0.012298538
000060 87 3e 65 3e 9a c9 12 40 5b bd 2b 3d 0d c2 6e 3f
       0.22387134 2.2935548 0.04192863 0.9326485
000070 1b 5b 7a bf f2 79 49 3f ad c6 bc 3f 42 8d fa 3f
       -0.97795266 0.787017 1.4748131 1.9574358
000080 e2 fc a8 be 42 82 72 bd 9d 5f 3b bf c8 42 96 3e
       -0.33005434 -0.059206255 -0.7319277 0.29347825
000090 4f 8f ea be 97 31 03 40 3b 94 27 bf a6 06 d8 be
       -0.4581246 2.0499017 -0.65460557 -0.42192572
0000a0 06 79 00 3f ef 9d d7 3f b3 9c cf 3e 8f b0 f4 3f
       0.5018467 1.6845073 0.4054924 1.9116381
0000b0 8c f4 88 bf b0 72 f0 bc 1b c2 d1 bf 1c de c1 bf
       -1.069963 -0.029351562 -1.6387361 -1.5145907
0000c0 54 b9 e9 3f 06 2c e4 3d 59 ee a4 bf 5a 87 b8 3f
       1.8259683 0.11141209 -1.2885238 1.4416306
0000d0 c6 39 fa bd fb 76 59 3e 50 61 3e bf 13 95 47 3f
       -0.12218051 0.21236794 -0.7436724 0.77961844
0000e0 d6 fa 09 40 12 b8 88 3f 2e 51 78 be 9b 58 16 bf
       2.1559348 1.0681174 -0.24249718 -0.5872895
0000f0 8b e0 21 bf 28 28 3d 40 dc 0d 2b bf b6 c4 fc 3f
       -0.6323325 2.955576 -0.6681802 1.9747531
000100 48 50 00 be 47 98 0c bf fc b5 67 bf 87 71 4b 3f
       -0.12530625 -0.54919857 -0.9051206 0.79470104
000110 f4 67 88 3f 8e 1b cc 3e f4 44 2e bf 7f 31 ca bf
       1.0656724 0.39864773 -0.68073964 -1.5796355
000120 05 e2 07 40 48 9f 9f 3e f5 82 81 3e 86 fc f2 3f
       2.1231701 0.3117621 0.25295225 1.8983314
000130 61 cb 9a bf 11 ac 16 40 cd ff 85 bf 1f dd 23 3e
       -1.2093316 2.354252 -1.0468689 0.1600232
000140 23 9a fa be aa f8 83 3f ee 0a e7 3e be cd 64 3f
       -0.48945722 1.0310261 0.45125526 0.8937644
000150 74 4e e9 3e b5 8d 0d c0 5e bd 4b 3f 4d 91 23 3f
       0.45567667 -2.211774 0.79585826 0.63893586
000160 0b 3c a7 3f 62 e1 0d 3f 48 73 0e bf dc 3e da 3e
       1.3065199 0.5542203 -0.55644655 0.42626083
000170 41 78 49 3d 53 11 42 3f 3d 85 63 be e8 c2 2f 3f
       0.04918695 0.75807685 -0.22218795 0.6865678
000180 31 da ab 3e 97 66 26 bf 2d 92 21 c0 2f 49 56 3f
       0.33564904 -0.6500029 -2.5245469 0.8370542
000190 a3 ec 32 be 16 fa b8 3e 08 ba 02 3f 21 8d ff 3f
       -0.17473082 0.361283 0.5106511 1.9964944
0001a0 eb 40 e7 3e 01 c9 91 3f 9e 98 99 bd e2 69 0e c0
       0.45166716 1.1389467 -0.074998125 -2.2252126
0001b0 25 ea 01 bf 71 c1 21 bf 3f a5 62 3f 06 56 52 3f
       -0.507479 -0.63185793 0.88533396 0.8216251
0001c0 5a 83 bf be d2 1c ad bf f3 b6 01 bf 48 b1 98 3e
       -0.374049 -1.352442 -0.50669783 0.29822755
0001d0 46 52 1c 40 68 89 cf bf 62 21 ac 3e ed 0a 40 bf
       2.4425216 -1.6213808 0.3361922 -0.7501667
0001e0 d0 e7 08 3f 60 49 a6 bf 73 ff ff bf 1b d5 aa 3f
       0.5347872 -1.2991142 -1.9999832 1.3346285
0001f0 12 d5 41 be 72 06 ce 3f 7a 94 c7 3f 57 60 87 bf
       -0.18928936 1.6095717 1.5592186 -1.0576276
000200 2f fe d1 bf c4 9e 89 bf 67 d4 cf 3f f1 d8 51 bd
       -1.6405696 -1.0751576 1.6236695 -0.051232282
000210 a8 19 00 be 5b 7a 88 3f f2 bb 11 3f 50 3e a0 bf
       -0.12509787 1.066234 0.56927407 -1.2519016
000220 2d 16 c4 3f f2 29 77 bf 09 63 7a 3f d8 aa 13 bf
       1.5319268 -0.9654838 0.97807366 -0.5768256
000230 41 63 c6 be a6 9c 0c bf 20 62 01 c0 07 04 ce 3e
       -0.387476 -0.54926527 -2.021614 0.40237448
000240 52 95 d0 3f ff e3 47 bf aa 4d 10 bf a5 46 c5 3f
       1.6295569 -0.7808227 -0.56368506 1.5412184
000250 72 aa b1 3f e4 18 24 be 7e 0a 38 3e d6 47 34 3f
       1.3880141 -0.1602512 0.17972752 0.7042211
000260 b3 f4 ed bd e8 d9 c7 bf 61 98 9b bd 2e 73 fb 3f
       -0.11618938 -1.5613375 -0.07597423 1.9644525
000270 70 02 b3 3f ea fa 0d 40 47 1a 4a 3e f6 3b 2b 3f
       1.3985119 2.2184396 0.19736587 0.6688837
000280 71 da 4c 40 4b 33 2e bf 38 0e 8a bf a7 d5 39 be
       3.2008326 -0.68047017 -1.0785589 -0.18147908
000290 53 26 c0 3f 6f da 13 40 25 18 a2 3d 57 af 83 3f
       1.5011696 2.3102071 0.079147615 1.0287884
0002a0 7f b8 14 be bb 54 da be 34 cb 5e 3f ab ff fc bf
       -0.14523505 -0.4264277 0.87028813 -1.9765524
0002b0 c0 42 5b 3d df a7 4a bf 13 b1 be bf 81 12 a2 3f
       0.053530455 -0.791624 -1.4897789 1.2661897
0002c0 f4 e1 96 3f bd b8 18 40 7c b7 e8 be f3 7a 03 3f
       1.1787705 2.3862755 -0.45452487 0.5135948
0002d0 d2 a0 ea bf 3f 9e d1 3f 35 8a a1 3e 0e f0 4e 3f
       -1.8330328 1.6376418 0.31550756 0.80835044
0002e0 fe a2 87 3f 0c 90 15 bf 45 fd 48 3f ee fa 77 3f
       1.0596616 -0.58422923 0.7851146 0.96867263
0002f0 c3 14 4a be cf 0c f7 3d b1 d5 0e be 0d b7 ac be
       -0.19734482 0.1206299 -0.13948704 -0.33733407
000300 3d 72 95 3f fa d5 ab 3d 9d 6d d6 3f 6f 79 b9 bf
       1.1675488 0.08390422 1.6752201 -1.4490184
000310 7a c3 0f bd 29 94 39 bf 0d 65 09 3f 87 80 ac 3d
       -0.03509853 -0.724917 0.53669816 0.08422952
000320 a8 cf 1b 3f ec 7f cf 3f 2b 2d 1c 3f 9a c0 b3 3f
       0.60863733 1.6210914 0.6100642 1.4043152
000330 4f 5f 1f c0 36 bd 31 3d 20 cc 19 3d 5d c6 e0 be
       -2.4901922 0.043393336 0.037548184 -0.4390134
000340 6c 9c f4 3f b8 75 11 3f 34 fb 26 3e c2 8b 88 3f
       1.9110236 0.5682025 0.16306764 1.0667651
000350 40 00 e5 3e 28 87 d0 bf 64 ae 02 bd a9 03 b0 3d
       0.44726753 -1.6291246 -0.031904593 0.08594448
000360 78 8a 6a 3f b7 d0 9a 3c 02 0f 87 bf 58 a0 af 3e
       0.91617537 0.018898351 -1.0551455 0.3430202
000370 3e 7e 60 3f 85 c3 90 3f 9b fc f9 3f a1 96 09 c0
       0.8769263 1.1309668 1.9530214 -2.1498187
000380 b9 15 5b bf 79 04 ea be 70 35 ac 3e ac 5f e8 3e
       -0.8558002 -0.45706537 0.3363452 0.45385492
000390 ee a9 68 3e 9a 3a 78 bf 7b 44 ad bc d9 b0 fd 3e
       0.22721073 -0.9696442 -0.021150818 0.49548987
0003a0 df 65 4d bf bf 41 79 bf a6 f4 56 bc 57 bc 21 3f
       -0.8023357 -0.97365946 -0.013119852 0.6317801
0003b0 74 18 41 3e 74 73 2d 3e a1 7c 97 3e 61 93 1d 40
       0.18856984 0.16938573 0.29587272 2.4621203
0003c0 67 18 96 bf d2 53 dd bf 28 bf b0 3f 3c dc 86 bf
       -1.1726197 -1.7291205 1.3808336 -1.053596
0003d0 fe 6e 45 bf 83 78 2b be 97 e0 88 3e e1 d9 22 3e
       -0.77122486 -0.1674519 0.26733848 0.15903427
0003e0 c4 5c 6b bf 87 a9 1a 40 8a 8e c9 3f c8 ed f6 bf
       -0.91938424 2.4165971 1.5746624 -1.9291315
0003f0 8c c1 0e bf 7f a6 f3 be 7f 93 17 3d 5d 31 52 3f
       -0.5576408 -0.47587964 0.037005898 0.8210657

fc1.bias f4 [64]
000000 64 af ab bf 29 39 c2 3f fa 28 75 bf 4e 78 66 bf
       -1.34129 1.5173694 -0.9576565 -0.9002732
000010 4c 6e 33 3f 64 f1 ef bf 34 ea 47 3f d9 fa cd be
       0.70090175 -1.8745542 0.7809174 -0.40230444
000020 56 ec ac bf 01 9d bb bf 05 99 c4 3f a7 09 3f bc
       -1.3509624 -1.4657289 1.5359198 -0.011660016
000030 95 77 eb be fc ae 99 be e5 10 14 be f1 88 b8 be
       -0.4598967 -0.30016315 -0.1445957 -0.36041978
000040 47 06 36 3e 86 95 42 bf 53 54 9a bd 4a fb 0a bf
       0.17775832 -0.76009405 -0.07535615 -0.54289687
000050 35 a4 2e be 3c 47 e4 be 07 00 35 be 4d 43 40 3f
       -0.17054828 -0.44585598 -0.17675792 0.7510269
000060 9b 22 67 be 67 10 2f bf 16 62 e7 3f 2f c0 9f bf
       -0.22571795 -0.68384403 1.8076808 -1.2480525
000070 4c ea a9 3f 12 f8 8d bd c7 4c 8c bf 5a 38 aa 3d
       1.3274627 -0.06932081 -1.096093 0.083115295
000080 24 0a 8a 3f bb 4a db bf 66 f9 28 40 e1 7c a1 3e
       1.0784345 -1.7132181 2.640222 0.31540588
000090 ff 27 0e 40 02 e9 a9 3e c0 f9 80 3f 15 73 67 3f
       2.2211912 0.33185583 1.0076218 0.90409976
0000a0 b3 52 25 c0 22 44 63 bf 58 f3 05 3d 0a ff 4f 3d
       -2.5831726 -0.8877584 0.032702774 0.050780334
0000b0 65 6d 05 c0 d7 22 5e bf 85 fd 01 bf f0 03 d4 3f
       -2.084802 -0.8677191 -0.50777465 1.6563702
0000c0 8f fd c6 3f e7 1a 04 c0 f8 25 a5 be 89 6b 7a bf
       1.554613 -2.064142 -0.3225553 -0.97820336
0000d0 d6 22 e7 3f 64 1d 06 be fc cb 04 bf 52 8a 81 3f
       1.8057506 -0.13097149 -0.51873755 1.0120337
0000e0 13 4e 5c bf 8a 51 9b be 5c f3 61 bf 6d 8e f3 bf
       -0.8605663 -0.30335647 -0.8826196 -1.902784
0000f0 67 df 44 3d ec 7d ec bf 50 36 5b 3f c6 04 12 bf
       0.048064616 -1.8475928 0.8562975 -0.57038534

fc2.weight f4 [15, 64]
000000 6b 6b df be c4 54 90 3f 8c 85 a7 bf 4c f6 9f 3e
       -0.4363664 1.1275868 -1.308763 0.31242597
000010 72 6f 8b 3f 46 7a 61 be 28 83 ba 3f 1f 66 dd be
       1.0893385 -0.220193 1.4571276 -0.43241975
000020 f9 15 05 be 2f f2 40 bf 0e 43 57 bf df d5 35 be
       -0.12996663 -0.7536954 -0.8408669 -0.17757367
000030 cc 29 a1 bf 7a aa c8 3f 60 46 c8 be f3 85 3d bf
       -1.259088 1.5677025 -0.39116192 -0.74032515
000040 87 78 e7 3e 7a 4a 1b c0 f1 b3 26 c0 cb 23 3d 3f
       0.45209143 -2.4264207 -2.6047328 0.7388274
000050 78 1f 89 bf 1a b1 85 be f8 b2 30 40 93 f1 f4 bf
       -1.0712729 -0.2611168 2.7609234 -1.9136223
000060 b7 3b 24 40 0a d9 b2 bf 90 a4 21 3e 29 47 54 bf
       2.5661447 -1.3972485 0.15785432 -0.8292108
000070 5f 82 1c 3f 85 69 2e c0 34 37 29 3f b1 a6 9e 3c
       0.6113643 -2.7251904 0.6609986 0.019366594
000080 8c d3 4e 3f 3d a1 f1 bf e4 75 5f 3f c0 63 3d bc
       0.80791545 -1.8877331 0.8728926 -0.011559427
000090 23 91 3c bb 8d 9f b7 bc 57 74 98 bf f5 8c 8a bf
       -0.0028773032 -0.022414947 -1.1910504 -1.0824267
0000a0 24 ca 8d be 8f 58 a4 3d 2e 04 d2 3e 0c dd 69 bf
       -0.27693284 0.08024704 0.41018814 -0.91352916
0000b0 6e ab 2d 3f db ea ac 3f e9 7b 8f bf 98 c6 0d 3e
       0.67839706 1.3509172 -1.1209689 0.13845289
0000c0 16 5c 1b bf b9 2b 95 3e 7f 11 13 c0 98 c7 10 3f
       -0.60687387 0.2913492 -2.2979429 0.56554556
0000d0 65 6c 06 40 12 b8 d7 be 5a 83 09 40 d3 9f bc 3f
       2.1003659 -0.42132622 2.148642 1.4736274
0000e0 c1 13 84 3f b4 2b 02 bf 49 30 e1 3f 37 e1 fe 3f
       1.0318528 -0.50847936 1.759286 1.991248
0000f0 2e 71 d3 3e aa 21 c0 3f 22 6a 1d 3f bc b7 c8 bf
       0.41297287 1.5010273 0.6149007 -1.5681071
000100 b1 00 6e bf 87 39 82 be 25 79 bf 3e 65 4c 07 3e
       -0.92969805 -0.25434515 0.37397113 0.13212736
000110 22 33 0b bf 62 09 c7 bf 3f 8b 98 bd de 22 ae bd
       -0.543749 -1.5549738 -0.07448434 -0.08502744
000120 b6 4b 1c 3e 74 09 f4 3f a7 f4 03 c0 b1 05 bb bf
       0.15263256 1.9065385 -2.0618074 -1.4611112
000130 bb c5 bd 3f 06 d7 79 3e ff ee 01 40 10 9d 93 3e
       1.4825968 0.24398431 2.0302122 0.28830767
000140 2e 3c 7a 3e 26 40 c4 3f 7a 56 10 c0 c1 d8 00 40
       0.24437019 1.5332077 -2.255278 2.0132296
000150 e7 cc f6 3f de 1c fe 3e 3f 05 16 40 c1 ea 0b 3f
       1.9281281 0.496314 2.3440702 0.5465508
000160 84 a0 c1 3f b2 c6 2c bf 9a d8 ef bf 51 01 e6 be
       1.512711 -0.67490685 -1.8737977 -0.4492288
000170 34 51 5d 3e 9c 35 b0 3f 94 fb 47 be 5b 8a e2 be
       0.21613008 1.376636 -0.19529563 -0.44246182
000180 08 ce e9 bf 17 bc 22 bf c4 b9 d6 3c af ba aa bf
       -1.8266001 -0.6356825 0.026211627 -1.3338221
000190 63 74 09 bf 97 52 09 bf fb 35 24 bf 24 5f 00 3f
       -0.5369322 -0.5364165 -0.6414487 0.50145173
0001a0 47 43 19 3f 62 87 46 3f 41 ac 20 bd 3c d2 54 3e
       0.5986828 0.7755033 -0.039226774 0.20783323
0001b0 bd 29 1f c0 5b b5 76 bf 85 4a 44 3d 49 fd 9b bf
       -2.4869225 -0.96370476 0.04792263 -1.2186671
0001c0 d2 cf 3a 3e 25 22 7a 3f f5 3d 06 40 5f c1 d6 3e
       0.1824334 0.9770835 2.0975316 0.41944405
0001d0 c5 4c 05 c0 d9 15 8b bf 3b 03 b6 3f d5 5f 2f 3f
       -2.0828106 -1.0866042 1.4219736 0.68505603
0001e0 f8 b8 16 3f e1 38 8b bf 51 83 af 3f 72 43 4b 3f
       0.5887599 -1.0876733 1.371195 0.7939979
0001f0 a9 0f 3e bf 8e a6 af be 05 b0 af 3f d8 6c c7 bd
       -0.74242646 -0.3430676 1.3725592 -0.09737557
000200 fe f8 26 bf c5 1d 22 3f cb 4b 80 bf 84 29 e5 bf
       -0.6522368 0.63326675 -1.002313 -1.7903295
000210 d3 1f 5a 3f cc 9e 40 bf 6b 10 b0 bf 12 e4 fd bf
       0.8520481 -0.75242305 -1.375501 -1.9835227
000220 96 49 8d bf 05 57 97 bf 3a 7d 24 bf 55 17 a6 be
       -1.1038082 -1.1823431 -0.6425358 -0.32439676
000230 61 81 03 bf 36 df 2a c0 43 9d 3d 3f fc 30 33 3f
       -0.5136929 -2.6698737 0.7406809 0.6999662
000240 8c 6c 72 3f 71 04 8a 3e f8 f4 f5 bf a8 5f 5e 3f
       0.9469688 0.26956514 -1.9215384 0.8686471
000250 40 86 5f 3f 47 1b 10 bf 73 ec a6 3e 3a af b6 bf
       0.87314224 -0.5629162 0.3260227 -1.4272225
000260 42 6b 72 bf 48 93 b2 3f eb 73 86 be 81 fc ba 3f
       -0.9469491 1.3951197 -0.26260313 1.4608308
000270 45 6c 33 bf ed d8 b4 3f 0a 05 59 3f 63 cc 1f bd
       -0.7008708 1.41287 0.84773314 -0.039013278
000280 f1 39 8f bf a2 4d e8 3c a3 e0 88 be 36 23 c3 be
       -1.1189557 0.02835733 -0.26733884 -0.381128
000290 d4 12 41 bf d6 00 6b 3f de 6e 09 3f 35 2f 74 3f
       -0.75419354 0.9179815 0.53684795 0.9538453
0002a0 38 63 c0 bf 5c 77 8e bf 9b 74 75 3f 00 ea 03 3f
       -1.5030279 -1.1130176 0.9588105 0.5152893
0002b0 95 77 b8 bf fc 61 9a 3f 0a 21 0c 3f ba 6b 9d bd
       -1.4411494 1.2061152 0.54737914 -0.07686563
0002c0 a0 46 c1 3f 55 ca 69 3e 4b bc be bf c7 45 75 3f
       1.5099678 0.2283109 -1.4901212 0.95809597
0002d0 4b c5 16 c0 42 df d3 bf 07 03 37 bf 2c 68 4c 3e
       -2.3557918 -1.6552508 -0.71488994 0.19961613
0002e0 cf d6 f5 be 48 87 1c 3e 31 cb 89 bf 67 4b fa 3f
       -0.48015448 0.1528598 -1.0765134 1.9554261
0002f0 e1 c3 ab be 0f 2b 14 40 70 18 c1 be b1 ce 4d be
       -0.3354788 2.315128 -0.37713957 -0.20098378
000300 7f c5 1b 3f ca 88 dd 3e b7 7d 4c bf 98 21 b8 bf
       0.6084823 0.43268424 -0.79879326 -1.4385252
000310 48 e8 a3 3f 1c 65 a1 3d bb ec 78 3e 6b cd 17 be
       1.2805262 0.07880613 0.24309056 -0.14824454
000320 7d 74 99 3e 87 c9 c1 be df 1a 6a be e7 20 95 3d
       0.29971686 -0.37849066 -0.22861813 0.07281666
000330 2b 35 2c bf 55 77 8c be 5e ec eb be 80 56 7d bf
       -0.6726863 -0.27434793 -0.4607877 -0.98960114
000340 1d c2 0a 3e cd 19 93 3e 51 c0 de bf d9 5e 08 3f
       0.13550611 0.28730622 -1.740244 0.53269726
000350 42 cc 6b 3f 24 d9 2d bf 82 da af bd 48 bc 0e 40
       0.9210855 -0.67909455 -0.08586599 2.2302418
000360 c5 9d e5 bd 80 a3 3d 3f f6 ae 69 be f3 ff 82 bf
       -0.11211733 0.74077606 -0.22820649 -1.023436
000370 89 14 ec be 00 85 4f 3f 5a 3b 14 40 0d 51 9b bd
       -0.46109417 0.81062317 2.3161225 -0.075838186
000380 48 da a8 3e 63 ad 92 bc 1f ec 0d 40 7e c8 ef 3e
       0.32979035 -0.017904943 2.2175367 0.4683265
000390 31 ec 1b c0 a2 8c bd 3f e8 74 e9 bf 5a 34 80 bf
       -2.436291 1.4808543 -1.8238802 -1.0015976
0003a0 ef c5 5e bf 23 18 95 bf 5b 81 90 3f b9 dd 32 bf
       -0.8702077 -1.1647991 1.1289476 -0.6986957
0003b0 27 70 d1 3d 1e 43 f6 3f 71 ea 14 3f dc 47 e4 bf
       0.102264695 1.9239233 0.5817023 -1.783443
0003c0 38 78 fc 3f 83 3a 91 3f d9 d0 66 bf 3f 59 0a 40
       1.9724188 1.1345981 -0.90162426 2.1616971
0003d0 7e 49 f2 be bb d9 f7 bf c3 4f 57 be d6 75 35 bf
       -0.47321695 -1.9363321 -0.2102652 -0.7088293
0003e0 65 51 8f bf bf 62 92 bf 58 a8 dd 3f 40 4a 3d bf
       -1.1196715 -1.1436385 1.7317 -0.7394142
0003f0 c6 c6 97 be 6d 7f 62 bf 2d c8 a7 3f c5 38 96 3f
       -0.2964384 -0.88475686 1.3107964 1.1736075

fc2.bias f4 [15]
000000 9d f8 b3 bf 09 40 04 40 07 2c 09 3f 97 f5 b2 bd
       -1.4060246 2.0664084 0.53582805 -0.08738249
000010 43 9b eb 3e f0 23 a0 bf 54 aa 23 bf 39 d3 94 bf
       0.46016893 -1.2510967 -0.63931775 -1.162696
000020 6b 35 a7 bd 59 6f 72 bf 9f 77 da 3c 17 db 84 3f
       -0.081644855 -0.94701153 0.026668368 1.0379361
000030 e9 dd 7a be 72 ed 76 bf 02 cf f4 3d
       -0.24498715 -0.9645606 0.11953546
