mimic_cav_90_.pth (torch_old, 10328 bytes, 4 tensors)

fc1.weight f4 [64, 21]
000000 ea f8 aa bd d2 12 78 be 0c 47 53 be 61 be 02 3e
       -0.08348258 -0.2422593 -0.20632571 0.12767936
000010 5b 15 62 be 29 a7 e4 3d 74 b3 56 be 3e 78 36 3e
       -0.22078459 0.11164696 -0.20966893 0.17819306
000020 00 ff 16 bd 73 dd fb bd b2 ef b1 3d e7 8a e1 bd
       -0.03686428 -0.122980975 0.086882964 -0.11012822
000030 d7 0c 33 bd 44 25 1e be e9 63 0f be 67 84 38 be
       -0.043713417 -0.15443903 -0.14002956 -0.18019257
000040 83 20 ce bd 35 00 5c 3e 8f fe 6c bd 2b 69 e2 3c
       -0.10064795 0.21484454 -0.057859953 0.027638039
000050 04 95 bd bd c7 59 03 3e ba ec 3b be e7 3c 48 be
       -0.09256938 0.12827216 -0.18352023 -0.19554482
000060 a2 0c 22 3e b9 05 b4 3d 53 ce 06 be aa ae 3f 3e
       0.15825132 0.08790154 -0.13164644 0.18718973
000070 b8 b3 03 3e 89 7a bd 3d ca 03 bb 3d 0e 6e dd bd
       0.12861526 0.09251887 0.09131582 -0.10812007
000080 41 fc 26 be 85 29 cd bd 46 2c 13 3e 50 fd 21 bd
       -0.16307165 -0.10017685 0.14372358 -0.03954822
000090 fc 9c 52 be 2f 76 42 3e 9a 20 66 3d 72 e9 c5 3c
       -0.20567697 0.18990396 0.056183435 0.024159167
0000a0 16 26 a8 bd 62 15 15 3e 2a 17 b5 3d 6d 40 0f 3e
       -0.08210389 0.14558938 0.08842309 0.1398942
0000b0 83 ed 13 be 65 c2 06 3e 90 fa 80 be 94 08 27 3e
       -0.14446072 0.13160093 -0.25191164 0.16311866
0000c0 26 67 0c be 53 70 e7 bd 47 c3 a4 3d d5 cd aa bd
       -0.13711223 -0.11300721 0.08045059 -0.083400406
0000d0 a1 a5 55 be 55 24 9f bd 21 61 f8 bd 04 33 fd 3c
       -0.20863964 -0.07770602 -0.12127901 0.030908115
0000e0 0e f1 32 3c 55 af 9b bc 45 88 21 3e 15 81 ad bb
       0.01092173 -0.019004503 0.15774639 -0.005294929
0000f0 43 a8 b5 3d d4 e6 9c bd 34 8b d1 3b 67 58 0a be
       0.08869984 -0.076612145 0.006394768 -0.13510285
000100 db e4 54 3d bb 6f 36 be 0f 56 2c 3e cb b8 d5 bc
       0.051976066 -0.1781606 0.16829704 -0.026089093
000110 fd 33 8b bc e0 51 35 3e cc 7c 09 3e 0b c5 ca 3c
       -0.016992563 0.17707014 0.13426512 0.02475216
000120 cf cf 91 3d 92 89 47 be bc df 5f 3d 0d 2a 15 be
       0.071197145 -0.19486073 0.05465673 -0.14566822
000130 b2 c3 ce 3d dd 24 63 3d d5 8b 20 3e f2 b7 29 3e
       0.1009592 0.055455077 0.15678342 0.16574076
000140 0a 59 30 3d 2f b3 c3 bd a3 e6 84 3d 43 87 02 bd
       0.043053664 -0.09555661 0.06489303 -0.031867277
000150 31 25 c1 bd 63 64 85 3d 1c bb e5 3d ca af 8b bd
       -0.09430922 0.06513288 0.11217329 -0.068206385
000160 db 52 01 be c4 e8 84 3c 57 fc 3f be 7a ef db bc
       -0.12629263 0.016224273 -0.18748604 -0.02684759
000170 c3 53 5b be 09 93 1e be ca 91 b1 bd 09 ce 35 be
       -0.21418671 -0.15485777 -0.08670385 -0.17754377
000180 b4 50 d8 bb 5b f1 c9 3c cb 9a 48 3e fc ec 5a 3e
       -0.0066014174 0.02465122 0.19590299 0.21379465
000190 3d 1a 3a 3e ab ac ed bd 3e bd 31 be 3f 2d 57 bd
       0.18174072 -0.116051994 -0.17357346 -0.052533384
0001a0 33 61 93 bd 54 2e 44 be db db f8 3c 2e 2a b7 3d
       -0.07196274 -0.19158298 0.030378273 0.08943592
0001b0 af ff 4c 3d 6d 59 86 bd 46 7a 1e bd 4c 65 1e 3e
       0.050048526 -0.06560025 -0.038690828 0.15468329
0001c0 15 aa 08 3d 62 17 ce bd d1 92 30 be db 9e e9 bd
       0.033365328 -0.10063054 -0.17243506 -0.114072524
0001d0 5c e0 23 3e 4b 3c 1b 3e 0c 3b 05 3e d3 23 b4 3b
       0.16003555 0.15159719 0.13010806 0.0054974346
0001e0 48 13 f9 3d 8f 8a 9a 3b c6 01 c8 bd d9 b0 59 3c
       0.12161881 0.0047162245 -0.09765963 0.013286793
0001f0 74 c2 00 3e f0 b1 ea 3d a3 66 41 be 9c 14 fa bd
       0.12574178 0.1145972 -0.18886809 -0.12210962
000200 57 43 3c be 3c cd 84 3d 4c 72 ab 3d 48 ed 17 be
       -0.18385063 0.06484458 0.0837141 -0.1483661
000210 e6 57 8a 3d 1a cd 7c bc 66 9e 2b 3e eb ea f2 3d
       0.067550465 -0.015429759 0.16759643 0.11861213
000220 44 af 41 3d cf 6d 95 bc 96 4a 0d be 1e 41 0e bd
       0.047286287 -0.018240837 -0.13797984 -0.03473007
000230 54 40 23 be 24 b8 83 3b 5d 28 4e b6 83 8a 28 bd
       -0.15942508 0.004019754 -3.0719887e-06 -0.04114772
000240 0f bc f4 bc dc 0b 77 bd cc bd c4 3d 43 62 07 3d
       -0.02987483 -0.060314044 0.096065134 0.033052694
000250 2c 4a d8 bd 8e 36 0c 3d 8c 1f 10 3d 35 ce 1b 3e
       -0.10561022 0.034231715 0.035186335 0.1521538
000260 9d 76 38 bd 79 92 22 3d 9b f6 28 be 33 ad 69 bc
       -0.045034993 0.03969047 -0.16500323 -0.014262485
000270 ee 7f d1 3d 08 15 74 bd e4 59 ce 3d 05 7f 23 3e
       0.10229479 -0.05959037 0.10075739 0.15966423
000280 40 67 36 bd f3 ba 50 bd c3 72 36 be 43 06 c0 3c
       -0.04453206 -0.05095954 -0.17817216 0.023440486
000290 96 a6 4b be 4d d3 d5 3d 6d cc 42 3d bd 55 c8 3c
       -0.19887766 0.10440693 0.047558237 0.024454946
0002a0 0a d2 0c be de 3d 18 be 5b 56 41 3e 43 2d 5e be
       -0.13751999 -0.1486735 0.18880598 -0.21696953
0002b0 e8 2e c6 3d 00 4e b3 3d 95 36 38 3e ee 99 1f bc
       0.096769154 0.08755112 0.17989571 -0.00974129
0002c0 d6 71 ff 3d ab ff 4c 3c d6 08 43 be af 65 39 be
       0.12472884 0.012512128 -0.1904634 -0.18105195
0002d0 fc 6b e1 bd 98 41 ac 3d 7f f2 a0 3d 90 54 d2 bb
       -0.110069245 0.084109485 0.078587525 -0.006418772
0002e0 63 83 50 bd bc f9 cb 3d 9b 2a 56 be b3 3b ce 3d
       -0.05090655 0.099597424 -0.2091469 0.100699805
0002f0 25 d3 44 3e 47 ca 2e be fa 98 54 bd 72 8e 57 bc
       0.1922117 -0.1706935 -0.051903702 -0.01315652
000300 84 dc 49 bd 2e 93 14 3e 10 8e 10 bd 74 37 22 be
       -0.049282566 0.1450927 -0.03529173 -0.15841466
000310 c5 f0 68 be 0c c4 2f be 2a b1 d3 3d 18 19 cb bc
       -0.22748096 -0.1716463 0.10336526 -0.02479224
000320 77 e7 3a be de cd 44 3d 97 f5 06 3e 0e 37 25 be
       -0.1825236 0.048047893 0.13179623 -0.16134283
000330 7b 04 f2 3d 6d cd 27 3e 41 ff 1a 3d 89 d1 d4 3b
       0.11817261 0.16386957 0.037841085 0.006494705
000340 8b 50 71 bd f6 98 15 be 14 c5 79 3c c4 1a 67 3d
       -0.058914702 -0.14609131 0.015244741 0.05642201
000350 f9 50 74 bc 87 ed 27 3e a8 43 1f be f5 b7 f3 3c
       -0.0149118835 0.16399203 -0.15553153 0.029750803
000360 48 c9 21 3d 8e d8 b7 3d 41 95 4b 3e a6 ef 37 be
       0.039498597 0.089768514 0.19881155 -0.17962512
000370 18 c7 61 bd 28 15 f4 bd f6 da aa bd cb f8 8c bd
       -0.05512151 -0.11918098 -0.08342545 -0.06883391
000380 1b f1 4a 3e aa 9c 5c 3d 4f 74 a8 3c 22 39 c9 bc
       0.19818537 0.053860344 0.020563273 -0.024563376
000390 68 30 c6 bd b3 2a 82 3d e3 ea fd bd 3f d5 c5 3d
       -0.096772015 0.063558005 -0.12398317 0.09659814
0003a0 67 3c 85 3c bf 3d 01 3e 82 ce 14 be f7 c0 ae bd
       0.016264154 0.1262121 -0.14531901 -0.08532899
0003b0 a4 62 20 bd 73 2e 2a 3e 34 8c ce bd 6b fd 17 be
       -0.03915657 0.16619281 -0.100853354 -0.14842765
0003c0 5d d0 14 3e 04 e5 77 bd 05 66 56 3e fe 7b 89 bd
       0.1453261 -0.06052114 0.20937355 -0.06713103
0003d0 97 7f 10 3e 04 0e f2 bd 0b 62 94 3d eb 17 ea bd
       0.14111172 -0.118190795 0.07245263 -0.11430343
0003e0 eb bd 1b be 53 0f 11 3d d6 3e 2a 3e 38 0d c9 bc
       -0.15209167 0.035415005 0.16625533 -0.024542436
0003f0 0f c3 03 be 1e a1 a2 bd ad 89 22 3e bb 35 23 3e
       -0.12867378 -0.07940887 0.15872832 0.15938465

fc1.bias f4 [64]
000000 a1 13 40 3e 0f 09 45 3e 4f 14 41 3d 77 d0 47 be
       0.18757488 0.19241737 0.04713851 -0.19513117
000010 b8 77 49 3e 1c dc 40 3d df aa aa 3d e6 07 52 be
       0.19674575 0.047084913 0.08333372 -0.20510826
000020 1d 1a 57 3e 53 d4 90 3d 65 9d 40 be bd 47 41 be
       0.21006055 0.07071748 -0.18810041 -0.18875022
000030 f6 9a 86 bd 12 05 17 bd 4c 33 e3 3d b5 41 9f bc
       -0.06572525 -0.03687007 0.110937685 -0.019440511
000040 f8 7f 13 3e 6f c6 b0 bd d6 4a 0b 3e 75 18 64 3d
       0.14404285 -0.08631598 0.13602766 0.055687387
000050 17 8c e0 bd 29 7d da 3d 2f 00 4c be 94 1f 96 3d
       -0.1096422 0.10668404 -0.19921945 0.07330242
000060 94 03 12 3e cf d4 c9 bc c7 49 88 bd 7b 70 3f 3e
       0.14259177 -0.024637608 -0.06654697 0.18695252
000070 3f 56 66 3c e6 6a 36 be 53 e7 fc bc ad 66 f4 3c
       0.014058649 -0.17814216 -0.030872023 0.029834116
000080 f8 ca 1a bd f1 d3 26 3b 5b 71 75 3c c2 93 07 3d
       -0.037791222 0.0025455917 0.014980639 0.033099897
000090 83 5f 10 3e f7 65 24 bd e0 e9 c3 3d 88 e3 67 bb
       0.14098935 -0.040136304 0.095660925 -0.0035383422
0000a0 fc cd cf bd e2 65 2c be ad b4 8d bd 92 f6 c9 3c
       -0.1014671 -0.1683574 -0.06919227 0.024653707
0000b0 e6 ad 32 3d 86 a7 99 bd 40 8d d4 3d 53 89 11 3e
       0.043622874 -0.07502656 0.10378504 0.14212541
0000c0 0e 2e 4b be 14 94 5d 3e 65 ce b2 3c 4b 79 71 bd
       -0.19841787 0.21638519 0.021826932 -0.058953565
0000d0 3e e8 f2 3d fa d7 4e be 01 b1 1b 3e 06 f9 64 bd
       0.11860703 -0.20199576 0.1520424 -0.05590155
0000e0 87 fe 99 3d b0 09 2a be e6 91 4f bd 5c 5d c0 3d
       0.0751925 -0.16605258 -0.05067625 0.09392807
0000f0 78 55 09 be eb 8a a4 bd b7 00 59 3d 24 70 35 be
       -0.1341151 -0.08034309 0.052979197 -0.1771856

fc2.weight f4 [15, 64]
000000 b2 e1 d3 3d 3a 3f c8 bc b3 af df bd ed c8 b5 bd
       0.10345782 -0.024444211 -0.10922184 -0.08876214
000010 e4 dd d5 bd 33 5e f7 3d e2 f1 08 3c cb 63 4e bd
       -0.10442713 0.12078514 0.008358451 -0.05038814
000020 1a c3 dd 3d c4 1d 80 bd 50 5a 8d bd 42 8e 84 bb
       0.10828228 -0.06255677 -0.06901991 -0.0040452788
000030 3d 8f 3f bd eb dd c5 bd a3 ca 84 bd c1 4e 61 3d
       -0.046767462 -0.09661468 -0.064839624 0.055006746
000040 d6 26 14 bd 8f 15 c9 bb 18 2c 5a bc 6f bd 74 3d
       -0.03616985 -0.006136603 -0.013316177 0.05975097
000050 5a 1f e8 bd f2 e8 bb 3d 1e db cc 3d e1 3a 08 bd
       -0.11334105 0.0917529 0.10002731 -0.033259276
000060 bf 62 21 3c d6 49 c9 bc 0f 07 b6 bb 24 18 7c bd
       0.009850203 -0.02457134 -0.0055550407 -0.06154646
000070 4a 4f 1b bd b9 b9 ca bd 24 d9 3b 3d 62 08 68 3d
       -0.037917413 -0.09898705 0.04586138 0.05664862
000080 3d 0a a8 bc a6 1b e7 3d ad d3 e8 3d e9 0a 4a 3d
       -0.020512694 0.112845704 0.11368499 0.04932681
000090 8a 6c 8e 3d 62 7d 3a 3c ce 6f 62 3d cb 1b 0b 3c
       0.06954296 0.011382433 0.055282407 0.008490513
0000a0 3e 58 26 3d 0b 6d f1 3d a3 8c c2 3d 99 79 7f 3a
       0.040611498 0.117883764 0.094994806 0.00097455975
0000b0 ab 5d 2f bd b8 76 c8 3c c0 c5 49 bc 14 a1 94 3d
       -0.042813938 0.024470672 -0.012315214 0.07257286
0000c0 14 07 37 bd ed d8 ac 3d 3e 0e df bd 39 ac 94 bb
       -0.044684485 0.08439813 -0.10891388 -0.004537132
0000d0 c0 b5 35 3d e7 29 1a 3d 7c 3f 3c bd 25 36 d9 3d
       0.044362783 0.037637617 -0.04595898 0.106060304
0000e0 93 15 38 bd 0a 7d d1 3d 0d bd b5 3d 25 ad 65 bd
       -0.04494245 0.102289274 0.08873949 -0.056073327
0000f0 fc f8 43 bd 84 60 ed bd f3 80 08 3c c6 48 84 3d
       -0.047844872 -0.115906745 0.008331525 0.06459193
000100 61 90 4b bd 36 a3 9c 3d d6 71 8e bd 45 e6 8a 3c
       -0.049698237 0.076483175 -0.06955306 0.016955504
000110 7c 95 29 bd 3a 12 ec 3d bc f7 4e 3d dc 50 31 3d
       -0.041402325 0.11526914 0.050529227 0.043290004
000120 7e 11 10 3d 0d 22 87 bd 59 aa ed 3c 49 b5 ff 3d
       0.03517293 -0.065982915 0.029011892 0.12485749
000130 79 3f e4 bc cb 48 99 3d 37 6c 6c 3c 29 94 f4 bb
       -0.027862297 0.07484587 0.014430097 -0.007463951
000140 e6 68 5c 3d 88 5a 66 3c 0f 2b e2 3d 3b 9b 9d 3d
       0.053810976 0.01405967 0.11043369 0.076956235
000150 e8 ad 14 3d f6 67 00 3e 0d e5 7e 3d c8 c4 5c 3b
       0.036298662 0.12539658 0.06223016 0.0033686627
000160 68 23 cf bd 36 d1 ea bd ff 19 18 3c 43 3b 12 bd
       -0.10114175 -0.11465685 0.009283542 -0.035701048
000170 8f 37 48 bd 6a a2 af 3c 24 14 3b bc e2 8f 9d 3c
       -0.04888111 0.02143975 -0.011418376 0.019233648
000180 21 59 d8 bd 28 b4 09 bd ef 3c 4a bd dc be 59 3d
       -0.10563875 -0.033619076 -0.049374517 0.053160533
000190 60 74 e7 bb de af eb bd 2a 8b 00 bd f0 89 6d bd
       -0.0070634335 -0.115081534 -0.031382717 -0.057992876
0001a0 b5 69 a4 3d 5b 76 cc bd ec ee 2c bd 59 a4 3c bd
       0.080279745 -0.09983512 -0.04222004 -0.04605517
0001b0 39 31 cc 3c 8a 42 73 bc eb 69 1d bb bf c6 19 bd
       0.024925815 -0.014847407 -0.002401943 -0.037543055
0001c0 59 44 b9 3d fb ce 45 3c 07 6a d9 bd e0 d6 c6 3d
       0.090462394 0.012073274 -0.10615926 0.09708953
0001d0 41 b1 42 bd 1e 5f c3 3d 5c 56 0e 3d 3d e7 40 bd
       -0.047532324 0.095396265 0.034750327 -0.047095526
0001e0 fe 07 bc bd a7 34 99 bd c0 7f ed bc e0 c0 c2 bd
       -0.09181212 -0.07480746 -0.02899158 -0.09509444
0001f0 fc b7 3a bd e0 b3 b1 bc 6e 2a 45 bd 87 3d 59 bd
       -0.045585617 -0.021692216 -0.048136167 -0.053037193
000200 4a d0 91 3c a3 64 cb 3d 66 89 e3 3d 4b 97 a6 3d
       0.017799515 0.09931304 0.11110191 0.081343256
000210 74 6a 92 3b 12 6a d7 3d 62 b5 6f 3d 63 5e 94 3d
       0.0044682566 0.10518278 0.05852259 0.07244565
000220 7e 33 e1 bd 49 0e 16 bd 18 ad e3 3d b5 d1 af bd
       -0.109961495 -0.036634717 0.111169994 -0.0858492
000230 64 ec 0f bd 46 1b 62 bd 02 0f c9 bb 50 11 2c bd
       -0.03513755 -0.05520179 -0.0061358223 -0.042008698
000240 d5 e9 7b bd ef 25 40 bc 37 ea 84 bd 9a ed b1 3d
       -0.061502296 -0.011727794 -0.064899854 0.08687897
000250 6c 00 cb ba 90 e4 89 3d cf 91 5b 3d 23 dd a2 3c
       -0.0015487797 0.06733048 0.05360585 0.019880837
000260 52 69 8e 3d e2 91 a6 3c 2f e2 12 bd 7d 25 82 3d
       0.06953682 0.020333234 -0.035860237 0.063548066
000270 86 aa 94 bd d5 d6 25 bc 65 48 32 3d 47 c1 2b bd
       -0.07259087 -0.010122021 0.043526072 -0.04193237
000280 d0 1a 7f bb 97 4c f7 bd e5 5f b0 bc f0 f1 99 3c
       -0.0038925894 -0.12075155 -0.021530101 0.018792123
000290 10 d5 42 bd 1d 1b b9 bc 77 aa 46 bd c1 51 a2 bd
       -0.047566473 -0.022595936 -0.04850241 -0.079257496
0002a0 b5 d4 90 3c 08 28 47 3d 83 7d 94 bd f1 89 df 3d
       0.017679552 0.04862216 -0.07250502 0.10914982
0002b0 e0 b0 c7 bd 69 f8 31 3c 3f 11 33 bd ee d0 ae b9
       -0.09750533 0.010862448 -0.04371762 -0.0003334353
0002c0 0a 4c 94 bd a5 65 91 bd b2 a1 a6 3d f0 8c 0e bd
       -0.07241066 -0.07099465 0.0813631 -0.034802377
0002d0 93 f0 30 3b d8 e7 d4 bd 50 99 b4 bd 9b 15 b4 3c
       0.0026998862 -0.10395783 -0.088183045 0.021982959
0002e0 d7 54 bd 3d 00 ec 83 3d 8f ae 38 3d 94 8c 84 3d
       0.092446975 0.06441498 0.045088347 0.06472126
0002f0 dd a6 0f 3d 10 a0 d5 3d 58 3e ad 38 06 81 98 bc
       0.035071243 0.1043092 8.260895e-05 -0.01861621
000300 0b 0d 89 bd 57 16 ba bd 0b e5 0c 3d 9e 82 85 3c
       -0.06691941 -0.09086292 0.03439812 0.016297635
000310 f1 d9 36 3d 1a cf 4f bd e6 85 f7 3c d6 6a 3a bc
       0.04464144 -0.050734617 0.030215215 -0.011378011
000320 6a 8a 6c bd 2d d9 9e 3d e1 e7 89 3d 46 c9 a1 3c
       -0.05774919 0.07756267 0.067336805 0.019749295
000330 81 fb 57 3c a6 7d 61 bb 67 8b 38 bd 8e 24 e0 3c
       0.013182522 -0.0034407168 -0.04505482 0.02736118
000340 7a f0 5d 3c 88 be 70 3d 1f c8 10 bd 88 d7 67 3d
       0.013546104 0.058775455 -0.0353471 0.05660203
000350 f9 31 1d bd 64 2d 97 ba 44 ce 1c 3d 69 9c ca 3d
       -0.038377736 -0.0011533913 0.038282648 0.09893114
000360 a8 5a 9b 3d 5b e0 b0 3c 82 66 99 3b 39 be f7 bd
       0.07585651 0.021591356 0.0046814093 -0.12096829
000370 08 df 91 3d 47 13 5f 3d 64 bb 9c bd e3 e3 4f 3d
       0.07122618 0.054461744 -0.076529294 0.05075444
000380 b7 39 50 bb 52 62 45 bc 9b e4 85 bc ed 24 33 3c
       -0.0031772682 -0.012047367 -0.01634436 0.010934097
000390 0c 98 1c 3d 7f f7 2b 3d 35 90 c0 3a 32 8c 0e bd
       0.03823094 0.041984078 0.0014691415 -0.03480167
0003a0 81 f5 54 bd c8 f9 d9 bb 80 e4 49 3c 02 9c 26 3d
       -0.051991943 -0.0066520907 0.012322545 0.040676124
0003b0 b2 37 9a bd 1c 45 14 bd 44 c3 ae 3c 75 69 dc bc
       -0.07530154 -0.03619872 0.021333344 -0.026905755
0003c0 bf 47 88 bd 47 06 af bd 7a 51 a3 bc 0e e4 81 3d
       -0.066543095 -0.08546119 -0.019936312 0.06342326
0003d0 de 11 aa bd eb f0 64 bd d0 4e 22 3d d1 4a 83 bd
       -0.08304189 -0.05589382 0.039625943 -0.064107545
0003e0 64 45 3b bd 1c 93 b3 bd f4 3f 6f 3d a7 28 db 3d
       -0.045720473 -0.08768293 0.0584106 0.10701113
0003f0 48 3c f2 bc db cc f4 bd fc 88 b3 3d a1 3f d7 3d
       -0.02956976 -0.119531356 0.08766362 0.10510183

fc2.bias f4 [15]
000000 83 e2 f6 bd 46 70 cd bd 8b 57 55 3c 4c c7 a4 3c
       -0.120549224 -0.1003118 0.01302136 0.020114563
000010 8a 4d c1 bc fb 6a 9d bd 66 4d 18 bb cb 24 ea bd
       -0.023596544 -0.076864205 -0.0023239492 -0.11432799
000020 5e 37 a6 3d b3 47 41 3d 39 5a 0e 3d a0 0d b4 3d
       0.08116029 0.04718752 0.03475401 0.08791661
000030 68 4e 61 3d e3 1c 7c 3c 7f 5a ce 3c
       0.055006415 0.0153877465 0.025189636
