old_code/cem_cartpole_BEST2.pth (torch_old, 10328 bytes, 4 tensors)

fc1.weight f4 [64, 21]
00000000: f53d 0540 1111 07c0 a262 22c0 222a 1540
00000010: b555 8d3e d1af a2bf 6935 18c0 721b 2fbe
00000020: e886 8d3f bd92 d33f 40f5 26c0 408c 953f
00000030: 31aa 013f 51f4 673f 655d 5b3f b710 0ac0
00000040: d03c b43d 3f7c 03c0 3188 a8bf c26c 9f40
00000050: 3dda 3dc0 69f2 36bf 490a ef3f 532e 8cbd
00000060: 3197 20bc 6a97 d03e ee94 0040 ccbf 8f3e
00000070: aa06 203f 4152 2cc0 7ddc 4f40 d8fa 3c3f
00000080: e7c9 3ec0 b2dd 3e3f 11aa 1c40 becb 563f
00000090: 94ba 4140 6677 a6bf 447b 20c0 3ee1 89be
000000a0: 4a5a 0e3f 3ee2 3c40 d22e 01c0 440d e3bf
000000b0: 5691 e5be f901 f13f 6e09 12c0 8442 b03f
000000c0: 9843 97bf 5b50 913f 96f4 2b3f 48e7 c9bf
000000d0: 2909 f3bf 54c4 8c3d 28c4 bd3e 805c 81be
000000e0: 5863 cebf a101 b9bf dfb4 2dc0 a016 a740
000000f0: ec22 5dbf 190f fe3f df80 babf a00a 973f
00000100: 3c16 ea3e 7a32 0ac0 5034 883e 67eb 31c0
00000110: cca8 5abf 4c21 be3f 44d5 803f d343 1440
00000120: 28a8 f7bf a091 97be 4e50 8cbf ec72 db3f
00000130: 401c f3be f596 d43f e365 c33f 2461 b63f
00000140: 2278 0dc0 4868 7040 e5ae 5dbe afaa 773e
00000150: cd29 1ac0 cbd5 2340 0890 2c3f c0e0 653f
00000160: cd45 87bf 2222 ed3f 4e13 57bf 27f9 3dc0
00000170: e238 8ebf 385c bc3f 8dfb 333f 8b22 89be
00000180: 2757 43c0 4e09 e2bf f972 1b40 c1b8 dc3f
00000190: cf13 d0bf 2349 71c0 d11b a43f 33d5 833e
000001a0: c404 d3bd 47f3 b9bf 622f 1140 b28a 21c0
000001b0: fd80 c73e 94ab 01bf 09a0 a7bf 3a8f fdbf
000001c0: de2f 11c0 e10c 8240 424f 973f f853 953f
000001d0: da1e 57bf e8bf 653f fa76 7740 2274 30bf
000001e0: 82c8 8fbe 85b1 ab3e 826d 8bbf 72cb bc3f
000001f0: 3614 47c0 c3be 5ac0 cc85 c13f b13d ba3f
00000200: 2d68 59c0 0312 fcbe 4d14 fcbe 4feb cb3e
00000210: 710a 1440 e290 7a40 0855 a33e d02c e0be
00000220: f165 ffbf ffab 0c40 e694 40be 7059 253f
00000230: cd0b 38bf c8ec 503f c091 ab40 b169 b2be
00000240: 00df 1ec0 2b81 01c0 c0e1 febf 9e7f 64be
00000250: 1497 2fbf 619c 07be 5f10 d1bf 30f8 1b40
00000260: 7501 cabf af9f 943f afbc 8a3e af7c 913f
00000270: 41b1 f9bf 4355 30c0 9758 33c0 28ba f83f
00000280: 7468 c4bf 1596 b03e fd62 ac3f 6ed5 62bf
00000290: f21c f53f 410d cd3c 34cc 6e3f 3d48 1b40
000002a0: be7f 6740 2145 5040 026e 7c3f 2531 3e40
000002b0: 4321 18c0 582d 20bd 6375 fcbe bfe5 0140
000002c0: 200a 5bbf 558b 9dbc 72c5 cb3f ea23 e23e
000002d0: 8be9 9abe bd1a ccbe cab8 0a3f bdfd 0440
000002e0: 0061 7740 06b4 a0bf 0aae b5bf f967 36be
000002f0: 26ae 6fbf 13dd bcbf d9ac 46be 49a5 2dbe
00000300: 2064 a1bf e49a eb3f 717e 1d3f 2717 89c0
00000310: fd19 81be 54bc c63f 242c ae3e e785 4fbf
00000320: c9fc f9be 5169 d23f 5479 8b3f ed51 923f
00000330: 988d bd3d e395 1ebf 002b af3f 333b 80c0
00000340: a40d b1bf e60d 1c40 fdee c0be 2e44 d1be
00000350: c1bb 2c40 10c8 ec3f e794 0640 e367 373f
00000360: 79a0 d93f 9c84 03bf f622 423f 9a7d 03c0
00000370: c8e9 14c0 92a3 7ebd 9bce 3840 04db 713f
00000380: 0270 3cbf c2a6 3240 9714 883d 0204 e0bf
00000390: 6aea 14bf e452 913f 9b4d 003f 5e82 ffbe
000003a0: 8f2f b53f 9381 18c0 196a ccbe ab8e 1f40
000003b0: cff9 80bf 7727 0ac0 7446 0f3f 2053 ca3f
000003c0: 9484 c7bf 68fb 4bc0 2ba9 6440 6fad 95bc
000003d0: 30e2 9f3f b680 723f 2b3f db3f 17b7 02c0
000003e0: fbda 73bf 6d07 b6be 8967 50bf 90b3 673d
000003f0: 4950 c33e 54da 80be 00f3 1f40 ec52 c43f
2.0819066 -2.1104167 -2.53727 2.3306966 0.27604452 -1.2709905 -2.37826 -0.17100313
1.1056795 1.6529156 -2.6087189 1.1683426 0.50650316 0.9060717 0.85689384 -2.1572702
0.088006616 -2.0544584 -1.3166562 4.982026 -2.9664452 -0.7146364 1.8675014 -0.06844773
-0.009801672 0.4074052 2.00909 0.28076017 0.6251017 -2.6925204 3.2478325 0.7382026
-2.9810731 0.7455703 2.44788 0.83904636 3.0270128 -1.3005188 -2.5075235 -0.2692966
0.5560652 2.9513087 -2.0184827 -1.7738423 -0.44837445 1.8828727 -2.2818255 1.3770299
-1.1817503 1.1352648 0.67170084 -1.5773706 -1.898717 0.06873384 0.37063718 -0.25265884
-1.6124067 -1.4453622 -2.7141645 5.221512 -0.8638141 1.9848357 -1.4570578 1.1800117
0.45720088 -2.1593308 0.2660241 -2.7799928 -0.85413814 1.4853911 1.0065084 2.3166397
-1.9348192 -0.2960329 -1.0962007 1.7144446 -0.4748249 1.6608568 1.5265468 1.4248395
-2.2104573 3.7563648 -0.21648748 0.24186204 -2.4088013 2.559924 0.67407274 0.89796066
-1.0568177 1.8526042 -0.8401383 -2.968332 -1.1111109 1.4715643 0.7030571 -0.26784167
-3.0521944 -1.765909 2.4288924 1.7243882 -1.6256045 -3.770089 1.2820989 0.25748596
-0.10303643 -1.4527367 2.268517 -2.5240903 0.38965598 -0.5065243 -1.3095714 -1.9809334
-2.2685466 4.064072 1.1821063 1.166625 -0.8403145 0.8974595 3.8666368 -0.68927205
-0.28082663 0.33533874 -1.0892794 1.4749587 -3.1106086 -3.4178932 1.5118957 1.4550077
-3.3969834 -0.49232492 -0.49234238 0.39827964 2.3131373 3.915093 0.3190081 -0.4378419
-1.9952985 2.1979978 -0.188068 0.64589596 -0.71893007 0.816113 5.3615417 -0.3484626
-2.4823608 -2.0235088 -1.9912643 -0.22314307 -0.685899 -0.13243248 -1.6333121 2.4370232
-1.5781695 1.1611232 0.2709708 1.1366175 -1.9507219 -2.755204 -2.802282 1.943181
-1.5344377 0.34489504 1.3467709 -0.8860692 1.9149458 0.025030734 0.9328034 2.426284
3.6171718 3.2542193 0.9860536 2.9717495 -2.3770301 -0.039105743 -0.4930831 2.0296476
-0.85562325 -0.019231478 1.591963 0.44168025 -0.30256304 -0.3986415 0.54188216 2.077987
3.8652954 -1.2554939 -1.4193738 -0.178131 -0.93625104 -1.4754966 -0.19401874 -0.16957583
-1.2608681 1.8406644 0.6152106 -4.284076 -0.2521514 1.5526223 0.34018052 -0.81063694
-0.48825672 1.643839 1.0896401 1.1431252 0.092555225 -0.6194746 1.3684998 -4.0072265
-1.3832288 2.4383483 -0.37682334 -0.4087233 2.6989596 1.8498554 2.1028383 0.71642894
1.7002097 -0.5137422 0.75834596 -2.054541 -2.3267689 -0.06216771 2.8876102 0.94474816
-0.7360841 2.791428 0.06644552 -1.7501223 -0.5817019 1.1353421 0.50118417 -0.4990415
1.4155139 -2.3829086 -0.39924696 2.4930828 -1.0076236 -2.1586587 0.5596688 1.5806618
-1.5587335 -3.1872196 3.5728252 -0.018271176 1.2490902 0.9472765 1.7128652 -2.042425
-0.9525601 -0.3555254 -0.8140798 0.05656773 0.3814719 -0.2516657 2.4992065 1.5337806

fc1.bias f4 [64]
00000000: 987e a63e 59e0 14c0 122c 28c0 6ad8 d63f
00000010: 340f e6bf 3276 b63f d0f6 a8bf 9bc9 38c0
00000020: ad8d 0540 520a 1fbf 34ef a7be 1477 9dbf
00000030: 4fc7 d23f c58b b0bf e50f 42be 4d47 ec3f
00000040: cc4b 30c0 1fee 873f c2d2 fc3f 50f0 bebf
00000050: cb74 2cbe b77c 9bbf 83d9 903e f898 f23f
00000060: 79e5 0540 8283 2fc0 7f86 c03f cde4 aabf
00000070: 8c3c e3bf 662a ddbf 5d9d f9bd 3d29 0240
00000080: b38e c7bf 47fe 3ebf 81ce f8bf e5e2 2d40
00000090: 79af 04c0 314f 253f 21b5 3a40 97ca 50bd
000000a0: 6b20 d9bf 1eb5 0ac0 9a11 663d 0ecd 643f
000000b0: bee7 1cc0 c4d5 72bf f3d3 b0be db8c 973f
000000c0: d88d 7a3f 4f30 27c0 089b b63d 9e6a 39c0
000000d0: fe71 acc0 38c3 4bbd 611e 80bf 2304 3b40
000000e0: c006 5540 b1fe 873f 32a8 3fc0 0349 0dbf
000000f0: b057 3c3e 7068 7540 3ab6 ed3e f14c 1740
0.32518458 -2.326193 -2.6276898 1.6784794 -1.797339 1.425482 -1.3200321 -2.887305
2.0867722 -0.6212512 -0.32799685 -1.2301965 1.6467074 -1.3792654 -0.18951376 1.8459259
-2.7546263 1.0619544 1.9751818 -1.4917088 -0.16841428 -1.2147435 0.28290948 1.8952932
2.092131 -2.7424016 1.5041045 -1.3351074 -1.7752852 -1.7278564 -0.12188218 2.033767
-1.5590423 -0.74606746 -1.943802 2.7169735 -2.07321 0.6457396 2.9173052 -0.050974455
-1.6963018 -2.1673045 0.05616913 0.8937539 -2.4516444 -0.9485743 -0.34536704 1.1839861
0.97872686 -2.6123235 0.089162886 -2.8971324 -5.388915 -0.049746722 -1.0009271 2.9221275
3.328537 1.0624601 -2.9946408 -0.5518953 0.18392825 3.8344994 0.4642809 2.3640711

fc2.weight f4 [15, 64]
00000000: e8a9 883f ec33 bb3f 399c 1140 74d7 af3f
00000010: 997e 0940 ffb4 d9bf af4c 843f 123f aebf
00000020: e6f1 c43f 2d25 d13f e8e8 343f cdf6 43c0
00000030: dfc4 3ac0 9873 76bf 3f88 263f 7ea8 b8bf
00000040: a836 4bbe 67e1 4bc0 dc3d d33f b476 f8bf
00000050: 301e 02bf 085d 0940 430b 69bf 1e97 a6bf
00000060: d981 4740 387a 5dbf f5e1 d3bf 1a33 a33f
00000070: 912e 85c0 0669 a33f bca3 6f3c 4e1c f53f
00000080: fc3c 14c0 ae4f dcbf 1001 2840 75c1 74c0
00000090: 2ae7 bdbf 8446 6bc0 fcc6 16c0 0e08 38bf
000000a0: ee8c 4bc0 97cc 7cc0 0803 3f40 ff63 0c40
000000b0: 54cc 42bf a4d3 d4bf c73e edbf 9dd1 da3f
000000c0: 2daa 2240 da2e 03bf b277 e4bd add4 123f
000000d0: e9a1 0dbf c192 393f 8b35 0a40 7c9f 36bf
000000e0: 8af1 4dc0 9251 2840 44ec d2bf 64d1 303f
000000f0: 9a1a f5bf a36b 5140 5f37 e43e 059f 423e
00000100: c64b 89be 9627 5bbf 941d c73f 25cb a9be
00000110: 353c 9abf dc88 32c0 1590 773f 5d8c a4bf
00000120: da23 1ebf e625 cdbf 5288 483f efc4 f63f
00000130: 90b1 ccbf dac6 b93f c689 1fbf cef1 38bf
00000140: e800 193f c20c a8bf e267 68bf 3bbb 48bf
00000150: f119 d2be 55cc 10c0 1513 4fbf d11a 0840
00000160: 90d0 25bf f2ed 2e3f 1f53 0840 8a53 19bf
00000170: 4ec0 a13f d6dd 08bf 3e51 323f 54bd b3bf
00000180: 8e72 21c0 1f09 46c0 4815 48c0 edc0 f1bf
00000190: 6bf2 8940 db76 cf3f 2c0a 03c0 2a17 a7bf
000001a0: 57a9 be3e 9afa 1340 13e5 d53e 35e4 ad3d
000001b0: 184e ed3f c78b ebbf 4e39 ce3f aac6 16c0
000001c0: cd1e 77c0 718e 8940 1852 17bf 2664 af3f
000001d0: 8b9e 2ac0 871e 37c0 0abd e1bd ef80 b43f
000001e0: 2e26 3ac0 e406 863f 1326 07c0 6917 7c3f
000001f0: 9a10 8abf 137e 053f b245 843f 1527 a2be
00000200: 303a 95bf bf13 4140 e474 3e3f a024 a63f
00000210: e92b 673f 2b87 b8be 714b 1e3e aa59 893f
00000220: 885b db3f 588c cdbf 8348 0dc0 ee12 de3f
00000230: d4ea 7c40 c518 03bf 2269 70bf a5dd 893e
00000240: 2c2f fbbf c2c8 d6be 75c9 0a40 3862 2e40
00000250: f730 3abf 4377 443f 6da3 2dc0 06d0 cabf
00000260: 4052 5540 2fa8 653f 76db 3ec0 19d3 a9be
00000270: d4b5 8840 dc28 4bbe c4ae 6f40 8e40 cbbf
00000280: 9cd4 a93f ae29 b13f 3f03 a83f 0b60 6f3e
00000290: 5d87 3440 3915 1cc0 9e18 06c0 01c1 84c0
000002a0: 5f33 7a3e 110c 243f 5292 bd3e 8d38 65bf
000002b0: b074 f53f bc3f af40 d33a 7d3e d53f ec3f
000002c0: 0174 06c0 4f5a e53f 9935 8e3e 6397 a43f
000002d0: cfc1 17c0 c924 4bbf bac8 09bf cbcd 1c40
000002e0: 9da7 4fc0 9001 88bf af31 243f e628 97bf
000002f0: 6227 dabf 7208 4640 cc3a 5cbe d848 82bf
00000300: 8352 d5bf 33b7 7d3f 2c75 2a40 a5e0 113e
00000310: 5f27 e53f 516c 0840 e2f6 4fc0 f1e6 0140
00000320: 71f2 10c0 6d2a 993f e608 ae3f f78d 9ac0
00000330: 0f3c 2e3d 992d cebf 2c18 1f40 5749 8ebf
00000340: 6e3c 4a3f 536d db3f 8e54 42c0 ce71 72bf
00000350: 9f5f 78bf b1f6 133f 551a 26be 9b0d 08bf
00000360: 17c6 6040 a4a0 88bd a506 68bf 469a 07c0
00000370: a404 2c3e bb0f b73f 6dc8 973f bf6f 503f
00000380: 5838 f33e ccdc 0e40 5594 e9bf b5ee 89bf
00000390: 3aea 533f e83b f9bf 39a2 3440 7015 3c3f
000003a0: 6975 b73f a2e9 d0bf ef58 2d40 c0fd 85c0
000003b0: 17a1 74be c895 74bf 7ceb adbe d3bc 2840
000003c0: 83b6 303c 0e67 b43d c76b 8d3f fbbd 0840
000003d0: 1db3 8040 f775 ae3c d937 1140 4d49 28c0
000003e0: 3384 63be 92d1 023f 2184 063e 1854 10bf
000003f0: c823 79bf c2ae 1e40 5b39 2d40 761e 35be
1.0676851 1.462522 2.27516 1.3737626 2.148352 -1.7008361 1.0335902 -1.3612998
1.5386322 1.633947 0.70667887 -3.0619385 -2.918266 -0.9627013 0.65051645 -1.442642
-0.19845068 -3.1856325 1.6503253 -1.9411225 -0.5082731 2.1463032 -0.9103281 -1.3014867
3.1173003 -0.86514616 -1.6553332 1.274997 -4.1619344 1.2766426 0.01462644 1.9149263
-2.3162222 -1.7211816 2.6250648 -3.8243077 -1.4836171 -3.676179 -2.355895 -0.7188729
-3.1804767 -3.9499872 2.98456 2.1936033 -0.7609303 -1.6627088 -1.8534783 1.7095219
2.5416367 -0.51243365 -0.111556426 0.5735577 -0.5532518 0.72489554 2.159518 -0.71337104
-3.2178674 2.6299787 -1.6478353 0.69069505 -1.9148743 3.2721946 0.44573495 0.19005974
-0.26815623 -0.8560728 1.5555902 -0.331628 -1.2049624 -2.7896032 0.96704227 -1.2855335
-0.61773455 -1.6027191 0.7833301 1.9278849 -1.5991688 1.451381 -0.623196 -0.72243965
0.5976701 -1.3128893 -0.9078351 -0.7841069 -0.41035417 -2.2624714 -0.8088849 2.1266367
-0.64771366 0.68331826 2.1300733 -0.59893095 1.2636812 -0.53463495 0.69655216 -1.4042153
-2.5226169 -3.0943067 -3.126299 -1.8887001 4.310842 1.6208147 -2.0474958 -1.3053944
0.3723857 2.3121705 0.41776332 0.08490793 1.8539457 -1.8402032 1.6111238 -2.3558755
-3.861255 4.298638 -0.5910964 1.3702438 -2.6659267 -2.8612382 -0.110223845 1.4101847
-2.9085803 1.0470853 -2.1116989 0.9847322 -1.0786316 0.521455 1.0333769 -0.31670442
-1.1658382 3.0168302 0.7439711 1.2979927 0.90301377 -0.36040625 0.15458466 1.0730488
1.7137308 -1.6058455 -2.2075508 1.7349527 3.9518328 -0.5120967 -0.9391042 0.26926914
-1.9623771 -0.4195004 2.168546 2.7247448 -0.72730964 0.7674448 -2.7130997 -1.5844734
3.3331451 0.8970975 -2.9821448 -0.33168867 4.272196 -0.19839805 3.7450418 -1.5879076
1.3268008 1.3840845 1.3125991 0.23376481 2.820762 -2.4387953 -2.0952525 -4.14856
0.24433659 0.6408091 0.37025696 -0.89539415 1.9176235 5.47653 0.24729471 1.845698
-2.1008303 1.7918185 0.27775267 1.28587 -2.3712041 -0.79353005 -0.5382191 2.4500606
-3.2446053 -1.0625477 0.6413831 -1.1809356 -1.7043269 3.0942655 -0.21506804 -1.017848
-1.6665806 0.99107665 2.6634016 0.14245851 1.790264 2.131611 -3.2494435 2.0297205
-2.2647974 1.1966072 1.3596466 -4.8298297 0.042537745 -1.6107665 2.4858503 -1.1116132
0.7899846 1.7142738 -3.0364108 -0.947049 -0.97020906 0.57798296 -0.16220982 -0.5314576
3.5120904 -0.06671265 -0.9063514 -2.118791 0.16798645 1.4301676 1.185804 0.8142051
0.47503924 2.2322264 -1.8248392 -1.0775973 0.82779276 -1.9471407 2.8224013 0.7347021
1.4332706 -1.6321299 2.708553 -4.1872253 -0.23889576 -0.9554105 -0.33968723 2.636525
0.010785702 0.088087186 1.1048516 2.1365955 4.0218644 0.021296484 2.2690337 -2.629474
-0.22218399 0.5110103 0.1313634 -0.56378317 -0.9732022 2.4794164 2.7066257 -0.17687401

fc2.bias f4 [15]
00000000: f376 3740 5f82 7c3f 9fe5 663f c480 5440
00000010: 730c 29bf ac31 a93f a571 bbbf 8dfa 713f
00000020: 63ff 53bf 10f0 fabf 988d 4dc0 043b 893f
00000030: 631a 003f 5049 14c0 dada 84bf
2.866635 0.9863643 0.90194124 3.3203592 -0.6603462 1.3218284 -1.4644057 0.94522935
-0.82811564 -1.9604511 -3.2117672 1.0721135 0.5004026 -2.3169746 -1.0379288
