old_code/cem_cartpole_-17.pth (torch_old, 3223 bytes, 4 tensors)

fc1.weight f4 [16, 21]
00000000: bb5c b63f 53f4 be3f 7ab6 5bbf 456e 263f
00000010: be2a 8abc ec89 25bf af51 d4be 7b3c a33e
00000020: e7e6 36be 74f9 893f 37f1 50bd ac28 963e
00000030: bcc8 e63e f01d 85bf 4d5a 843f 363f 21bd
00000040: 2ca6 aabe 92b6 13bf 60a4 c33e aeb6 2fbf
00000050: dca7 afbc 482f 0ebe 5105 4d3f 6b2a bdbe
00000060: 7fc1 8c3f d7b4 f73f 72a9 a8bf fa31 bdbf
00000070: 91d8 11bf c692 dd3e b83f c43c ac7d 633e
00000080: 22f3 6abe df5c 033f 9807 873f 306a 3240
00000090: 32ea be3f c71a 07be 1c8a 28bf e47e 94bb
000000a0: 7d46 a0bd 0971 a4be ad07 8bbb c3a9 793f
000000b0: 5660 9a3f cb6c 893f 551c 8bbf 0fc3 abbe
000000c0: f6de 3d3f 9ab2 a03f fa78 95bd c94a 50bf
000000d0: 4eaa c43c 2961 9fbf 1041 903e 94e6 983c
000000e0: 16f7 25bf 4eff 2ec0 8318 a9be 5077 ecbf
000000f0: 82c7 46bf 7bc1 453f 0d39 dd3f 305a 5bbe
00000100: e0d1 bb3f 5ae5 4dbf b8f1 e03f 9ecc 983f
00000110: 53df 3d3f bb00 3ebf 7a35 53bf ee0e 71bf
00000120: 2f9c 31bf 64e4 15bf a647 c83f 4c34 813d
00000130: f099 d43f 871d 30bf 7dc0 ec3d c902 973f
00000140: 82c7 30be 8c71 78bf fa32 d2bf 9967 af3f
00000150: 3421 29be 242c 093d b518 32bf e60e a23f
00000160: 1845 5b3f a01f a9be 738f 00bd 1830 103e
00000170: 4528 84be 3217 943e 8b64 6f3d db5f e7bf
00000180: 383f 83bf 2a4f ba3d 22c0 bc3f b74d 7d3e
00000190: 49fa 1b3f 7e58 b93e c1cb 913e 785e 0440
000001a0: 5cc0 773e f192 9cbe cb70 fc3e 5ed0 60bf
000001b0: 0574 f1be 374b a7bf 0865 1e3f ab3d c8bc
000001c0: 4df9 66bf b1cf d93e b8a1 88bf b094 fbbd
000001d0: c75e cabd d634 57c0 ef58 7a3f 5ff8 aa3f
000001e0: a6b2 ed3e fd44 0d3f 4d7e d23c de64 9abf
000001f0: 8a79 d9bf a7a9 7dbf bc99 783f eaeb 99bf
00000200: 7199 ddbe 32b1 11be 1e71 283f 72c7 4c3f
00000210: 71fd dcbf aa74 883d d096 a53f 286a bfbf
00000220: 2dab 383f 0277 0f3f 1372 a3be ee37 bbbe
00000230: 67a7 0ebe ed33 0bbf 1c3f 1640 ee16 8c3f
00000240: a856 e43f 57f2 06bf dba7 543f c43b 07c0
00000250: f3dc a8be 5983 83bd dbcb 6cbf 95e1 833f
00000260: f7cb 8b3e 3d13 75be 20bb 6ebf 877d ae3d
00000270: c6eb f13f 0175 05be d4e0 7ebe c6cc d93e
00000280: d18a 28bf 7018 bc3e 25b4 a23f 2c7c 3f3f
00000290: f90d fdbe 11c2 bdbd 44b3 a7be 040d 413d
000002a0: d186 7a3f d2fa 5fbf f622 87bf d63b 05c0
000002b0: bd35 2abf 0e16 85bf f0d9 bdbf d694 0c3f
000002c0: e495 0cbf d854 953f 3b31 e53f 48d1 5bbf
000002d0: 62a2 fdbf eb7c d3bf bcb8 c93e b1a3 6abe
000002e0: 7546 4ebf 8045 b83f 139e 2840 e7c0 9bbe
000002f0: 4fe9 ad3e d7f1 8c3d 3126 cc3e d20d 83be
00000300: 93fa e63e f486 1ac0 3324 423f ba60 e8bf
00000310: c434 fabe 0cbe bf3f 5637 6ebf b535 4ebe
00000320: f20d 6bbf 8a5d ce3d ed04 623f 50cb 0240
00000330: 88a7 943f 51c9 043e 0cc4 8fbd 34ff 53bf
00000340: fe0f 12bf d41e c23f 6cde 2cbe e1ee 063f
00000350: 8e36 4e3e 2144 af3e a8cf 853f e4fb 393f
00000360: 96ec 8a3e b723 79bf 41ae c33f 7969 dcbe
00000370: 65b7 0bbf 3c77 43be 76f2 09bf c053 86bf
00000380: 1580 b3bf 863c 973e 28fc 1c3f d2b2 64bc
00000390: 88b3 913e 9d47 4c3d 56e7 2a3f b632 9b3f
000003a0: 967f 3d3f 5db6 ccbe 104d cc3e 9e5d 9f3f
000003b0: 2aaf 503d 71fa 31c0 ba3e 103e 1bf4 c73e
000003c0: b991 4e3f 9c99 da3f 38c6 b63f 4b06 3c3f
000003d0: 29ef 2d3f 61b3 f43e c597 c43f 973c 363f
000003e0: 1a30 87bf c45d cabe 8ec3 3740 d98f d73e
000003f0: e09f 64be f083 9bbe 68bc e03f 7c22 343e
1.4247049 1.4918312 -0.8582531 0.6501201 -0.016866084 -0.6466358 -0.4146857 0.3188208
-0.1786152 1.0779252 -0.05101129 0.29327905 0.45075023 -1.0399761 1.0340058 -0.039366923
-0.33329904 -0.57700455 0.38211346 -0.6863812 -0.021442346 -0.13885224 0.8008624 -0.36946425
1.099655 1.9352063 -1.3176711 -1.4780877 -0.5697108 0.43276042 0.023956165 0.22215909
-0.2294431 0.51313585 1.0549192 2.7877312 1.4915221 -0.13193808 -0.6583574 -0.004531728
-0.078259446 -0.3211749 -0.0042428584 0.9752466 1.2060649 1.0736326 -1.0868021 -0.33547255
0.74168336 1.2554505 -0.07298465 -0.81364113 0.024006989 -1.2451526 0.2817464 0.018664636
-0.6483015 -2.7343326 -0.33026513 -1.8473911 -0.77648175 0.7724835 1.7283036 -0.21421123
1.4673424 -0.8042809 1.7573767 1.1937444 0.7416889 -0.74219865 -0.82503474 -0.94163406
-0.6937894 -0.5855162 1.5646865 0.06308803 1.6609478 -0.68795055 0.11560152 1.1797725
-0.17263606 -0.9704826 -1.6421807 1.370349 -0.16516572 0.03348936 -0.6956895 1.2660797
0.85652304 -0.3303194 -0.031386804 0.14080846 -0.25811973 0.28923947 0.058445495 -1.8076128
-1.0253668 0.090971306 1.4746134 0.24736677 0.6092878 0.36200327 0.28475764 2.068266
0.24194473 -0.30580857 0.49304804 -0.87817943 -0.47158828 -1.3069829 0.6187291 -0.024443468
-0.9022415 0.42541268 -1.0674353 -0.12284219 -0.098813586 -3.3625998 0.9779195 1.3357047
0.4642536 0.5518339 0.02569499 -1.2062032 -1.6990216 -0.99086994 0.9710958 -1.202512
-0.4328113 -0.14227751 0.65797603 0.7999183 -1.7264844 0.06662877 1.2936649 -1.4954271
0.72136194 0.56040967 -0.3192297 -0.36566108 -0.13931046 -0.5437611 2.347602 1.0944498
1.7838945 -0.5271353 0.8306863 -2.1130228 -0.3298107 -0.06421537 -0.9249856 1.0303217
0.2730405 -0.2393312 -0.9325428 0.08520036 1.8900077 -0.13032915 -0.24890453 0.42539042
-0.6583682 0.36737394 1.2711226 0.74798846 -0.49424723 -0.09265531 -0.32753956 0.047131553
0.97861964 -0.87492096 -1.0557544 -2.081777 -0.6648825 -1.0397356 -1.4832134 0.54914606
-0.54916215 1.1666517 1.7905649 -0.8586621 -1.981518 -1.6522497 0.39398754 -0.22914006
-0.8057626 1.439621 2.634648 -0.3042061 0.33967063 0.06882065 0.39872888 -0.25596482
0.45113048 -2.414487 0.75836486 -1.8154519 -0.48868382 1.4979873 -0.93053186 -0.20137675
-0.91818154 0.10076435 0.88288766 2.0436592 1.1613626 0.12967421 -0.07019815 -0.82811284
-0.5705565 1.5165658 -0.16881722 0.5270825 0.20137998 0.34231666 1.0453997 0.7264998
0.27133626 -0.9732012 1.5287553 -0.4304922 -0.5457671 -0.19088453 -0.5388559 -1.0494308
-1.4023463 0.29538363 0.6132226 -0.01395865 0.28457284 0.049872983 0.6675924 1.2124851
0.74022806 -0.39982882 0.39902544 1.2450445 0.0509483 -2.7809107 0.14086428 0.39053425
0.80691105 1.7078128 1.4279242 0.734471 0.67943054 0.47793105 1.5358816 0.711862
-1.0561554 -0.39524662 2.8713107 0.42101935 -0.22326612 -0.30374098 1.7557497 0.1759128

fc1.bias f4 [16]
00000000: 0bc5 713e c02d 483e bfea 84bf f624 91bf
00000010: 6b19 70bf e743 dcbf 9fab 4abe 0720 c4bf
00000020: 000e cebe 6913 5fbf 6cf2 173e 6f27 dcbd
00000030: 0f0e 363f 1075 2f3f d6b4 9abf 7acd afbe
0.23610322 0.19548702 -1.0384139 -1.1339405 -0.93788785 -1.7208222 -0.19792031 -1.5322274
-0.40245056 -0.8713899 0.1483857 -0.10749709 0.711152 0.68538 -1.2086437 -0.34336454

fc2.weight f4 [15, 16]
00000000: f8a9 68bf 6a48 a43e 368a efbe 16be e0bf
00000010: 84eb 913f 82e7 6cbd e524 7abf 2660 873e
00000020: f9ec c3be 1780 c43f 6b02 d1be aeca 353e
00000030: db87 003e 6a5e 2cbf 8748 863e 536f 2cbf
00000040: a32a 78bf fc50 8ebf 708e e93e bf69 b9bf
00000050: 74be 953c fe40 a83e 974d 99bf be54 eb3e
00000060: e29c f73e 8d89 07c0 a862 173c e5a6 233f
00000070: 3003 293f cd20 76be 4934 0fbe 7dc3 a13e
00000080: 676f 96bf 6c8e 2bbf 0b43 38bf 4ee6 3abf
00000090: 283c 9ebf e7c4 61be 0cab fdbf dc3e 48be
000000a0: fe13 163e 2f00 013f 15fc bcbe ef33 95bf
000000b0: eb6f 56bf 63b7 70bf 079a 91bf 9f04 60be
000000c0: 799f 06bf 5d43 76bf 372c 2fbf bddb ecbe
000000d0: 6afa 7abf 2532 88bf 9b45 823f c24f 52bf
000000e0: 382c 493c 4cf7 8d3f edb1 873f 2ddd 873f
000000f0: cc45 8bbf cca4 333e cde6 d93e 1253 d03e
00000100: bbe0 a0be ea3e 70bf 9f0f 3ebf 1ae8 8fbf
00000110: d3cb 253e b185 c43e faca 8bbd 6c81 34bf
00000120: 9d27 dabf 07b5 80bf a20d 24bd e33c 3bbf
00000130: 6618 0a3f 34b5 d23e fd9a ae3e 5678 adbf
00000140: 465b b7bf 4ea7 3fbe ba11 45bf f8bb d2be
00000150: ac28 c03d a4c5 45bc 91ae afbe f256 c4be
00000160: c48f 303f 43c2 33bf 2765 1b3f c6da 533f
00000170: 8150 17be 04a3 1d3c ab0d a03f 9654 dbbe
00000180: e16a 73bf fc72 093f 2171 89bd f706 a4bf
00000190: 9124 113f 2253 713e 77d5 e0be fa17 93bf
000001a0: 034c 3a3f d4b8 7d3d 3b6c c9be 9753 7f3e
000001b0: 5cfa ac3e 7bde 72bf 70c3 b53f ba5d d93f
000001c0: 038e 94bf 119b 9abf f0cf da3f 95a1 e73e
000001d0: 3371 17be 5ff4 b93f e117 443d d371 51be
000001e0: 1880 bdbe ed3f 3abe c04a e6be 0b61 84be
000001f0: de0f b23e 167b 183f 74a9 fa3e ff80 b13f
00000200: dfd5 58bf d088 bebe 503b 2e3f 67d0 65bd
00000210: 6a31 61bf 1d2a 0fbf 61b0 8f3f 9e46 1ec0
00000220: 150c 263e 56ea 24bf 34b2 06c0 7dbc 5cbf
00000230: d327 00bf c139 fd3e 89d6 533f 66ec 9fbf
00000240: 027b 8dbf 4494 2ebf 5303 943f a3dd 90bf
00000250: ed63 a23f bda5 05be 3c28 603f 4660 2d3f
00000260: 89ab 1fbf 3493 45be f75c 1fbf cbd1 91bf
00000270: 3037 5f3e 7a51 4a3b ffdc 04bf 3bb9 663f
00000280: 52d2 30be eb9c b1bf ec56 483f 8d7a e9be
00000290: 1a14 42c0 73bb e33f c6dc f3be 208c c8be
000002a0: a3e5 bfbe 783b 7a3e 5e9f 71bf 8300 723f
000002b0: 024e 093e d6b1 1e3f fa06 053f 5f45 2cbf
000002c0: 6049 58bf 8ab5 48bf 51cd c33e 8035 33be
000002d0: 3eef 823e 40be 7bbf 422f 05bf 4c1c e63f
000002e0: 96dd 953f 8de0 493f 9fb1 1dbf 4a5e d1bf
000002f0: 2658 d63e c215 9b3f b6bf 023f fd83 cabe
00000300: a2b8 1abf 3d71 95be f4e8 4d3f c80e bdbf
00000310: 4c71 bf3d 5f32 65bd b1d2 c63e 8606 84bf
00000320: e5f3 d2be 6422 313f deb7 0a3f 89b2 c3be
00000330: cc1b e33e 382f 9a3f 8020 a3bf d2af ddbe
00000340: e5dd 4c3e d4d2 4e3f dccd 773f 2006 913f
00000350: 44e4 3abe b378 ad3f 8106 86bf 6734 c73d
00000360: d6e9 d0be 43a2 89bf 2b2c abbe ecc3 243f
00000370: 9a70 ebbd f89e 62bd afef c0be 2428 b4bc
00000380: fac8 89bf 791b 323e ab6d 0cbf c20d 783f
00000390: 4a59 86bf a74f 48be b1a3 d4bf 09a3 bf3f
000003a0: df41 373f 3e16 e5bf c61f 4abf 75c0 47bf
000003b0: 3818 94bf b817 743e b994 26bf aa47 6a3d
-0.9088435 0.32086498 -0.46785134 -1.755801 1.1399999 -0.05783797 -0.97712547 0.26440543
-0.38266733 1.535159 -0.40822157 0.17753097 0.12551825 -0.67331564 0.2622721 -0.6735737
-0.9694006 -1.1118464 0.45616484 -1.4485396 0.018279292 0.32862085 -1.1976804 0.4596309
0.4836188 -2.1177704 0.00923983 0.63926536 0.6602049 -0.2403595 -0.13984789 0.31594458
-1.1752747 -0.67014194 -0.719773 -0.7300767 -1.2362108 -0.22047769 -1.9817824 -0.19555229
0.14656064 0.50390905 -0.36911073 -1.1656474 -0.83764523 -0.94029826 -1.137513 -0.21876763
-0.52587086 -0.9619654 -0.6842684 -0.46261397 -0.9803835 -1.0640303 1.0177492 -0.8215295
0.012278609 1.1091094 1.0601174 1.0614372 -1.0880675 0.17543334 0.425589 0.40688378
-0.31421456 -0.93846 -0.74242586 -1.1242707 0.16191034 0.38383248 -0.06825824 -0.7050998
-1.7043339 -1.0055245 -0.040052064 -0.7313978 0.5394348 0.41153872 0.34102622 -1.3552349
-1.432473 -0.18716165 -0.76980174 -0.41159034 0.093827575 -0.012071047 -0.3431287 -0.38347584
0.6896937 -0.70218295 0.6070122 0.82755697 -0.14776804 0.0096213855 1.2504171 -0.4283797
-0.9508496 0.5369108 -0.06711031 -1.2814626 0.5669642 0.23566869 -0.4391286 -1.1491692
0.72772235 0.061943844 -0.39340386 0.2493423 0.3378476 -0.9487073 1.4200268 1.6981728
-1.1605839 -1.2078573 1.7094707 0.45240465 -0.14789276 1.4527701 0.047874335 -0.20453577
-0.3701179 -0.18188448 -0.44978905 -0.25855288 0.3477773 0.59562814 0.48957407 1.3867491
-0.8470134 -0.37213755 0.68059254 -0.05610695 -0.87966025 -0.55923635 1.1225702 -2.4730601
0.16215546 -0.6442007 -2.1046267 -0.8622511 -0.50060767 0.49458125 0.8274923 -1.2494018
-1.1053164 -0.68194985 1.1563514 -1.1317638 1.2686745 -0.13051505 0.8756139 0.67725027
-0.62371117 -0.19294435 -0.6225123 -1.1392149 0.21798396 0.0030871318 -0.51899713 0.9012639
-0.17267731 -1.3876013 0.7825763 -0.4560131 -3.032477 1.779158 -0.47629374 -0.39169407
-0.37479886 0.24436748 -0.943838 0.9453203 0.13408664 0.61990106 0.5196377 -0.6729335
-0.8448696 -0.78402007 0.3824258 -0.17500877 0.25573152 -0.98337173 -0.52025235 1.7977386
1.1708248 0.7885826 -0.61599153 -1.63569 0.41864127 1.2116015 0.5107378 -0.39553824
-0.6043798 -0.29187956 0.80433583 -1.4770136 0.093477815 -0.05595624 0.3883262 -1.0314491
-0.41201702 0.691931 0.5418681 -0.3822215 0.44357145 1.204566 -1.2744293 -0.43298203
0.20006521 0.8079045 0.9679849 1.1329994 -0.18251139 1.355246 -1.0470735 0.09726792
-0.40803403 -1.0752643 -0.33432135 0.64361453 -0.114960864 -0.055327386 -0.37682864 -0.021991797
-1.0764458 0.17393292 -0.5485484 0.9689599 -1.0495999 -0.19561635 -1.6612455 1.4971629
0.71584886 -1.7897413 -0.7895473 -0.7802804 -1.1569891 0.23837173 -0.6507068 0.05719725

fc2.bias f4 [15]
00000000: 75e8 643f d895 29bf e184 4ebf 4378 5e3f
00000010: e47f d13d edbb 813f bd5a 113f 02cc 023d
00000020: a151 77bf 7777 f6be e093 81be a67b 88bf
00000030: 9803 c03e 8b6f 893f 1824 11bf
0.894172 -0.6624427 -0.8067151 0.86902255 0.10229471 1.0135475 0.5677908 0.03193284
-0.9660893 -0.4813802 -0.25308132 -1.0662735 0.37502742 1.0737165 -0.566957
