old_code/cem_cartpole.pth (torch_old, 10328 bytes, 4 tensors)

fc1.weight f4 [64, 21]
000000 2a 58 14 c0 a1 ec 02 40 eb 0d 14 bd 88 13 96 bf
       -2.317881 2.0456927 -0.036146086 -1.172471
000010 7e c8 19 c0 ea 4a 95 bd a1 6b 02 40 24 9f 13 c0
       -2.402862 -0.07289679 2.0378191 -2.3065882
000020 b6 de 27 3f 8f c2 52 c0 79 a6 9c bf 97 35 60 3f
       0.65574205 -3.293125 -1.2238303 0.8758177
000030 d2 e5 5f 3f 28 fc 21 c0 7b b6 bb 3f 34 2b ab be
       0.8746005 -2.5310154 1.4665064 -0.334314
000040 d4 36 0b c0 90 6e 23 bd c0 68 c2 bf 49 0d 8f 3f
       -2.1752214 -0.039900362 -1.5188217 1.1175929
000050 12 ba 05 bf 27 45 5c be 12 f4 0d 40 7b 85 33 40
       -0.52237046 -0.21510755 2.2180219 2.805022
000060 b8 b6 35 40 0b 26 69 40 7a 6c 55 bf d8 16 0d c0
       2.8392773 3.642947 -0.8336865 -2.2045193
000070 aa de b7 3f 3a 6d 95 c0 89 bc de bd d7 2d 79 be
       1.4364827 -4.6695833 -0.10875804 -0.24333893
000080 0e ac 29 3f 5f 9a 7e c0 a9 24 17 3e 67 be 14 40
       0.6627816 -3.978172 0.14760078 2.3241212
000090 4b 7c 20 40 ff 08 56 40 3c 07 31 c0 49 d2 f9 bf
       2.5075862 3.344299 -2.7660666 -1.9517299
0000a0 50 80 53 3d d5 1f 0e 3f 49 e5 23 bf 18 ee 95 3f
       0.05163604 0.5551732 -0.64021736 1.1713285
0000b0 23 50 75 bf 2a 5b 2c c0 8b a8 de 3c 79 0e 02 3e
       -0.95825404 -2.6930642 0.027179977 0.12700833
0000c0 77 7c 11 bf 48 21 9a 3f 5b 9e fe bf 7d 0a 04 40
       -0.56830543 1.2041407 -1.9892076 2.0631402
0000d0 7f 09 77 3f dd 59 d0 bf b9 90 43 c0 47 6a 01 c0
       0.96498865 -1.6277424 -3.0557082 -2.0221117
0000e0 6c f6 74 be 58 4c 21 40 c3 68 cc bf 2a 9e c7 bd
       -0.23922127 2.5202847 -1.5969471 -0.09746964
0000f0 10 64 24 40 75 d1 f5 3e ba 39 a4 3f 4d 71 08 c0
       2.5686073 0.48011366 1.2830117 -2.1319153
000100 92 d9 29 c0 a1 c5 d6 3e 19 b8 cf bf 54 df aa bf
       -2.6539044 0.41947654 -1.6228057 -1.3349404
000110 34 d6 fb be 58 13 81 3f f5 43 a5 3e 2f 66 2d 40
       -0.49186862 1.0084028 0.3227841 2.7093618
000120 0a 1a d4 be 7e b9 1f bc 70 8a b6 bd 47 74 71 3f
       -0.41426116 -0.009748815 -0.089131236 0.9431805
000130 ef 0e 5b 3f 9b ca be be 08 75 f9 bf 16 7a c8 be
       0.8556966 -0.3726395 -1.948884 -0.39155644
000140 af c4 3d 3f 58 28 c4 bf 76 3e f0 3f fd 5b 85 bf
       0.7412824 -1.5324812 1.8769062 -1.0418698
000150 27 1d 18 bf 57 46 61 bf 59 5c f9 3f 37 cc 14 40
       -0.5941948 -0.87997955 1.9481307 2.3249643
000160 f2 c9 4b 3f dd c1 eb bf 87 6d d2 3f d9 9d 7b 3d
       0.7960502 -1.8418537 1.6439675 0.061429832
000170 6d 4b 23 bf c6 cd c9 3f a2 de 1b c0 1e 70 38 40
       -0.63786966 1.5765922 -2.4354634 2.881843
000180 f1 01 e6 3f 91 30 cf bf 3b f5 92 3f a5 15 1a 3f
       1.7969342 -1.6186696 1.1481088 0.60189277
000190 42 b7 22 40 18 dc 97 3f 1b 1b f3 3d 26 af 38 bf
       2.5424352 1.1864042 0.11870404 -0.72142255
0001a0 b0 5b f5 bf 87 2e 35 bf d8 c0 8e bf 45 36 f0 3e
       -1.9168606 -0.7077412 -1.1152601 0.46916404
0001b0 e6 1b e2 bc ce 25 a3 3d 2e 76 a1 c0 19 c6 ce 3e
       -0.027601194 0.07966195 -5.045676 0.40385512
0001c0 42 9e 17 bf 82 20 d1 3f 48 c9 9a 40 9b ee 00 40
       -0.5922586 1.6338046 4.8370705 2.0145633
0001d0 58 2b 46 40 c8 2c e4 3e 94 87 e0 bf 29 85 6d bf
       3.0963955 0.44565415 -1.7541375 -0.9278131
0001e0 c1 59 14 40 25 fb 2a bf 46 34 1b be c1 71 85 3f
       2.3179781 -0.66789466 -0.1515666 1.042534
0001f0 fb 2e 26 be d5 03 8c 3d 06 21 75 3e c7 4e 10 40
       -0.16228859 0.068366684 0.23938379 2.2548082
000200 96 0a 8e be c8 fe 6f 3d a0 f2 18 c0 f2 46 a3 c0
       -0.2774245 0.058592588 -2.3898087 -5.1024103
000210 b8 23 60 bf bf a2 47 3e 80 17 2b 40 6c b4 98 bf
       -0.875545 0.19495676 2.6733093 -1.193006
000220 3c 0d d0 3d 09 e0 bb be dc 0d a5 3d d0 92 ac 3f
       0.10158774 -0.36694363 0.08059284 1.3482304
000230 e9 73 11 40 da 66 2b 3f 3b 57 f7 3e 21 ac 9b 3f
       2.2726996 0.66953814 0.4830874 1.2161905
000240 d2 3b c8 3e 51 4b 7f be 4c aa f1 3f 2c 1e b0 bf
       0.3910814 -0.24931075 1.8880095 -1.3759208
000250 55 38 32 c0 df df ff bf 63 b6 73 3e 50 83 dd 3e
       -2.7846882 -1.9990195 0.23800044 0.43264246
000260 c6 2f 29 bf fe 41 b7 3f 4b fb e9 bf 27 e1 82 be
       -0.6608852 1.4317014 -1.8279814 -0.25562403
000270 4f aa 3b 3e 39 43 d7 3f 6e 90 ac 3f 62 31 97 bf
       0.18326686 1.681739 1.3481576 -1.1811945
000280 2f 5d c5 3f 9c d9 8c bd 1b 86 57 bf a1 1d 72 c0
       1.5419062 -0.06877443 -0.84189004 -3.7830584
000290 f3 52 b4 3f 3b fd a5 bf 3a c2 ff bf 40 7f 88 be
       1.4087814 -1.2967905 -1.9981148 -0.26659584
0002a0 bf ee b5 be c5 3d 7f 3f 06 1c 53 3f 84 1c 01 bd
       -0.3553371 0.9970363 0.82464635 -0.031521335
0002b0 b8 ea 74 3f 5d fb 25 c0 5c 02 5e 3e f0 70 17 c0
       0.9567065 -2.593467 0.21680588 -2.3662682
0002c0 09 e5 30 3e d0 b7 0f bf d9 89 58 bf 76 08 d0 3f
       0.1727487 -0.5613985 -0.8458534 1.6252582
0002d0 40 88 ca bf 93 48 e5 bf b7 43 c3 3f c6 bb f5 3f
       -1.582283 -1.7912773 1.525504 1.9197929
0002e0 45 5b 7e 3f 96 62 e4 be ad bc 3f 40 c5 e1 a7 be
       0.99358016 -0.44606465 2.9958909 -0.32789436
0002f0 84 ae 57 c0 df ec b1 3f a0 7a b7 3e 5f 60 3d c0
       -3.3700266 1.3900412 0.35835743 -2.959007
000300 08 6c 7c 3f 98 87 0d bf 6c be 1a c0 ff 9d f8 be
       0.9860234 -0.55285025 -2.4178724 -0.4855804
000310 1f 66 7b 40 39 2f 88 3f 21 00 35 3f 8c 29 9d 3f
       3.928108 1.0639411 0.7070332 1.2278304
000320 ec 46 0a c0 6d c0 89 bf 20 dd dc bd 8e ec 9c 3f
       -2.1605787 -1.0761849 -0.10784364 1.2259691
000330 5d fc ef bf 3b 02 3a bf 67 8a 22 3f 89 da fc 3f
       -1.874889 -0.72659653 0.63492435 1.9754192
000340 06 c5 f8 bf 0e 8f 66 3f 36 e6 24 bf 21 dc db be
       -1.9435127 0.90062034 -0.64413774 -0.42941383
000350 ab 35 59 3f 45 54 1b 40 dd 06 2f c0 45 6c 06 40
       0.84847516 2.4270184 -2.734794 2.1003582
000360 f0 29 61 bf 6c 0f e7 3f d8 8e 3f bf 9e 38 d4 3d
       -0.87954617 1.8051581 -0.7482734 0.10362361
000370 c1 2a 86 3f a3 56 c8 bf fb d7 9d 3f 8e 37 98 3e
       1.0481797 -1.565144 1.2331537 0.29729885
000380 37 11 25 3f 94 8e 61 40 c5 09 b6 bf c2 59 f7 bd
       0.6447939 3.5243273 -1.4221731 -0.12077667
000390 52 04 a4 3f e7 22 c4 3e 1b 13 c3 3e 84 11 01 bf
       1.2813818 0.38307878 0.38100514 -0.5041735
0003a0 8a 46 65 be 20 ba fc bf 83 3b 4f c0 c9 e2 c1 3e
       -0.2239019 -1.9744301 -3.2380073 0.37868336
0003b0 94 86 17 3f 78 06 a7 bf c0 f7 8f bf 1e 49 dc 3f
       0.59189725 -1.3048849 -1.1247482 1.7209814
0003c0 10 de c8 bf 62 c6 bc bc a5 fa a0 bf de d4 19 40
       -1.5692768 -0.023043815 -1.2576491 2.4036174
0003d0 f8 e9 e3 bf 7a b6 73 40 2b 5a cf bd 51 85 f6 3e
       -1.7805777 3.8080125 -0.1012462 0.48148587
0003e0 20 76 cc 3f 2c 8a 32 3f 72 53 32 c0 9f d5 99 bf
       1.5973549 0.69742084 -2.786343 -1.2018317
0003f0 1f 93 38 40 a6 ff a6 3e 05 4e 86 3d 67 f3 7b c0
       2.8839796 0.3261692 0.0655785 -3.936731

fc1.bias f4 [64]
000000 7a 25 42 be d4 4b 62 3e 69 df 86 3f 20 a3 c0 bd
       -0.18959609 0.22099239 1.0536929 -0.094061136
000010 e3 34 7a bf 84 b1 bd 3e f2 91 13 c0 60 e2 64 c0
       -0.9773695 0.37049496 -2.3057828 -3.5763168
000020 a3 74 00 c0 8b ea f9 3f be 89 02 c0 b8 b4 d9 3d
       -2.007119 1.9524702 -2.039657 0.106301725
000030 32 3a 88 3f ac 47 c3 3d 15 0e 01 bf 25 45 5e bf
       1.064276 0.09535155 -0.5041211 -0.86824256
000040 4b 19 c8 3f 63 f1 a0 bf e4 aa 46 bf 9b 16 9f 3f
       1.5632719 -1.2573665 -0.7760451 1.2428774
000050 56 be d3 bf 5d b2 28 c0 53 bb a9 bf 3e c1 5c bf
       -1.6542461 -2.6358864 -1.3260292 -0.86232364
000060 26 aa 4d bf b3 ec 57 c0 2b 53 e6 3f 70 d6 bd 3f
       -0.8033775 -3.373822 1.7994131 1.4831066
000070 5e cb a1 3f c4 80 2d be 07 a4 83 c0 aa 42 c7 3e
       1.2640188 -0.16943651 -4.113773 0.38918048
000080 a5 a9 8c 3f 2f 64 bb be be f6 b7 3e f5 fd bd 3f
       1.0989271 -0.36599872 0.35930437 1.4843127
000090 25 41 ca bf 15 9b 57 3e 8b ab 9f 3f 75 4d 13 bf
       -1.580113 0.21055253 1.2474226 -0.57540065
0000a0 c4 b3 45 bf 8f b1 8c bf fd bc 9e 3e da ec 7d bf
       -0.77227426 -1.0991687 0.31003562 -0.9918953
0000b0 1f 54 ad 3f 9b 76 6f 40 c1 34 04 c0 40 f8 5f 3f
       1.3541297 3.741614 -2.0657198 0.87488174
0000c0 77 08 8f 3f fb 65 f4 3f 87 4a 4d bf 5e 47 31 40
       1.1174458 1.9093622 -0.80191845 2.769981
0000d0 e3 80 54 3f d9 6c 92 3f 8c 64 b8 3c f0 22 3a be
       0.83009166 1.1439468 0.022508882 -0.1817739
0000e0 e3 fb e0 be 1d e0 0e bf a0 e7 43 3f db 1e e7 bf
       -0.43942174 -0.5581072 0.76525307 -1.8056291
0000f0 fe b7 7b c0 55 0e 8a bf b5 d6 31 be ec e6 74 bf
       -3.933105 -1.0785624 -0.1736706 -0.9566486

fc2.weight f4 [15, 64]
000000 08 ce 9d bf 55 b2 46 bf 52 51 84 bf c8 98 4c bf
       -1.2328501 -0.77615863 -1.0337317 -0.79920626
000010 b6 ff 50 3e e7 4f 31 bf 29 7d 23 c0 f4 87 f9 3c
       0.20410046 -0.69262546 -2.5545142 0.030460335
000020 0b 95 f3 bf 46 fd 4e 3f 24 ba 19 bf 20 62 1f 40
       -1.9029859 0.80855215 -0.60049653 2.490364
000030 8c 88 34 40 76 dc 02 40 ec 77 27 3f b4 f1 f7 3e
       2.8208342 2.0447059 0.6541736 0.48426592
000040 a9 52 af 3e 4d 65 e4 bf d6 40 97 3f 0f ee f2 bf
       0.34242752 -1.7843415 1.1816661 -1.89789
000050 d0 bb ac bf 89 6a b7 bf f9 05 95 bf 9d f6 08 c0
       -1.3494816 -1.4329387 -1.1642448 -2.140052
000060 2c 0e 02 40 d8 43 fa be 8d 51 7c 3f 1b 09 e3 bf
       2.032115 -0.48879886 0.98561937 -1.7737154
000070 b2 49 7e bf 36 a0 65 bf 7d a9 1d 3f d3 27 61 be
       -0.993312 -0.8969759 0.61586744 -0.21987848
000080 22 bc 97 3e a9 4d 6d 3f 2a 64 86 bf 0c f9 35 40
       0.2963572 0.92696625 -1.0499318 2.8433256
000090 df cd f6 be d1 7e 2f c0 dd c6 2f 40 0a 66 6e 3f
       -0.48203942 -2.7421153 2.7465127 0.9312445
0000a0 fa 07 b4 bf 0b 0a a2 3e d0 27 7b 3e f0 34 d2 3b
       -1.4064934 0.31648287 0.24526906 0.006415002
0000b0 86 39 3b 3f 2a 83 96 c0 78 b0 47 3f 5d 41 3d 3f
       0.7313465 -4.703511 0.78003645 0.7392786
0000c0 2d 0b a6 be ea b0 f7 3e 41 22 a2 3f 22 0c 71 be
       -0.324304 0.48377162 1.2666703 -0.23539785
0000d0 c0 d1 12 c0 d6 98 66 3f 91 04 57 be 1c 89 71 bf
       -2.2940521 0.9007696 -0.20997836 -0.9434984
0000e0 62 e4 03 3f d8 df a1 3f 13 28 c6 3f df c7 38 40
       0.5152036 1.2646437 1.548098 2.8871992
0000f0 a1 5c 8d 3f 97 5f 8a bf ab f3 a5 be 8e 40 b8 bf
       1.1043893 -1.0810422 -0.32412466 -1.43947
000100 cf 27 63 3f c4 2c a4 bf 61 2d 5e 3f 70 43 63 3f
       0.8873262 -1.2826161 0.8678799 0.88774776
000110 ae e3 e7 3f 60 ce f1 3f 1a b6 5b 3f c2 a9 2d 40
       1.8116357 1.8891106 0.8582474 2.7134862
000120 fe 7c 81 bf 28 0f 79 3f 74 71 b3 be ba 76 25 3f
       -1.011627 0.9728875 -0.35047495 0.6463429
000130 5e f8 a1 bf 09 17 cf be 29 cd 37 3f 6b 56 51 bf
       -1.2653921 -0.40447262 0.71797425 -0.8177249
000140 45 e5 5a 40 26 24 d0 bf 44 36 b6 3f 8a 94 06 3e
       3.4202435 -1.6261032 1.423531 0.131426
000150 48 f1 cf bf cf 94 55 40 e9 fe b7 3f a7 70 b7 bf
       -1.6245508 3.3372076 1.4374667 -1.4331254
000160 46 83 a5 3f c3 1f 5f c0 36 c4 28 40 b6 4d 50 bf
       1.2930686 -3.4863136 2.6369758 -0.8136858
000170 02 a9 07 c0 fb e5 95 bf 34 69 53 40 3f 24 9d bf
       -2.1196904 -1.171081 3.303296 -1.2276686
000180 90 48 b9 bf ff d9 06 bf e0 f4 b6 be 66 1c de bf
       -1.4475269 -0.52676386 -0.357337 -1.7352417
000190 7b 39 38 be 1a f9 ad bf f2 d2 9e 3d 2e 98 06 3f
       -0.17990677 -1.3591645 0.077550784 0.5257596
0001a0 f2 a0 0e 40 10 c1 1d 40 3a 5b a8 bf f4 f8 bb bf
       2.2285733 2.4649086 -1.315284 -1.468535
0001b0 e5 ab 23 40 48 e5 a2 3f 90 3b a6 bf 88 35 b7 bf
       2.5573666 1.2726221 -1.2986927 -1.4313211
0001c0 80 4d 05 bc 76 74 88 bf b7 c3 a0 40 1e 2b de bf
       -0.008136153 -1.0660541 5.023891 -1.7356908
0001d0 b8 f0 90 bf 30 76 5d c0 9e 2e 9f be 7e 12 8a be
       -1.1323462 -3.4603386 -0.31090254 -0.26967233
0001e0 ae 49 0f c0 20 50 a2 3f a3 84 01 40 bf 91 d9 bd
       -2.238872 1.2680702 2.0237205 -0.10623502
0001f0 b0 a2 55 3f b3 9c 02 bf db f6 75 3f 5a 69 a9 3f
       0.83451366 -0.51020354 0.96079797 1.3235276
000200 79 f0 ad 3f f5 d1 79 3e 2b 90 26 40 8f 94 4c 3e
       1.3589011 0.24396499 2.6025493 0.19978546
000210 73 b2 77 be 70 30 10 3f 4b d8 1e 3f 27 80 11 c0
       -0.24189167 0.5632391 0.62048787 -2.2734468
000220 4e 30 29 bd f9 87 c0 be 76 90 da bf f5 20 72 3f
       -0.041305833 -0.3760374 -1.7075336 0.9458154
000230 5e ea 8a be 59 60 8f bf 0f 74 20 c0 ec 34 88 40
       -0.27131933 -1.1201278 -2.5070837 4.25646
000240 95 93 a9 bf fa 8e a9 bf b1 cd ce 3f 1c d4 3f bf
       -1.3248163 -1.3246758 1.6156522 -0.7493303
000250 10 77 4f 3d a3 8f 33 3f f5 9d 14 3f da 0e fe 3e
       0.050650656 0.7014105 0.58053523 0.49620706
000260 f5 b1 e2 3f 98 c0 13 c0 cb b6 ab bf 2e 4d de 3f
       1.7710558 -2.30863 -1.3415159 1.7367303
000270 6d 06 85 40 5f 10 9c bf fa 29 b8 be 47 93 e6 bf
       4.1570344 -1.2192496 -0.35969526 -1.8013695
000280 e8 a2 00 40 64 3c 35 40 da 71 be bd 7a 44 4f c0
       2.009943 2.831811 -0.09299059 -3.2385545
000290 5a 40 22 3f 5e 29 0a bf b2 aa 1c c0 00 c7 b1 be
       0.6337944 -0.5396937 -2.4479184 -0.34722137
0002a0 85 91 53 3f 8b eb ac c0 66 64 75 3f 66 c3 27 bf
       0.8264392 -5.403753 0.9585632 -0.6553253
0002b0 ee d9 42 3e 78 11 5f 3f 20 ef 41 bf 97 26 dc bf
       0.19028446 0.8713603 -0.757555 -1.7199277
0002c0 28 e0 df be 78 b9 30 bd 3a dc e4 3f 45 f6 dd 3f
       -0.43725705 -0.043145627 1.7879708 1.734078
0002d0 90 58 42 c0 d0 54 3f 40 88 e8 a0 3e 73 c3 44 40
       -3.0366554 2.9895515 0.31427407 3.0744293
0002e0 77 9e bb bf 27 a8 62 bf fc 87 b5 be d5 1e 93 3f
       -1.4657735 -0.8853783 -0.3545531 1.1493784
0002f0 e1 0e 30 c0 62 e4 56 c0 e3 5c 79 bf de 0a 64 3f
       -2.7509081 -3.3576894 -0.9740736 0.8907908
000300 3a b6 d3 bd 71 59 60 bf 26 03 03 c0 8b 1a 13 c0
       -0.10337491 -0.87636477 -2.0470672 -2.298495
000310 3d a9 d4 3f 25 c4 ec bf c0 60 d5 be 41 82 2a bf
       1.6614147 -1.8497359 -0.41675377 -0.66605
000320 7a de 31 3f a4 fc 07 3f 3e f1 c3 bc f0 54 41 bf
       0.694801 0.53119874 -0.023918744 -0.7552023
000330 97 97 7f 3f 5b 93 2e bf 1f 21 99 3f 5a 0a 58 3f
       0.9984068 -0.68193597 1.1963233 0.84390795
000340 05 01 89 3e 9b 0a ed bf 32 c3 a0 bf be 6d 2d 40
       0.2675859 -1.8518862 -1.2559569 2.7098231
000350 9b 4e 1d 3f a7 9c 9d 3e df 04 bc 40 61 fd 19 3f
       0.6144807 0.3078358 5.8755946 0.6015225
000360 ae f3 73 3f 9e d9 16 40 de 73 75 bf e5 6b e1 bf
       0.952937 2.3570323 -0.95879924 -1.7611052
000370 7c a1 84 bf c9 1f b4 3e aa 89 4e c0 8d c8 43 bf
       -1.0361781 0.351805 -3.2271523 -0.7647789
000380 12 ba 97 3f f7 ec da bf 11 b9 c2 3f 91 5e 17 bf
       1.1853659 -1.7103566 1.5212728 -0.5912867
000390 e7 21 1a c0 20 22 94 c0 c1 3b 44 be b2 72 e3 bf
       -2.4083192 -4.6291656 -0.1916342 -1.7769377
0003a0 aa 58 9e bf 0a 91 aa 3f 8c ec 03 c0 fc 94 1d c0
       -1.2370808 1.3325512 -2.0613127 -2.4622183
0003b0 70 16 9c 3f 56 80 66 40 46 15 55 bf 2c 17 e8 3f
       1.2194347 3.601583 -0.83235586 1.8132071
0003c0 04 fb a5 3e 0f 76 7a 3f 5d 51 05 c0 42 d5 28 bf
       0.32418072 0.97836393 -2.083091 -0.65950406
0003d0 93 0f 4a c0 63 16 88 be b5 0f 16 bf 2d 4f 45 be
       -3.1572006 -0.2657958 -0.5861772 -0.19268484
0003e0 7b d3 2f c0 31 08 8b 3f 6f 9a 10 40 cd 75 d8 bf
       -2.7472827 1.0861875 2.2594259 -1.691095
0003f0 e0 43 19 3f 56 b3 67 3f 4b 1d b8 3f 0f cb 2f c0
       0.59869194 0.9050802 1.438394 -2.7467687

fc2.bias f4 [15]
000000 55 cb 51 bf 56 7e bc 3f ba b1 3f bf 99 dd 42 bf
       -0.81950885 1.4726055 -0.74880564 -0.7611938
000010 c7 de d7 be 9c 0d 6d 3f 85 c5 b1 bf ea 51 1e 40
       -0.42162153 0.9259889 -1.3888403 2.4737496
000020 a2 f1 3a 40 cd b3 9d bf 1a be 90 3f 3d 47 04 c0
       2.920998 -1.2320496 1.1308014 -2.066848
000030 5e 1e 4f 3f 9e 49 d8 bd 78 e0 cc bf
       0.8090571 -0.10560916 -1.6006002
