old_code/cem_cartpole_-23.pth (torch_old, 3223 bytes, 4 tensors)

fc1.weight f4 [16, 21]
0	0x3f0ce7e1	0.5504132
1	0x3fd08225	1.6289717
2	0xbfad5909	-1.3542796
3	0x3f9231f0	1.142149
4	0x3f3a3bbf	0.72747415
5	0xbf3eaae1	-0.7447949
6	0xbf0da483	-0.5532915
7	0xbe3ebe3b	-0.18627255
8	0x3fa0f3cd	1.2574402
9	0x3fb4072b	1.4064687
10	0x3e546fe4	0.20745808
11	0x3e7cdc14	0.24693328
12	0x3f8dca71	1.1077405
13	0xbf923ec3	-1.1425403
14	0x3faeeb1b	1.3665498
15	0x3f540918	0.82826376
16	0xbf1b26bf	-0.60605997
17	0xbf5846be	-0.84482944
18	0x3f062c08	0.52410936
19	0xbf03fbe1	-0.5155621
20	0x3e4bdf1a	0.19909325
21	0xbf1c4e0a	-0.6105658
22	0x3f870290	1.0547657
23	0xbf2aa106	-0.6665195
24	0x3f4d2b40	0.8014412
25	0x400bccd5	2.184377
26	0xbf7b0e25	-0.9806846
27	0xbf3898a0	-0.7210789
28	0xbea04a15	-0.3130652
29	0x3e87778b	0.26458392
30	0xbf3a228f	-0.7270898
31	0x3f174cb0	0.5910139
32	0xbf051af4	-0.5199425
33	0x3ea7ebdc	0.32797134
34	0x3fc22bef	1.5169657
35	0x4014f1dc	2.327262
36	0x3f14d82a	0.5814234
37	0xbec81077	-0.39075062
38	0xbe000a9f	-0.12504052
39	0xbf1b51c8	-0.60671663
40	0xbf3b76a5	-0.7322791
41	0xbee5467f	-0.44780347
42	0x3e9aef9e	0.30260938
43	0x3eb6ec78	0.35727286
44	0x3eb100c3	0.34570894
45	0x4012c546	2.2932906
46	0xbfc822df	-1.5635642
47	0xc00d2fa7	-2.2060335
48	0xbd2dd936	-0.042443477
49	0x3f6a0948	0.9142041
50	0xbf9fc63d	-1.2482373
51	0xbf85b6cf	-1.0446414
52	0xbc8c5af3	-0.017133212
53	0xbc4d7bef	-0.012541755
54	0x3eb433c1	0.35195735
55	0xbed675b6	-0.4188668
56	0x3e26f9cd	0.16306229
57	0xc08088af	-4.016685
58	0x3d5108be	0.051033728
59	0xbfc3e2af	-1.5303553
60	0xbe7aea03	-0.24503331
61	0x3f4523a0	0.77007484
62	0x3f9b7aa6	1.2146804
63	0xbef9abed	-0.4876398
64	0x3fd076ba	1.6286232
65	0xbf8bc1a6	-1.0918472
66	0x40016f66	2.0224242
67	0x3fd6da0f	1.6785296
68	0x3fb29e60	1.3954582
69	0x3d055c63	0.03255881
70	0x3efd5d08	0.4948504
71	0xc01ff954	-2.4995928
72	0xbf8547e4	-1.0412564
73	0xbf14f561	-0.5818692
74	0x3fec0778	1.8439779
75	0x3f25d7e7	0.64782566
76	0x3fff6567	1.995282
77	0xbf804705	-1.0021673
78	0x3eab516a	0.33460552
79	0x3f5febe2	0.87469304
80	0xbec41f45	-0.38305107
81	0xbf90cbe7	-1.1312226
82	0xc00f850e	-2.242496
83	0x3fa93f4a	1.3222439
84	0x3f93a32f	1.1534175
85	0xbdbdeae8	-0.092733204
86	0xbe53ad5b	-0.20671599
87	0x3fa06da8	1.2533464
88	0x400d9cfd	2.2127068
89	0xbf00dc73	-0.5033638
90	0x3f8a29cc	1.0794005
91	0x3e91223a	0.28346425
92	0x3f3898ba	0.7210804
93	0x3d74cbaf	0.05976456
94	0x3e960e0b	0.2930759
95	0xbf9ed416	-1.2408473
96	0xbf314903	-0.6925203
97	0xbf8c571d	-1.0964085
98	0x3f3e978f	0.7445001
99	0x3f88fcad	1.070211
100	0x3fd0fd9b	1.6327394
101	0xbf133686	-0.5750507
102	0xbd9a503b	-0.07534834
103	0x3ffe7b9e	1.9881475
104	0x3f20e8f6	0.6285547
105	0xbf7bf2ff	-0.9841766
106	0x3fa1757d	1.261398
107	0xc00b16cc	-2.1732664
108	0xbf5e1e55	-0.86765033
109	0xbecece46	-0.4039175
110	0x3f32efe2	0.6989728
111	0x3edcad59	0.43101004
112	0xbed75903	-0.42060098
113	0x3f39ab61	0.7252713
114	0xbf6a9226	-0.91629255
115	0xbcddf495	-0.027094165
116	0x3ea1945e	0.31558508
117	0xc04dc65b	-3.2152317
118	0x3f2a0cf2	0.66426
119	0xbe31b50b	-0.17354219
120	0x3f6b67fe	0.91955554
121	0x3fa2f0cc	1.2729735
122	0xbdaef13e	-0.08542107
123	0xbf87e828	-1.0617723
124	0xc050972c	-3.2592268
125	0xc02ff9a9	-2.749613
126	0x3ea39732	0.3195129
127	0xbfcc1b61	-1.5945855
128	0xbf3ec28b	-0.745156
129	0xbf451f51	-0.7700091
130	0x3f5e8351	0.8691912
131	0x3f8c3731	1.0954343
132	0xbfa6d922	-1.3035014
133	0x3efd2404	0.4944154
134	0x3f6e9683	0.9319841
135	0xbfeec9e0	-1.8655357
136	0x3f9965da	1.1984208
137	0x3f28b0b5	0.65894634
138	0x3f286402	0.657776
139	0x3ec01f24	0.37523758
140	0xbe65d900	-0.2244606
141	0xbf2806ad	-0.65635186
142	0x4020238a	2.5021691
143	0x3f99f6ac	1.2028403
144	0x4000219b	2.002051
145	0xbe94cb9f	-0.290616
146	0x3ec91658	0.3927486
147	0xc029fc9a	-2.6560426
148	0xbef63fde	-0.48095602
149	0xbfa01ec7	-1.2509392
150	0xbff7747a	-1.9332421
151	0x3f831f7c	1.0243983
152	0x3efce7f5	0.4939572
153	0x3ec5858e	0.38578457
154	0xbf56aad7	-0.8385443
155	0xbeed9af1	-0.46407273
156	0x3f9e837a	1.2383873
157	0xbeab7be6	-0.33492965
158	0xbf389298	-0.72098684
159	0x3f785753	0.97008246
160	0xbe9347f4	-0.28765833
161	0xbdccce1a	-0.10000248
162	0x3fcad431	1.5846006
163	0x3d73322e	0.059374027
164	0xbf2ecd44	-0.6828196
165	0xbd1eac0c	-0.038738295
166	0xbf7f6bb9	-0.99773747
167	0x3e8ac767	0.27105257
168	0x3eeac73e	0.45855135
169	0xbec2c627	-0.38041803
170	0xbf2f9df3	-0.68600386
171	0xbfe0dd86	-1.7567604
172	0xbfae39bc	-1.3611369
173	0xbe9b663f	-0.30351445
174	0xc01464a4	-2.3186426
175	0x3f1ba381	0.6079636
176	0xbedbc5f9	-0.4292448
177	0x3ff9608d	1.948259
178	0x3f40b0f9	0.7527004
179	0xbfaa5da1	-1.3309823
180	0xc00424b4	-2.0647402
181	0xbf7336e3	-0.95005625
182	0x3ea3dbd6	0.3200366
183	0xbefabeb3	-0.48973617
184	0xbe633eb6	-0.22191891
185	0x3f71ce2d	0.94455224
186	0x4015e267	2.3419435
187	0xbe5ba9d4	-0.21451503
188	0x3f984c90	1.1898365
189	0xbeafbb02	-0.34322363
190	0x3f944e37	1.1586369
191	0xbee79ce2	-0.4523688
192	0x3cb12c7e	0.02162766
193	0xc06d9fcc	-3.7128782
194	0x3ef7ecaa	0.48422748
195	0xbfcb2729	-1.5871326
196	0x3efa04e3	0.48831853
197	0x3efa0beb	0.48837218
198	0xbf9172af	-1.1363124
199	0xbe6e4fa7	-0.23272572
200	0xbfa75235	-1.3071963
201	0x3f380175	0.71877223
202	0xbd74ffc9	-0.05981425
203	0x403909f0	2.8912315
204	0x3fab515e	1.3384206
205	0xbe177806	-0.14791879
206	0xbcf12580	-0.029436827
207	0x3f146f40	0.57982254
208	0xbe70077b	-0.23440354
209	0x3fc9cb18	1.5765104
210	0xbe8d7aae	-0.2763266
211	0x3eadedc7	0.33970472
212	0x3f26212e	0.6489438
213	0xbeab1d77	-0.33420917
214	0x3fc6f107	1.5542306
215	0xbe868a62	-0.26277453
216	0xbe6f340f	-0.23359703
217	0xbea1f90d	-0.31635323
218	0x4034c6f5	2.8246434
219	0xbf3b75fb	-0.732269
220	0xbfb35773	-1.4011062
221	0xbf5ea205	-0.8696597
222	0xbf76fbfe	-0.9647826
223	0xbe5076d4	-0.2035783
224	0xbf74c817	-0.9561781
225	0x3ec3b08c	0.38220632
226	0x3f53116c	0.8244846
227	0x3e0f890e	0.14017126
228	0x3ddf1a21	0.108936556
229	0x3e6dad13	0.23210554
230	0x3fc5207f	1.5400542
231	0x3fd40896	1.656512
232	0x3e82f1f1	0.25575212
233	0xbf690ddd	-0.9103678
234	0x3f2ad63c	0.66733146
235	0x3f0eee73	0.55832595
236	0xbeb6e5ce	-0.35722202
237	0xc04d4e0e	-3.207889
238	0x3fbb4458	1.4630232
239	0x3b326ac8	0.002722429
240	0x3edaf2e3	0.42763433
241	0x3fef7b7e	1.8709562
242	0x3fb07426	1.3785446
243	0x401464e4	2.3186579
244	0xbeefcb44	-0.46834767
245	0x3d89f17b	0.06735512
246	0x400669b2	2.1002011
247	0x3fd37275	1.6519305
248	0x3cbc60f0	0.022995442
249	0xbfad8c83	-1.3558506
250	0x4076702a	3.850596
251	0x3f486ae1	0.78288084
252	0xbe9ab2f5	-0.30214658
253	0xbf2b0ff5	-0.66821223
254	0x3ff8fb49	1.9451686
255	0xbe34691c	-0.17618221

fc1.bias f4 [16]
0	0x3bc02521	0.005863801
1	0xbf9091e7	-1.1294526
2	0xc002bafa	-2.0426621
3	0xbff63e10	-1.923769
4	0xbfd9970c	-1.6999221
5	0xbfa5b110	-1.294466
6	0x3e2fbd30	0.17162013
7	0xbfc7df29	-1.5614978
8	0xbea21028	-0.3165295
9	0xbf066eb8	-0.52512693
10	0x3e0ee690	0.1395514
11	0xbea018a4	-0.312688
12	0x3d5011da	0.050798275
13	0x3f7d77f3	0.99011153
14	0xbf876dd1	-1.0580388
15	0xbefe1a12	-0.49629265

fc2.weight f4 [15, 16]
0	0xbf9b8c5a	-1.2152207
1	0x3f2e187e	0.6800612
2	0xbfa765eb	-1.3077978
3	0xbf962581	-1.1730195
4	0x3f84544e	1.0338228
5	0xbf8cdf6b	-1.1005682
6	0xbe29b26d	-0.1657197
7	0xbecfb954	-0.40571082
8	0xbe8cc09a	-0.27490693
9	0x3ffda728	1.9816637
10	0x3ea654d2	0.32486588
11	0x3e1e74d3	0.15474252
12	0xbf4ede0c	-0.80807567
13	0xbf240d69	-0.6408296
14	0xbe68a161	-0.22717811
15	0xbf8a3db4	-1.080008
16	0x3f029b38	0.51018095
17	0xbfca729e	-1.5816228
18	0x3fba3334	1.4546876
19	0xbffc5a08	-1.9714975
20	0x3f1fff4c	0.6249893
21	0x3e805e02	0.25071722
22	0xbf7a5a34	-0.9779389
23	0x3f8f932a	1.1216786
24	0x3ecb46b3	0.39702377
25	0xbfcc3ce1	-1.5956079
26	0xbea618e8	-0.32440877
27	0x3e64cf75	0.22344764
28	0x3fae36e5	1.3610502
29	0xbe2acfea	-0.16680875
30	0x3f882e47	1.0639123
31	0x3fa94df4	1.3226914
32	0xbe1d6dfc	-0.15373987
33	0xc01c4230	-2.4415398
34	0x3f2a5389	0.66533715
35	0xbed99d9c	-0.4250306
36	0xc00dc790	-2.2153053
37	0xbf126391	-0.57183176
38	0xbfc7dd1e	-1.5614355
39	0xbe4980b7	-0.19678007
40	0xbf437576	-0.76351106
41	0xba54ef40	-0.0008122809
42	0xbf0d3984	-0.55165887
43	0xbf6f62be	-0.93510044
44	0x3f70a78d	0.9400566
45	0xbfdcac71	-1.7240125
46	0xbf9e33f5	-1.2359606
47	0x3f2da179	0.6782451
48	0xbf2e03e9	-0.67974716
49	0xbf862e75	-1.0482928
50	0xbf6a5cf3	-0.9154808
51	0xbe7eba0b	-0.24875657
52	0xbfb1ba8a	-1.3885052
53	0xbf150920	-0.5821705
54	0x3f91188a	1.1335614
55	0xbf867aeb	-1.0506262
56	0x3f8837b0	1.0641994
57	0x3fa2a01f	1.2705115
58	0x3f3097ae	0.68981445
59	0x3f9a5eac	1.2060142
60	0xc0145543	-2.317704
61	0xbf031e68	-0.5121827
62	0x3f3eec6c	0.745795
63	0x3f4aab5e	0.79167736
64	0xbeb6e6d1	-0.35722974
65	0xbfa36d6f	-1.2767771
66	0xbe99f63d	-0.30070677
67	0xbf4746c8	-0.7784238
68	0x3dff2dac	0.12459883
69	0x3ed534cb	0.4164184
70	0xbf463811	-0.774293
71	0x3f5de422	0.8667623
72	0xbfdaf01c	-1.7104526
73	0xbf89e550	-1.0773106
74	0xbf579633	-0.8421356
75	0xbf127c64	-0.57221055
76	0x3ef383c8	0.4756148
77	0x3d196abf	0.037455317
78	0x3f68223b	0.9067723
79	0xbe4e30f5	-0.20135863
80	0xc0032a2e	-2.0494494
81	0xbeacbe38	-0.33738875
82	0xbf8bfff1	-1.0937482
83	0xbfb191da	-1.3872635
84	0xbf3d7521	-0.7400685
85	0x3d668052	0.05627472
86	0xbf2d16ca	-0.676129
87	0xbecb7084	-0.3973428
88	0xbd2b6930	-0.04184836
89	0xbfb76091	-1.4326345
90	0x3eee945c	0.46597564
91	0x3f7e8482	0.9942094
92	0xbf9703cb	-1.1798033
93	0xbdc880d1	-0.09790195
94	0x3f0f7e89	0.5605245
95	0xbf7e72ab	-0.9939372
96	0xbe53b57b	-0.20674698
97	0x3f9e5f8c	1.2372909
98	0x3f0fba0b	0.56143254
99	0xbfe940c6	-1.8222892
100	0x3f0c049a	0.5469452
101	0x3dbfda17	0.09367769
102	0xbf467613	-0.77523917
103	0xbfc49748	-1.5358667
104	0x3e9e69d9	0.3094013
105	0x3eb96a53	0.3621393
106	0xbe1e7eb5	-0.15478022
107	0x3ea52afd	0.3225936
108	0xbec2823e	-0.37989992
109	0xbfb47dae	-1.4100854
110	0x3f364d52	0.7121173
111	0x3ef0b0ac	0.4700979
112	0xc02c04c1	-2.6877902
113	0xbf7bfbc9	-0.9843107
114	0x3fe95199	1.8228027
115	0x3f3667ff	0.71252435
116	0xbe765246	-0.24054822
117	0x3f9f4439	1.2442695
118	0xbf1e5890	-0.61853886
119	0xbf0fa9a5	-0.5611823
120	0x3e1ca07e	0.15295598
121	0xbe9cd109	-0.3062823
122	0xbf155981	-0.583397
123	0xbe86a6bc	-0.26299083
124	0xbf51b019	-0.8190933
125	0xbd9cfd92	-0.07665552
126	0x3fdbc502	1.7169497
127	0x3f350d99	0.70723873
128	0xbf4e930d	-0.8069313
129	0xbfcd3080	-1.6030426
130	0x3f67a635	0.90487987
131	0x3d5106c5	0.051031847
132	0xbe28ecd3	-0.16496591
133	0x3f0b4004	0.54394555
134	0x3fd91dbd	1.69622
135	0xc0310992	-2.7662091
136	0x3ec4fec7	0.3847563
137	0xbf5e1389	-0.8674856
138	0xbfc355c8	-1.5260553
139	0xc007461d	-2.1136544
140	0xbf2aba52	-0.6669055
141	0xbe201679	-0.15633573
142	0x3f2e447c	0.6807325
143	0xbfa5490a	-1.2912915
144	0x3e82a8e3	0.25519475
145	0xbd928d0e	-0.0715581
146	0x3fefbd22	1.8729594
147	0xbfd12f96	-1.6342647
148	0x3f85ff50	1.046854
149	0xbe97f26f	-0.2967715
150	0x3fc6751d	1.550449
151	0x3f0b0823	0.5430929
152	0x3f051ba7	0.5199532
153	0xbf89208b	-1.0713056
154	0xbe407aa9	-0.18796791
155	0xbecd7156	-0.4012553
156	0xbf494d37	-0.78633446
157	0x3e3ad842	0.18246558
158	0xbe9306ba	-0.2871607
159	0x3f50239f	0.81304353
160	0xbef091b4	-0.46986163
161	0xc02af83c	-2.671401
162	0xbd409104	-0.047013298
163	0x3dabfaa6	0.08397417
164	0xc003d1c2	-2.0596776
165	0x4004320c	2.0655546
166	0xbe727fc3	-0.2368155
167	0xbff247c5	-1.8928152
168	0xbdd80630	-0.10548055
169	0x3e43a2a7	0.19105016
170	0xbfd156ed	-1.6354653
171	0x3f863b20	1.0486794
172	0xbf5f5185	-0.87233764
173	0x3f045cec	0.5170429
174	0x3d19f3a0	0.037585855
175	0xbfec471f	-1.8459204
176	0xbf80a7b8	-1.0051184
177	0xbe88b61a	-0.26701432
178	0x3d9cca40	0.076557636
179	0xbf922b9b	-1.1419557
180	0x3e62674d	0.22109719
181	0xbf0cc38b	-0.54985875
182	0xc00e6f92	-2.2255597
183	0x4003af9e	2.0575938
184	0x3f319e98	0.6938262
185	0x3ff527c1	1.9152757
186	0xbf75b87e	-0.9598464
187	0xc06b8dee	-3.6805377
188	0x3e987253	0.29774722
189	0x3f13e7a0	0.57775307
190	0x3f2c94ba	0.6741444
191	0xbf293b85	-0.66106445
192	0xbef809dd	-0.48445025
193	0xbea2731d	-0.3172845
194	0x3ee6557a	0.44987088
195	0x3e7b3ba7	0.24534474
196	0xbf78ab90	-0.97136784
197	0x3c0fdb81	0.008780361
198	0xbf16b402	-0.5886842
199	0xbeb3a0b2	-0.35083538
200	0xbf0f351c	-0.55940413
201	0x3f2e9723	0.68199366
202	0x3f5a2f7b	0.852287
203	0x3d86dded	0.06585298
204	0x3dae2c07	0.08504491
205	0x3d26059b	0.04053269
206	0xbf466311	-0.77494913
207	0xbfb70517	-1.4298428
208	0xbef4b046	-0.47790736
209	0xbd22fc9a	-0.03979168
210	0x3fc65101	1.549347
211	0x3e842fa7	0.25817606
212	0x3f353c6e	0.70795333
213	0x3f91bfc8	1.1386652
214	0xbec9007f	-0.3925819
215	0xbece243c	-0.4026202
216	0x3f009bb7	0.502376
217	0xbf38acb1	-0.72138506
218	0xbe9fcb15	-0.31209627
219	0x3f0598ee	0.5218648
220	0xbdbf57e9	-0.093429394
221	0x3edb13d4	0.42788565
222	0xbf647faa	-0.892573
223	0x3f0e3741	0.5555306
224	0xbf2693be	-0.65069187
225	0xbe0583d0	-0.13038564
226	0xbd9e6919	-0.077348895
227	0x3f7bd825	0.98376685
228	0xbed8454d	-0.42240372
229	0xbf9bb5a2	-1.2164805
230	0xc01f8b51	-2.4928782
231	0x3fed5cd8	1.8543959
232	0x3fcdde24	1.6083417
233	0xbf5b4d42	-0.8566476
234	0xbf3e8885	-0.7442706
235	0xbf80be76	-1.0058124
236	0xbfc52c6b	-1.540418
237	0x3f3addc3	0.7299463
238	0x3ebc21b3	0.3674446
239	0xbf2c5d7f	-0.67330164

fc2.bias f4 [15]
0	0x3e6a42ed	0.22877093
1	0xbf1ac083	-0.6045
2	0xbe3f7fed	-0.18701144
3	0xbda5de01	-0.080989845
4	0xbf3671d2	-0.71267426
5	0xbf15cf03	-0.58519
6	0x3e5d5275	0.21613486
7	0xbf45611f	-0.7710132
8	0xbf9b5c7b	-1.2137598
9	0xbf8a21f0	-1.0791607
10	0xbdfe10c5	-0.12405542
11	0xbfd06657	-1.6281232
12	0x3e68958a	0.22713295
13	0x3e8f5fcd	0.28002778
14	0xbea34b5e	-0.31893438
