old_code/mimic_cav_90_.pth (torch_old, 10328 bytes, 4 tensors)

fc1.weight f4 [64, 21]
0.16544272 -0.13657011 -0.16936053 0.021418285 0.043211397 0.09663993 -0.0066809384 -0.07359424
0.12944672 -0.015094393 0.025809318 0.18675609 -0.09252698 0.085167475 -0.09250048 -0.20539078
-0.15413211 0.1300287 0.097298406 0.07944451 0.040488157 -0.1444776 -0.009176112 -0.12681587
0.17993203 0.06403502 0.18238601 -0.2301154 -0.19744778 0.1131134 0.038696352 -0.093941405
0.094846234 -0.1011953 -0.11490884 -0.07151414 -0.0072053657 0.19078034 -0.105767585 0.044987936
-0.017842527 0.04860158 0.11521474 -0.084920034 0.19156426 0.13947886 0.120291166 -0.04887781
-0.16295418 -0.078512095 0.16786605 0.040118415 0.14041926 -0.18137732 0.052606218 -0.13185951
-0.08566865 0.03641173 0.18612258 -0.03475847 -0.10843873 0.046727296 -0.06885093 -0.18356474
-0.21335962 -0.14040524 -0.15627667 -0.001218738 -0.20457019 -0.04210682 0.110256486 0.025850583
-0.20328365 -0.18517162 -0.021219537 0.051526897 -0.16621628 0.04829267 -0.17308386 0.23519872
-0.08193435 0.18342108 -0.10148343 0.058987755 0.056751966 -0.23140526 0.12219834 0.041019738
-0.009162805 -0.09339226 -0.20979004 -0.0995321 0.21276633 0.14993958 -0.006286025 -0.1762341
-0.19887294 -0.07033814 0.09589972 -0.1321771 -0.1120554 0.009713329 0.062845714 -0.022906836
0.1729038 0.16442981 -0.07888251 0.19497472 0.17881872 -0.21379651 0.08946151 -0.17265335
-0.064116634 0.2059735 -0.17449899 0.20709269 -0.101498045 0.089289464 0.046192117 -0.18920012
-0.08385976 0.07632218 0.16123551 0.05622093 -0.122883305 0.09607722 -0.21552615 -0.14028776
-0.20526478 0.12165845 -0.15929882 -0.117274776 0.10834287 0.10418365 -0.051017635 -0.08387736
-0.09467122 0.2122564 -0.20502988 0.19755158 -0.17119361 -0.05047323 -0.120219275 0.091612756
0.16161844 0.16882065 -0.13309196 0.10698316 0.038285546 -0.033342723 -0.21849112 -0.06911311
-0.17783536 -0.12211551 -0.025707498 -0.122587964 -0.030897785 0.16718034 0.10878654 -0.09836345
0.20018636 0.060385823 -0.004167508 -0.12954241 0.13729838 -0.18246831 0.008483414 -0.03293628
-0.103089444 0.010466933 -0.025646001 -0.21994 -0.06480045 0.16019365 0.012541688 -0.15365936
0.023664454 -0.046369076 -0.1300993 0.06626305 -0.039189342 0.13175319 -0.10928019 0.0033879038
0.16776788 0.17510492 -0.14364368 -0.162302 0.07616959 0.13605407 -0.045010883 -0.14180546
-0.20809174 -0.22194622 0.18360533 0.108954735 -0.15573949 -0.02799431 0.1359886 -0.051579744
0.06564327 -0.04794066 0.05258094 -0.15138681 -0.072280906 0.21807157 -0.15426752 0.04248473
0.073634736 -0.18875992 -0.18994316 -0.055210665 -0.17401852 0.0895018 0.107848816 0.17494336
-0.123852514 -0.058597732 0.07503302 -0.18842676 -0.12235565 0.035753146 -0.14272656 -0.11225639
-0.13217647 0.1833988 0.20986885 0.065959014 0.013456629 -0.05132538 -0.005524592 0.0880243
-0.03659011 -0.049409658 -0.16182101 0.13738085 -0.016456945 -0.03807931 -0.011560813 0.14909522
-0.19086424 -0.216487 0.0056922273 -0.012455827 0.03865336 0.19980693 -0.062300608 0.22615358
0.14509226 0.09013 0.050097503 -0.0017022239 0.09261046 -0.11710431 0.030954361 0.029115483
00000000: d169 293e 09d9 0bbe d96c 2dbe 6675 af3c
00000010: 6ffe 303d 28eb c53d c6eb dabb 94b8 96bd
00000020: ae8d 043e 794e 77bc 106e d33c fd3c 3f3e
00000030: c97e bdbd 496c ae3d e470 bdbd f651 52be
00000040: cfd4 1dbe 3e26 053e 6344 c73d ceb3 a23d
00000050: e9d6 253d f0f1 13be 6757 16bc 05dc 01be
00000060: 1a40 383e cb24 833d 66c3 3a3e 5fa3 6bbe
00000070: c02f 4abe 00a8 e73d 1180 1e3d 5a64 c0bd
00000080: be3e c23d 7b3f cfbd 5355 ebbd 0176 92bd
00000090: fd1a ecbb ec5b 433e ad9c d8bd 4545 383d
000000a0: 7e2a 92bc 7312 473d b5f5 eb3d 8eea adbd
000000b0: 6c29 443e 8cd3 0e3e 375b f63d 1934 48bd
000000c0: 76dd 26be f3ca a0bd 14e5 2b3e 3553 243d
000000d0: 11ca 0f3e faba 39be 9e79 573d 2e06 07be
000000e0: 0c73 afbd 7724 153d eb96 3e3e e65e 0ebd
000000f0: 2015 debd 1f65 3f3d b701 8dbd 65f8 3bbe
00000100: f27a 5abe 64c6 0fbe fe06 20be 10be 9fba
00000110: d97a 51be 3378 2cbd 27ce e13d 9ac4 d33c
00000120: 9729 50be a19d 3dbe 98d4 adbc de0d 533d
00000130: 9a34 2abe 89ce 453d e53c 31be efd7 703e
00000140: 32cd a7bd bcd2 3b3e 8bd6 cfbd 259d 713d
00000150: c074 683d 80f5 6cbe 2043 fa3d 5004 283d
00000160: 971f 16bc 7144 bfbd 33d3 56be 7cd7 cbbd
00000170: 6bdf 593e c389 193e 00fb cdbb b676 34be
00000180: 59a5 4bbe 710d 90bd 1367 c43d 6f59 07be
00000190: 4d7d e5bd a824 1f3c 41b5 803d 1ea7 bbbc
000001a0: b20d 313e 4a60 283e 278d a1bd 74a7 473e
000001b0: 411c 373e 79ed 5abe 9937 b73d 0acc 30be
000001c0: 954f 83bd b8ea 523e ddaf 32be 1b10 543e
000001d0: 35de cfbd 65dd b63d f233 3d3d adbd 41be
000001e0: aabe abbd ce4e 9c3d ec1a 253e eb47 663d
000001f0: 3eaa fbbd 22c4 c43d e3b2 5cbe 98a7 0fbe
00000200: ee30 52be 1128 f93d 3b1f 23be c22d f0bd
00000210: dee2 dd3d 3d5e d53d def7 50bd e5c7 abbd
00000220: fce2 c1bd be59 593e 5af3 51be f64a 4a3e
00000230: 614d 2fbe 05bd 4ebd 8635 f6bd 789f bb3d
00000240: 4e7f 253e 52df 2c3e 4249 08be fd19 db3d
00000250: 4ed1 1c3d 6192 08bd 23bc 5fbe 2d8b 8dbd
00000260: 791a 36be b217 fabd 8898 d2bc 660f fbbd
00000270: 5a1d fdbc 5331 2b3e 7acb de3d c772 c9bd
00000280: a7fd 4c3e 2057 773d 978f 88bb c4a6 04be
00000290: f297 0c3e f9d8 3abe 04fe 0a3c 31e8 06bd
000002a0: 8f20 d3bd 807d 2b3c 9017 d2bc f437 61be
000002b0: 19b6 84bd ce09 243e a77b 4d3c e158 1dbe
000002c0: f5db c13c 80ed 3dbd c038 05be ecb4 873d
000002d0: 0185 20bd 4fea 063e 4bce dfbd 9807 5e3b
000002e0: 58cb 2b3e b44e 333e 5417 13be 7f32 26be
000002f0: cdfe 9b3d c251 0b3e 555d 38bd 7335 11be
00000300: 0016 55be df45 63be 0903 3c3e a923 df3d
00000310: 2c7a 1fbe 5354 e5bc 9840 0b3e 4845 53bd
00000320: fb6f 863d 6d5d 44bd 1d5f 573d 2505 1bbe
00000330: 0308 94bd 274e 5f3e 4ef8 1dbe 7804 2e3d
00000340: cfcd 963d 484a 41be 7680 42be 9424 62bd
00000350: e931 32be b84c b73d d7df dc3d 5a24 333e
00000360: 63a6 fdbd 2d04 70bd e9aa 993d f2f2 40be
00000370: 9995 fabd e471 123d e926 12be aee6 e5bd
00000380: 4559 07be e5cc 3b3e dce7 563e 8515 873d
00000390: 3179 5c3c 903a 52bd a307 b5bb 1646 b43d
000003a0: 83df 15bd c861 4abd 68b4 25be 91ad 0c3e
000003b0: b7d0 86bc 0df9 1bbd 9069 3dbc 6bac 183e
000003c0: ea71 43be c5ae 5dbe dd85 ba3b 8613 4cbc
000003d0: fc52 1e3d 309a 4c3e ec2e 7fbd ce94 673e
000003e0: 1193 143e 1496 b83d 0a33 4d3d 281d dfba
000003f0: 8eaa bd3d 62d4 efbd 0094 fd3c 9883 ee3c

fc1.bias f4 [64]
0.2175806 0.019905694 0.063224785 -0.20066811 -0.007974928 0.15227854 0.20960873 -0.07450315
-0.14288928 0.0130012985 -0.11401613 -0.07345893 -0.09839431 0.12680914 -0.027583843 0.06701732
-0.18002751 0.04307178 -0.14043862 -0.022974672 0.18487506 -0.0497259 0.032934487 -0.21506643
0.15645528 -0.0014240533 -0.0060090567 0.054453198 0.12787071 -0.064728774 -0.17988995 -0.14413333
0.06412124 -0.05845944 -0.11694893 -0.02282092 -0.010976734 -0.1419197 0.107858 -0.15711468
-0.15681382 0.1066867 0.02739241 -0.019188792 0.06040329 -0.17315611 -0.06431305 -0.08329459
0.017016944 0.1910588 0.11471018 0.19725403 -0.0304993 0.15826578 0.12343292 0.014809852
-0.17020121 -0.11419362 -0.03568257 -0.1631826 -0.18243755 0.03565563 -0.1333621 0.053184047
00000000: 73cd 5e3e 4411 a33c ff7b 813d f17b 4dbe
00000010: 46a9 02bc e8ee 1b3e aca3 563e 1c95 98bd
00000020: 9151 12be 6603 553c 4a81 e9bd a371 96bd
00000030: f582 c9bd 41da 013e 83f7 e1bc 6040 893d
00000040: 2259 38be 096c 303d 24cf 0fbe 6135 bcbc
00000050: e34f 3d3e 63ad 4bbd 50e6 063d 603a 5cbe
00000060: d035 203e 4da7 baba 9fe7 c4bb 510a 5f3d
00000070: 8af0 023e 8590 84bd 1235 38be b097 13be
00000080: ff51 833d 2a73 6fbd ec82 efbd f0f2 babc
00000090: c2d7 33bc 6653 11be a8e4 dc3d ace2 20be
000000a0: cd93 20be 8e7e da3d 0c66 e03c d031 9dbc
000000b0: 7169 773d d64f 31be 8fb6 83bd 5b96 aabd
000000c0: 1e67 8b3c eba4 433e 2ced ea3d f6fc 493e
000000d0: abd9 f9bc 6d10 223e 66ca fc3d 05a5 723c
000000e0: 3a49 2ebe 58de e9bd e327 12bd 5719 27be
000000f0: e9d0 3abe a30b 123d 1390 08be 84d7 593d

fc2.weight f4 [15, 64]
0.07882247 0.016359499 0.05502253 0.09038222 -0.023315966 0.0155129945 -0.043414522 0.039762758
0.059242796 -0.043081507 -0.061740614 -0.08002289 -0.07541455 -0.012654007 0.043023538 0.05389831
-0.073797286 0.102719724 -0.038992163 0.0636012 -0.01884024 -0.07894843 -0.024484692 0.020992024
0.009608462 -0.013569531 -0.0207819 0.0820785 0.007291153 0.0025780837 -0.027452601 0.04637973
0.027746184 0.02596976 -0.0011643718 0.027641952 -0.009831584 0.059754968 -0.07775478 0.08547443
-0.017317131 -0.08768968 -0.038894016 0.01173945 0.075795226 -0.09092292 -0.024258805 -0.022849862
-0.07915058 0.047148287 -0.0072413646 0.05908673 0.00360551 0.047751054 0.046151724 0.022624483
-0.03147933 -0.08825275 -0.085460305 0.026459431 -0.10957757 -0.06113933 0.075022586 0.07117723
0.122062854 0.02929744 0.022972904 0.035293896 -0.04562669 -0.07752559 -0.086572364 0.09368834
0.07402664 0.041303664 0.014196935 0.081911236 0.11769594 0.00032316888 0.062881 0.075179994
0.1615125 -0.05405051 -0.011336414 0.010022972 -0.019617163 0.07592586 -0.0034219867 -0.053806454
-0.010125227 0.1749251 0.010472721 -0.06831074 0.021540206 0.0673708 0.069811106 -0.10466187
0.019694064 -0.09117091 -0.017202081 0.06025429 -0.11529097 0.097534135 0.107914165 -0.042092986
-0.035352632 0.023637602 -0.023832045 -0.0907525 0.10498724 0.093701005 0.124083705 -0.011886576
0.067548364 -0.033514116 -0.03402659 0.08432366 -0.087666005 -0.09536664 0.022776658 0.085185036
-0.0005497852 -0.004557699 0.07391581 0.04004091 -0.07494587 -0.021385487 0.09323528 0.1242298
-0.07309106 0.019653624 -0.14607948 0.020809066 -0.013777458 0.075750984 -0.04826811 -0.002113385
-0.049550094 0.102626845 -0.06410458 -0.012885857 0.08630726 -0.013040826 -0.024354167 0.05921975
-0.104589365 0.036830198 -0.02191827 -0.036959138 0.081008516 0.020961978 -0.10384783 -0.061924025
-0.08024592 -0.16865194 -0.007288789 -0.079306155 0.07348412 -0.00985083 -0.111764014 -0.1190651
-0.06877463 -0.13216102 0.00046677052 -0.07315083 0.10504489 0.01420854 -0.11928139 -0.012156898
-0.06385364 0.039463144 -0.14769325 0.083104864 0.024293838 0.10560214 -0.13640326 -0.06858752
0.016608076 0.07467748 -0.06528236 -0.013693352 -0.092103206 -0.03603874 0.029088872 0.015086195
-0.035552047 0.12320934 0.074616306 -0.08991816 0.02032479 0.028291708 -0.14302225 -0.11362545
-0.065916404 0.022830317 -0.010498605 -0.11899194 -0.09427679 -0.06740798 0.10697722 -0.019581063
0.04111689 -0.06504628 -0.027038056 0.07902577 0.10570249 0.011341678 0.053907577 -0.0012192291
0.10297724 0.06867803 -0.01365252 0.009548541 0.104349375 -0.04601325 0.022201741 -0.043122485
-0.09374267 -0.040010933 -0.11388686 -0.022355037 0.046793386 0.024097774 0.026658077 0.053138398
0.020290712 -0.077719726 -0.016116772 0.078050196 0.052855454 -0.076273814 -0.06858218 0.011990535
-0.09277254 0.0020561984 0.0045667533 0.009720587 -0.07995935 0.041141625 0.019980583 0.05592624
0.09771699 -0.09232579 0.046121888 -0.109327875 -0.007633718 -0.050329506 -0.043749996 -0.057365946
0.04738027 0.060761675 -0.08191291 0.0034662823 0.12526657 0.10200897 -0.06754406 0.055400223
00000000: ad6d a13d 5b04 863c 4e5f 613d 501a b93d
00000010: 2001 bfbc 372a 7e3c 6dd3 31bd 46de 223d
00000020: 93a8 723d 3c76 30bd bae3 7cbd 0ae3 a3bd
00000030: f272 9abd c152 4fbc 7339 303d 79c4 5c3d
00000040: 0823 97bd b85e d23d 3fb6 1fbd 5941 823d
00000050: d956 9abc b7af a1bd 1f94 c8bc 77f7 ab3c
00000060: d06c 1d3c bd52 5ebc ce3e aabc c618 a83d
00000070: a0ea ee3b 11f5 283b 47e4 e0bc acf8 3d3d
00000080: f74b e33c 89be d43c d69d 98ba 6071 e23c
00000090: a714 21bc a0c1 743d e63d 9fbd 380d af3d
000000a0: a8dc 8dbc a696 b3bd 554f 1fbd d256 403c
000000b0: 873a 9b3d cc35 babd 67ba c6bc a22f bbbc
000000c0: b319 a2bd 901e 413d f848 edbb ed04 723d
000000d0: 6c4a 6c3b 9c96 433d 9709 3d3d fb56 b93c
000000e0: 78f0 00bd dcbd b4bd d005 afbd 73c1 d83c
000000f0: 346a e0bd 3c6d 7abd 71a5 993d 5ec5 913d
00000100: 17fc f93d 2f01 f03c ac31 bc3c 5590 103d
00000110: 0de3 3abd bdc5 9ebd da4c b1bd acdf bf3d
00000120: 479b 973d 082e 293d 439a 683c 14c1 a73d
00000130: 920a f13d fe6e a939 c1c7 803d f8f7 993d
00000140: 8863 253e 1164 5dbd 5ebc 39bc 6437 243c
00000150: 2cb4 a0bc 047f 9b3d 6943 60bb 2864 5cbd
00000160: 48e4 25bc 911f 333e c795 2b3c 80e6 8bbd
00000170: 1675 b03c b4f9 893d 20f9 8e3d f658 d6bd
00000180: 7255 a13c d0b7 babd 61eb 8cbc 34cd 763d
00000190: ac1d ecbd fabf c73d 1a02 dd3d b269 2cbd
000001a0: eccd 10bd a5a3 c13c 6c3b c3bc 72dc b9bd
000001b0: 8d03 d73d 50e6 bf3d 991f fe3d eabf 42bc
000001c0: cc56 8a3d 1946 09bd 775f 0bbd e2b1 ac3d
000001d0: 3c8a b3bd 964f c3bd 1d96 ba3c 7e75 ae3d
000001e0: 761f 10ba c058 95bb 2c61 973d f001 243d
000001f0: 387d 99bd 9e30 afbc 23f2 be3d 326c fe3d
00000200: c4b0 95bd a300 a13c dc95 15be c677 aa3c
00000210: d9ba 61bc 5523 9b3d c8b4 45bd b780 0abb
00000220: 0af5 4abd 062e d23d 4349 83bd 341f 53bc
00000230: dcc1 b03d 30a9 55bc 6482 c7bc 6990 723d
00000240: f332 d6bd 43db 163d f28d b3bc 7762 17bd
00000250: cbe7 a53d 74b8 ab3c 2cae d4bd 0ca4 7dbd
00000260: f957 a4bd 18b3 2cbe cbd6 eebb 446b a2bd
00000270: d87e 963d 6065 21bc 88e4 e4bd 67d8 f3bd
00000280: b7d9 8cbd 3855 07be e1b8 f439 1ad0 95bd
00000290: c621 d73d f0ca 683c cd49 f4bd ba2d 47bc
000002a0: b2c5 82bd 1ba4 213d e63c 17be e232 aa3d
000002b0: df03 c73c ef45 d83d 4cad 0bbe 9d77 8cbd
000002c0: a90d 883c 82f0 983d c2b2 85bd 155a 60bc
000002d0: 9ba0 bcbd 5c9d 13bd c94b ee3c 172c 773c
000002e0: 069f 11bd 2e55 fc3d 6fd0 983d 0327 b8bd
000002f0: 2d80 a63c 03c4 e73c 6d74 12be 76b4 e8bd
00000300: 2eff 86bd a506 bb3c 5702 2cbc 0cb2 f3bd
00000310: 3114 c1bd 320d 8abd df16 db3d 7768 a0bc
00000320: 2f6a 283d fc36 85bd ea7e ddbc 43d8 a13d
00000330: 8c7a d83d 72d2 393c 31ce 5c3d 8ace 9fba
00000340: bbe5 d23d 11a7 8c3d d2ae 5fbc 7c71 1c3c
00000350: 20b5 d53d 6478 3cbd 6de0 b53c 34a1 30bd
00000360: 28fc bfbd 81e2 23bd 843d e9bd e921 b7bc
00000370: 6caa 3f3d b268 c53c 0a62 da3c a6a7 593d
00000380: b538 a63c 852b 9fbd 5207 84bc c8d8 9f3d
00000390: f67e 583d 7235 9cbd d074 8cbd f373 443c
000003a0: 88ff bdbd 49c1 063b b4a4 953b 1943 1f3c
000003b0: bac1 a3bd 1f84 283d 52ae a33c ea12 653d
000003c0: d81f c83d 4e15 bdbd 4eea 3c3d 4be7 dfbd
000003d0: 4524 fabb 5026 4ebd 3233 33bd 8ef8 6abd
000003e0: d011 423d 3ce1 783d f5c1 a7bd 912a 633b
000003f0: e145 003e 14ea d03d 8a54 8abd 58eb 623d

fc2.bias f4 [15]
0.070596784 0.063313276 0.07817883 0.016600514 0.12138785 0.07181885 0.08928448 -0.007151258
-0.041330166 0.0688579 0.0980686 -0.020793574 -0.062024027 -0.066062726 0.14644963
00000000: 0c95 903d 64aa 813d 391c a03d cdfd 873c
00000010: 319a f83d c315 933d c8da b63d 1a55 eabb
00000020: d249 29bd 5f05 8d3d 31d8 c83d 4957 aabc
00000030: e80c 7ebd e54b 87bd e4f6 153e
